{"format": "graph-model", "generatedBy": "2.3.0", "convertedBy": "TensorFlow.js Converter v3.18.0", "signature": {"inputs": {"input_ids": {"name": "input_ids:0", "dtype": "DT_INT32", "tensorShape": {"dim": [{"size": "-1"}, {"size": "5"}]}}}, "outputs": {"Identity_5:0": {"name": "Identity_5:0", "dtype": "DT_FLOAT", "tensorShape": {"dim": [{"size": "2"}, {"size": "-1"}, {"size": "12"}, {"size": "5"}, {"size": "64"}]}}, "Identity_2:0": {"name": "Identity_2:0", "dtype": "DT_FLOAT", "tensorShape": {"dim": [{"size": "2"}, {"size": "-1"}, {"size": "12"}, {"size": "5"}, {"size": "64"}]}}, "Identity_4:0": {"name": "Identity_4:0", "dtype": "DT_FLOAT", "tensorShape": {"dim": [{"size": "2"}, {"size": "-1"}, {"size": "12"}, {"size": "5"}, {"size": "64"}]}}, "Identity_6:0": {"name": "Identity_6:0", "dtype": "DT_FLOAT", "tensorShape": {"dim": [{"size": "2"}, {"size": "-1"}, {"size": "12"}, {"size": "5"}, {"size": "64"}]}}, "Identity_3:0": {"name": "Identity_3:0", "dtype": "DT_FLOAT", "tensorShape": {"dim": [{"size": "2"}, {"size": "-1"}, {"size": "12"}, {"size": "5"}, {"size": "64"}]}}, "logits": {"name": "Identity:0", "dtype": "DT_FLOAT", "tensorShape": {"dim": [{"size": "-1"}, {"size": "5"}, {"size": "50257"}]}}, "Identity_1:0": {"name": "Identity_1:0", "dtype": "DT_FLOAT", "tensorShape": {"dim": [{"size": "2"}, {"size": "-1"}, {"size": "12"}, {"size": "5"}, {"size": "64"}]}}}}, "modelTopology": {"node": [{"name": "StatefulPartitionedCall/tfgp_t2lm_head_model/wte/Reshape/shape", "op": "Const", "attr": {"dtype": {"type": "DT_INT32"}, "value": {"tensor": {"dtype": "DT_INT32", "tensorShape": {"dim": [{"size": "2"}]}}}}}, {"name": "unknown_74", "op": "Const", "attr": {"value": {"tensor": {"dtype": "DT_FLOAT", "tensorShape": {"dim": [{"size": "768"}]}}}, "dtype": {"type": "DT_FLOAT"}}}, {"name": "StatefulPartitionedCall/tfgp_t2lm_head_model/transformer/h_._5/mlp/c_proj/Reshape/shape", "op": "Const", "attr": {"value": {"tensor": {"dtype": "DT_INT32", "tensorShape": {"dim": [{"size": "2"}]}}}, "dtype": {"type": "DT_INT32"}}}, {"name": "unknown_71", "op": "Const", "attr": {"value": {"tensor": {"dtype": "DT_FLOAT", "tensorShape": {"dim": [{"size": "3072"}, {"size": "768"}]}}}, "dtype": {"type": "DT_FLOAT"}}}, {"name": "unknown_72", "op": "Const", "attr": {"dtype": {"type": "DT_FLOAT"}, "value": {"tensor": {"dtype": "DT_FLOAT", "tensorShape": {"dim": [{"size": "1"}, {"size": "768"}]}}}}}, {"name": "StatefulPartitionedCall/tfgp_t2lm_head_model/transformer/h_._5/mlp/mul_2/x", "op": "Const", "attr": {"dtype": {"type": "DT_FLOAT"}, "value": {"tensor": {"dtype": "DT_FLOAT", "tensorShape": {}}}}}, {"name": "StatefulPartitionedCall/tfgp_t2lm_head_model/transformer/h_._5/mlp/add_1/x", "op": "Const", "attr": {"value": {"tensor": {"dtype": "DT_FLOAT", "tensorShape": {}}}, "dtype": {"type": "DT_FLOAT"}}}, {"name": "StatefulPartitionedCall/tfgp_t2lm_head_model/transformer/h_._5/mlp/Sqrt", "op": "Const", "attr": {"dtype": {"type": "DT_FLOAT"}, "value": {"tensor": {"dtype": "DT_FLOAT", "tensorShape": {}}}}}, {"name": "StatefulPartitionedCall/tfgp_t2lm_head_model/transformer/h_._5/mlp/Cast_1/x", "op": "Const", "attr": {"dtype": {"type": "DT_FLOAT"}, "value": {"tensor": {"dtype": "DT_FLOAT", "tensorShape": {}}}}}, {"name": "StatefulPartitionedCall/tfgp_t2lm_head_model/transformer/h_._5/mlp/c_fc/Reshape/shape", "op": "Const", "attr": {"value": {"tensor": {"dtype": "DT_INT32", "tensorShape": {"dim": [{"size": "2"}]}}}, "dtype": {"type": "DT_INT32"}}}, {"name": "unknown_69", "op": "Const", "attr": {"value": {"tensor": {"dtype": "DT_FLOAT", "tensorShape": {"dim": [{"size": "768"}, {"size": "3072"}]}}}, "dtype": {"type": "DT_FLOAT"}}}, {"name": "unknown_70", "op": "Const", "attr": {"value": {"tensor": {"dtype": "DT_FLOAT", "tensorShape": {"dim": [{"size": "1"}, {"size": "3072"}]}}}, "dtype": {"type": "DT_FLOAT"}}}, {"name": "unknown_68", "op": "Const", "attr": {"value": {"tensor": {"dtype": "DT_FLOAT", "tensorShape": {"dim": [{"size": "768"}]}}}, "dtype": {"type": "DT_FLOAT"}}}, {"name": "StatefulPartitionedCall/tfgp_t2lm_head_model/transformer/h_._5/attn/c_proj/Reshape/shape", "op": "Const", "attr": {"value": {"tensor": {"dtype": "DT_INT32", "tensorShape": {"dim": [{"size": "2"}]}}}, "dtype": {"type": "DT_INT32"}}}, {"name": "unknown_65", "op": "Const", "attr": {"dtype": {"type": "DT_FLOAT"}, "value": {"tensor": {"dtype": "DT_FLOAT", "tensorShape": {"dim": [{"size": "768"}, {"size": "768"}]}}}}}, {"name": "unknown_66", "op": "Const", "attr": {"value": {"tensor": {"dtype": "DT_FLOAT", "tensorShape": {"dim": [{"size": "1"}, {"size": "768"}]}}}, "dtype": {"type": "DT_FLOAT"}}}, {"name": "StatefulPartitionedCall/tfgp_t2lm_head_model/transformer/h_._5/attn/strided_slice/stack", "op": "Const", "attr": {"dtype": {"type": "DT_INT32"}, "value": {"tensor": {"dtype": "DT_INT32", "tensorShape": {"dim": [{"size": "1"}]}}}}}, {"name": "StatefulPartitionedCall/tfgp_t2lm_head_model/transformer/h_._5/attn/strided_slice/stack_1", "op": "Const", "attr": {"value": {"tensor": {"dtype": "DT_INT32", "tensorShape": {"dim": [{"size": "1"}]}}}, "dtype": {"type": "DT_INT32"}}}, {"name": "StatefulPartitionedCall/tfgp_t2lm_head_model/transformer/h_._5/attn/strided_slice/stack_2", "op": "Const", "attr": {"dtype": {"type": "DT_INT32"}, "value": {"tensor": {"dtype": "DT_INT32", "tensorShape": {"dim": [{"size": "1"}]}}}}}, {"name": "StatefulPartitionedCall/tfgp_t2lm_head_model/transformer/h_._5/attn/Reshape/shape/1", "op": "Const", "attr": {"dtype": {"type": "DT_INT32"}, "value": {"tensor": {"dtype": "DT_INT32", "tensorShape": {}}}}}, {"name": "StatefulPartitionedCall/tfgp_t2lm_head_model/transformer/h_._5/attn/Reshape/shape/2", "op": "Const", "attr": {"dtype": {"type": "DT_INT32"}, "value": {"tensor": {"dtype": "DT_INT32", "tensorShape": {}}}}}, {"name": "StatefulPartitionedCall/tfgp_t2lm_head_model/transformer/h_._5/attn/Reshape/shape/3", "op": "Const", "attr": {"dtype": {"type": "DT_INT32"}, "value": {"tensor": {"dtype": "DT_INT32", "tensorShape": {}}}}}, {"name": "StatefulPartitionedCall/tfgp_t2lm_head_model/transformer/h_._5/attn/transpose/perm", "op": "Const", "attr": {"value": {"tensor": {"dtype": "DT_INT32", "tensorShape": {"dim": [{"size": "4"}]}}}, "dtype": {"type": "DT_INT32"}}}, {"name": "StatefulPartitionedCall/tfgp_t2lm_head_model/transformer/h_._5/attn/truediv", "op": "Const", "attr": {"dtype": {"type": "DT_FLOAT"}, "value": {"tensor": {"dtype": "DT_FLOAT", "tensorShape": {"dim": [{"size": "1"}, {"size": "1"}, {"size": "5"}, {"size": "5"}]}}}}}, {"name": "StatefulPartitionedCall/tfgp_t2lm_head_model/transformer/h_._5/attn/mul_1", "op": "Const", "attr": {"dtype": {"type": "DT_FLOAT"}, "value": {"tensor": {"dtype": "DT_FLOAT", "tensorShape": {"dim": [{"size": "1"}, {"size": "1"}, {"size": "5"}, {"size": "5"}]}}}}}, {"name": "StatefulPartitionedCall/tfgp_t2lm_head_model/transformer/h_._5/attn/transpose_3/perm", "op": "Const", "attr": {"value": {"tensor": {"dtype": "DT_INT32", "tensorShape": {"dim": [{"size": "4"}]}}}, "dtype": {"type": "DT_INT32"}}}, {"name": "StatefulPartitionedCall/tfgp_t2lm_head_model/transformer/h_._5/attn/strided_slice_6/stack", "op": "Const", "attr": {"dtype": {"type": "DT_INT32"}, "value": {"tensor": {"dtype": "DT_INT32", "tensorShape": {"dim": [{"size": "1"}]}}}}}, {"name": "StatefulPartitionedCall/tfgp_t2lm_head_model/transformer/h_._5/attn/strided_slice_6/stack_1", "op": "Const", "attr": {"dtype": {"type": "DT_INT32"}, "value": {"tensor": {"dtype": "DT_INT32", "tensorShape": {"dim": [{"size": "1"}]}}}}}, {"name": "StatefulPartitionedCall/tfgp_t2lm_head_model/transformer/h_._5/attn/strided_slice_6/stack_2", "op": "Const", "attr": {"dtype": {"type": "DT_INT32"}, "value": {"tensor": {"dtype": "DT_INT32", "tensorShape": {"dim": [{"size": "1"}]}}}}}, {"name": "StatefulPartitionedCall/tfgp_t2lm_head_model/transformer/h_._5/attn/Reshape_4/shape/1", "op": "Const", "attr": {"value": {"tensor": {"dtype": "DT_INT32", "tensorShape": {}}}, "dtype": {"type": "DT_INT32"}}}, {"name": "StatefulPartitionedCall/tfgp_t2lm_head_model/transformer/h_._5/attn/Reshape_4/shape/2", "op": "Const", "attr": {"dtype": {"type": "DT_INT32"}, "value": {"tensor": {"dtype": "DT_INT32", "tensorShape": {}}}}}, {"name": "StatefulPartitionedCall/tfgp_t2lm_head_model/transformer/h_._5/attn/c_proj/strided_slice/stack", "op": "Const", "attr": {"dtype": {"type": "DT_INT32"}, "value": {"tensor": {"dtype": "DT_INT32", "tensorShape": {"dim": [{"size": "1"}]}}}}}, {"name": "StatefulPartitionedCall/tfgp_t2lm_head_model/transformer/h_._5/attn/c_proj/strided_slice/stack_1", "op": "Const", "attr": {"dtype": {"type": "DT_INT32"}, "value": {"tensor": {"dtype": "DT_INT32", "tensorShape": {"dim": [{"size": "1"}]}}}}}, {"name": "StatefulPartitionedCall/tfgp_t2lm_head_model/transformer/h_._5/attn/c_proj/strided_slice/stack_2", "op": "Const", "attr": {"value": {"tensor": {"dtype": "DT_INT32", "tensorShape": {"dim": [{"size": "1"}]}}}, "dtype": {"type": "DT_INT32"}}}, {"name": "StatefulPartitionedCall/tfgp_t2lm_head_model/transformer/h_._5/attn/c_proj/Reshape_1/shape/1", "op": "Const", "attr": {"value": {"tensor": {"dtype": "DT_INT32", "tensorShape": {}}}, "dtype": {"type": "DT_INT32"}}}, {"name": "StatefulPartitionedCall/tfgp_t2lm_head_model/transformer/h_._5/attn/c_proj/Reshape_1/shape/2", "op": "Const", "attr": {"value": {"tensor": {"dtype": "DT_INT32", "tensorShape": {}}}, "dtype": {"type": "DT_INT32"}}}, {"name": "StatefulPartitionedCall/tfgp_t2lm_head_model/transformer/h_._5/ln_2/moments/mean/reduction_indices", "op": "Const", "attr": {"dtype": {"type": "DT_INT32"}, "value": {"tensor": {"dtype": "DT_INT32", "tensorShape": {"dim": [{"size": "1"}]}}}}}, {"name": "StatefulPartitionedCall/tfgp_t2lm_head_model/transformer/h_._5/ln_2/moments/variance/reduction_indices", "op": "Const", "attr": {"dtype": {"type": "DT_INT32"}, "value": {"tensor": {"dtype": "DT_INT32", "tensorShape": {"dim": [{"size": "1"}]}}}}}, {"name": "StatefulPartitionedCall/tfgp_t2lm_head_model/transformer/h_._5/ln_2/batchnorm/add/y", "op": "Const", "attr": {"value": {"tensor": {"dtype": "DT_FLOAT", "tensorShape": {}}}, "dtype": {"type": "DT_FLOAT"}}}, {"name": "unknown_67", "op": "Const", "attr": {"value": {"tensor": {"dtype": "DT_FLOAT", "tensorShape": {"dim": [{"size": "768"}]}}}, "dtype": {"type": "DT_FLOAT"}}}, {"name": "StatefulPartitionedCall/tfgp_t2lm_head_model/transformer/h_._5/mlp/c_fc/strided_slice/stack", "op": "Const", "attr": {"dtype": {"type": "DT_INT32"}, "value": {"tensor": {"dtype": "DT_INT32", "tensorShape": {"dim": [{"size": "1"}]}}}}}, {"name": "StatefulPartitionedCall/tfgp_t2lm_head_model/transformer/h_._5/mlp/c_fc/strided_slice/stack_1", "op": "Const", "attr": {"dtype": {"type": "DT_INT32"}, "value": {"tensor": {"dtype": "DT_INT32", "tensorShape": {"dim": [{"size": "1"}]}}}}}, {"name": "StatefulPartitionedCall/tfgp_t2lm_head_model/transformer/h_._5/mlp/c_fc/strided_slice/stack_2", "op": "Const", "attr": {"value": {"tensor": {"dtype": "DT_INT32", "tensorShape": {"dim": [{"size": "1"}]}}}, "dtype": {"type": "DT_INT32"}}}, {"name": "StatefulPartitionedCall/tfgp_t2lm_head_model/transformer/h_._5/mlp/c_fc/Reshape_1/shape/1", "op": "Const", "attr": {"dtype": {"type": "DT_INT32"}, "value": {"tensor": {"dtype": "DT_INT32", "tensorShape": {}}}}}, {"name": "StatefulPartitionedCall/tfgp_t2lm_head_model/transformer/h_._5/mlp/c_fc/Reshape_1/shape/2", "op": "Const", "attr": {"dtype": {"type": "DT_INT32"}, "value": {"tensor": {"dtype": "DT_INT32", "tensorShape": {}}}}}, {"name": "StatefulPartitionedCall/tfgp_t2lm_head_model/transformer/h_._5/mlp/Pow/y", "op": "Const", "attr": {"dtype": {"type": "DT_FLOAT"}, "value": {"tensor": {"dtype": "DT_FLOAT", "tensorShape": {}}}}}, {"name": "StatefulPartitionedCall/tfgp_t2lm_head_model/transformer/h_._5/mlp/c_proj/strided_slice/stack", "op": "Const", "attr": {"value": {"tensor": {"dtype": "DT_INT32", "tensorShape": {"dim": [{"size": "1"}]}}}, "dtype": {"type": "DT_INT32"}}}, {"name": "StatefulPartitionedCall/tfgp_t2lm_head_model/transformer/h_._5/mlp/c_proj/strided_slice/stack_1", "op": "Const", "attr": {"value": {"tensor": {"dtype": "DT_INT32", "tensorShape": {"dim": [{"size": "1"}]}}}, "dtype": {"type": "DT_INT32"}}}, {"name": "StatefulPartitionedCall/tfgp_t2lm_head_model/transformer/h_._5/mlp/c_proj/strided_slice/stack_2", "op": "Const", "attr": {"value": {"tensor": {"dtype": "DT_INT32", "tensorShape": {"dim": [{"size": "1"}]}}}, "dtype": {"type": "DT_INT32"}}}, {"name": "StatefulPartitionedCall/tfgp_t2lm_head_model/transformer/h_._5/mlp/c_proj/Reshape_1/shape/1", "op": "Const", "attr": {"dtype": {"type": "DT_INT32"}, "value": {"tensor": {"dtype": "DT_INT32", "tensorShape": {}}}}}, {"name": "StatefulPartitionedCall/tfgp_t2lm_head_model/transformer/h_._5/mlp/c_proj/Reshape_1/shape/2", "op": "Const", "attr": {"value": {"tensor": {"dtype": "DT_INT32", "tensorShape": {}}}, "dtype": {"type": "DT_INT32"}}}, {"name": "StatefulPartitionedCall/tfgp_t2lm_head_model/transformer/ln_f/moments/mean/reduction_indices", "op": "Const", "attr": {"dtype": {"type": "DT_INT32"}, "value": {"tensor": {"dtype": "DT_INT32", "tensorShape": {"dim": [{"size": "1"}]}}}}}, {"name": "StatefulPartitionedCall/tfgp_t2lm_head_model/transformer/ln_f/moments/variance/reduction_indices", "op": "Const", "attr": {"value": {"tensor": {"dtype": "DT_INT32", "tensorShape": {"dim": [{"size": "1"}]}}}, "dtype": {"type": "DT_INT32"}}}, {"name": "StatefulPartitionedCall/tfgp_t2lm_head_model/transformer/ln_f/batchnorm/add/y", "op": "Const", "attr": {"value": {"tensor": {"dtype": "DT_FLOAT", "tensorShape": {}}}, "dtype": {"type": "DT_FLOAT"}}}, {"name": "unknown_73", "op": "Const", "attr": {"dtype": {"type": "DT_FLOAT"}, "value": {"tensor": {"dtype": "DT_FLOAT", "tensorShape": {"dim": [{"size": "768"}]}}}}}, {"name": "StatefulPartitionedCall/tfgp_t2lm_head_model/wte/strided_slice/stack", "op": "Const", "attr": {"dtype": {"type": "DT_INT32"}, "value": {"tensor": {"dtype": "DT_INT32", "tensorShape": {"dim": [{"size": "1"}]}}}}}, {"name": "StatefulPartitionedCall/tfgp_t2lm_head_model/wte/strided_slice/stack_1", "op": "Const", "attr": {"value": {"tensor": {"dtype": "DT_INT32", "tensorShape": {"dim": [{"size": "1"}]}}}, "dtype": {"type": "DT_INT32"}}}, {"name": "StatefulPartitionedCall/tfgp_t2lm_head_model/wte/strided_slice/stack_2", "op": "Const", "attr": {"value": {"tensor": {"dtype": "DT_INT32", "tensorShape": {"dim": [{"size": "1"}]}}}, "dtype": {"type": "DT_INT32"}}}, {"name": "StatefulPartitionedCall/tfgp_t2lm_head_model/wte/Reshape_1/shape/1", "op": "Const", "attr": {"dtype": {"type": "DT_INT32"}, "value": {"tensor": {"dtype": "DT_INT32", "tensorShape": {}}}}}, {"name": "StatefulPartitionedCall/tfgp_t2lm_head_model/wte/Reshape_1/shape/2", "op": "Const", "attr": {"value": {"tensor": {"dtype": "DT_INT32", "tensorShape": {}}}, "dtype": {"type": "DT_INT32"}}}, {"name": "StatefulPartitionedCall/tfgp_t2lm_head_model/transformer/h_._5/attn/strided_slice_1/stack", "op": "Const", "attr": {"value": {"tensor": {"dtype": "DT_INT32", "tensorShape": {"dim": [{"size": "1"}]}}}, "dtype": {"type": "DT_INT32"}}}, {"name": "StatefulPartitionedCall/tfgp_t2lm_head_model/transformer/h_._5/attn/strided_slice_1/stack_1", "op": "Const", "attr": {"dtype": {"type": "DT_INT32"}, "value": {"tensor": {"dtype": "DT_INT32", "tensorShape": {"dim": [{"size": "1"}]}}}}}, {"name": "StatefulPartitionedCall/tfgp_t2lm_head_model/transformer/h_._5/attn/strided_slice_1/stack_2", "op": "Const", "attr": {"dtype": {"type": "DT_INT32"}, "value": {"tensor": {"dtype": "DT_INT32", "tensorShape": {"dim": [{"size": "1"}]}}}}}, {"name": "StatefulPartitionedCall/tfgp_t2lm_head_model/transformer/h_._5/attn/Reshape_1/shape/1", "op": "Const", "attr": {"value": {"tensor": {"dtype": "DT_INT32", "tensorShape": {}}}, "dtype": {"type": "DT_INT32"}}}, {"name": "StatefulPartitionedCall/tfgp_t2lm_head_model/transformer/h_._5/attn/Reshape_1/shape/2", "op": "Const", "attr": {"dtype": {"type": "DT_INT32"}, "value": {"tensor": {"dtype": "DT_INT32", "tensorShape": {}}}}}, {"name": "StatefulPartitionedCall/tfgp_t2lm_head_model/transformer/h_._5/attn/Reshape_1/shape/3", "op": "Const", "attr": {"dtype": {"type": "DT_INT32"}, "value": {"tensor": {"dtype": "DT_INT32", "tensorShape": {}}}}}, {"name": "StatefulPartitionedCall/tfgp_t2lm_head_model/transformer/h_._5/attn/transpose_1/perm", "op": "Const", "attr": {"value": {"tensor": {"dtype": "DT_INT32", "tensorShape": {"dim": [{"size": "4"}]}}}, "dtype": {"type": "DT_INT32"}}}, {"name": "StatefulPartitionedCall/tfgp_t2lm_head_model/transformer/h_._5/attn/split/split_dim", "op": "Const", "attr": {"dtype": {"type": "DT_INT32"}, "value": {"tensor": {"dtype": "DT_INT32", "tensorShape": {}}}}}, {"name": "StatefulPartitionedCall/tfgp_t2lm_head_model/transformer/h_._5/attn/c_attn/Reshape/shape", "op": "Const", "attr": {"value": {"tensor": {"dtype": "DT_INT32", "tensorShape": {"dim": [{"size": "2"}]}}}, "dtype": {"type": "DT_INT32"}}}, {"name": "unknown_63", "op": "Const", "attr": {"value": {"tensor": {"dtype": "DT_FLOAT", "tensorShape": {"dim": [{"size": "768"}, {"size": "2304"}]}}}, "dtype": {"type": "DT_FLOAT"}}}, {"name": "unknown_64", "op": "Const", "attr": {"dtype": {"type": "DT_FLOAT"}, "value": {"tensor": {"dtype": "DT_FLOAT", "tensorShape": {"dim": [{"size": "1"}, {"size": "2304"}]}}}}}, {"name": "unknown_62", "op": "Const", "attr": {"dtype": {"type": "DT_FLOAT"}, "value": {"tensor": {"dtype": "DT_FLOAT", "tensorShape": {"dim": [{"size": "768"}]}}}}}, {"name": "StatefulPartitionedCall/tfgp_t2lm_head_model/transformer/h_._4/mlp/c_proj/Reshape/shape", "op": "Const", "attr": {"dtype": {"type": "DT_INT32"}, "value": {"tensor": {"dtype": "DT_INT32", "tensorShape": {"dim": [{"size": "2"}]}}}}}, {"name": "unknown_59", "op": "Const", "attr": {"dtype": {"type": "DT_FLOAT"}, "value": {"tensor": {"dtype": "DT_FLOAT", "tensorShape": {"dim": [{"size": "3072"}, {"size": "768"}]}}}}}, {"name": "unknown_60", "op": "Const", "attr": {"dtype": {"type": "DT_FLOAT"}, "value": {"tensor": {"dtype": "DT_FLOAT", "tensorShape": {"dim": [{"size": "1"}, {"size": "768"}]}}}}}, {"name": "StatefulPartitionedCall/tfgp_t2lm_head_model/transformer/h_._4/mlp/mul_2/x", "op": "Const", "attr": {"dtype": {"type": "DT_FLOAT"}, "value": {"tensor": {"dtype": "DT_FLOAT", "tensorShape": {}}}}}, {"name": "StatefulPartitionedCall/tfgp_t2lm_head_model/transformer/h_._4/mlp/add_1/x", "op": "Const", "attr": {"dtype": {"type": "DT_FLOAT"}, "value": {"tensor": {"dtype": "DT_FLOAT", "tensorShape": {}}}}}, {"name": "StatefulPartitionedCall/tfgp_t2lm_head_model/transformer/h_._4/mlp/Sqrt", "op": "Const", "attr": {"dtype": {"type": "DT_FLOAT"}, "value": {"tensor": {"dtype": "DT_FLOAT", "tensorShape": {}}}}}, {"name": "StatefulPartitionedCall/tfgp_t2lm_head_model/transformer/h_._4/mlp/Cast_1/x", "op": "Const", "attr": {"dtype": {"type": "DT_FLOAT"}, "value": {"tensor": {"dtype": "DT_FLOAT", "tensorShape": {}}}}}, {"name": "StatefulPartitionedCall/tfgp_t2lm_head_model/transformer/h_._4/mlp/c_fc/Reshape/shape", "op": "Const", "attr": {"value": {"tensor": {"dtype": "DT_INT32", "tensorShape": {"dim": [{"size": "2"}]}}}, "dtype": {"type": "DT_INT32"}}}, {"name": "unknown_57", "op": "Const", "attr": {"value": {"tensor": {"dtype": "DT_FLOAT", "tensorShape": {"dim": [{"size": "768"}, {"size": "3072"}]}}}, "dtype": {"type": "DT_FLOAT"}}}, {"name": "unknown_58", "op": "Const", "attr": {"dtype": {"type": "DT_FLOAT"}, "value": {"tensor": {"dtype": "DT_FLOAT", "tensorShape": {"dim": [{"size": "1"}, {"size": "3072"}]}}}}}, {"name": "unknown_56", "op": "Const", "attr": {"value": {"tensor": {"dtype": "DT_FLOAT", "tensorShape": {"dim": [{"size": "768"}]}}}, "dtype": {"type": "DT_FLOAT"}}}, {"name": "StatefulPartitionedCall/tfgp_t2lm_head_model/transformer/h_._4/attn/c_proj/Reshape/shape", "op": "Const", "attr": {"dtype": {"type": "DT_INT32"}, "value": {"tensor": {"dtype": "DT_INT32", "tensorShape": {"dim": [{"size": "2"}]}}}}}, {"name": "unknown_53", "op": "Const", "attr": {"dtype": {"type": "DT_FLOAT"}, "value": {"tensor": {"dtype": "DT_FLOAT", "tensorShape": {"dim": [{"size": "768"}, {"size": "768"}]}}}}}, {"name": "unknown_54", "op": "Const", "attr": {"value": {"tensor": {"dtype": "DT_FLOAT", "tensorShape": {"dim": [{"size": "1"}, {"size": "768"}]}}}, "dtype": {"type": "DT_FLOAT"}}}, {"name": "StatefulPartitionedCall/tfgp_t2lm_head_model/transformer/h_._4/attn/strided_slice/stack", "op": "Const", "attr": {"value": {"tensor": {"dtype": "DT_INT32", "tensorShape": {"dim": [{"size": "1"}]}}}, "dtype": {"type": "DT_INT32"}}}, {"name": "StatefulPartitionedCall/tfgp_t2lm_head_model/transformer/h_._4/attn/strided_slice/stack_1", "op": "Const", "attr": {"value": {"tensor": {"dtype": "DT_INT32", "tensorShape": {"dim": [{"size": "1"}]}}}, "dtype": {"type": "DT_INT32"}}}, {"name": "StatefulPartitionedCall/tfgp_t2lm_head_model/transformer/h_._4/attn/strided_slice/stack_2", "op": "Const", "attr": {"value": {"tensor": {"dtype": "DT_INT32", "tensorShape": {"dim": [{"size": "1"}]}}}, "dtype": {"type": "DT_INT32"}}}, {"name": "StatefulPartitionedCall/tfgp_t2lm_head_model/transformer/h_._4/attn/Reshape/shape/1", "op": "Const", "attr": {"dtype": {"type": "DT_INT32"}, "value": {"tensor": {"dtype": "DT_INT32", "tensorShape": {}}}}}, {"name": "StatefulPartitionedCall/tfgp_t2lm_head_model/transformer/h_._4/attn/Reshape/shape/2", "op": "Const", "attr": {"value": {"tensor": {"dtype": "DT_INT32", "tensorShape": {}}}, "dtype": {"type": "DT_INT32"}}}, {"name": "StatefulPartitionedCall/tfgp_t2lm_head_model/transformer/h_._4/attn/Reshape/shape/3", "op": "Const", "attr": {"dtype": {"type": "DT_INT32"}, "value": {"tensor": {"dtype": "DT_INT32", "tensorShape": {}}}}}, {"name": "StatefulPartitionedCall/tfgp_t2lm_head_model/transformer/h_._4/attn/transpose/perm", "op": "Const", "attr": {"dtype": {"type": "DT_INT32"}, "value": {"tensor": {"dtype": "DT_INT32", "tensorShape": {"dim": [{"size": "4"}]}}}}}, {"name": "StatefulPartitionedCall/tfgp_t2lm_head_model/transformer/h_._4/attn/strided_slice_1/stack", "op": "Const", "attr": {"value": {"tensor": {"dtype": "DT_INT32", "tensorShape": {"dim": [{"size": "1"}]}}}, "dtype": {"type": "DT_INT32"}}}, {"name": "StatefulPartitionedCall/tfgp_t2lm_head_model/transformer/h_._4/attn/strided_slice_1/stack_1", "op": "Const", "attr": {"dtype": {"type": "DT_INT32"}, "value": {"tensor": {"dtype": "DT_INT32", "tensorShape": {"dim": [{"size": "1"}]}}}}}, {"name": "StatefulPartitionedCall/tfgp_t2lm_head_model/transformer/h_._4/attn/strided_slice_1/stack_2", "op": "Const", "attr": {"dtype": {"type": "DT_INT32"}, "value": {"tensor": {"dtype": "DT_INT32", "tensorShape": {"dim": [{"size": "1"}]}}}}}, {"name": "StatefulPartitionedCall/tfgp_t2lm_head_model/transformer/h_._4/attn/Reshape_1/shape/1", "op": "Const", "attr": {"dtype": {"type": "DT_INT32"}, "value": {"tensor": {"dtype": "DT_INT32", "tensorShape": {}}}}}, {"name": "StatefulPartitionedCall/tfgp_t2lm_head_model/transformer/h_._4/attn/Reshape_1/shape/2", "op": "Const", "attr": {"dtype": {"type": "DT_INT32"}, "value": {"tensor": {"dtype": "DT_INT32", "tensorShape": {}}}}}, {"name": "StatefulPartitionedCall/tfgp_t2lm_head_model/transformer/h_._4/attn/Reshape_1/shape/3", "op": "Const", "attr": {"dtype": {"type": "DT_INT32"}, "value": {"tensor": {"dtype": "DT_INT32", "tensorShape": {}}}}}, {"name": "StatefulPartitionedCall/tfgp_t2lm_head_model/transformer/h_._4/attn/transpose_1/perm", "op": "Const", "attr": {"dtype": {"type": "DT_INT32"}, "value": {"tensor": {"dtype": "DT_INT32", "tensorShape": {"dim": [{"size": "4"}]}}}}}, {"name": "StatefulPartitionedCall/tfgp_t2lm_head_model/transformer/h_._4/attn/truediv", "op": "Const", "attr": {"value": {"tensor": {"dtype": "DT_FLOAT", "tensorShape": {"dim": [{"size": "1"}, {"size": "1"}, {"size": "5"}, {"size": "5"}]}}}, "dtype": {"type": "DT_FLOAT"}}}, {"name": "StatefulPartitionedCall/tfgp_t2lm_head_model/transformer/h_._4/attn/mul_1", "op": "Const", "attr": {"value": {"tensor": {"dtype": "DT_FLOAT", "tensorShape": {"dim": [{"size": "1"}, {"size": "1"}, {"size": "5"}, {"size": "5"}]}}}, "dtype": {"type": "DT_FLOAT"}}}, {"name": "StatefulPartitionedCall/tfgp_t2lm_head_model/transformer/h_._4/attn/split/split_dim", "op": "Const", "attr": {"dtype": {"type": "DT_INT32"}, "value": {"tensor": {"dtype": "DT_INT32", "tensorShape": {}}}}}, {"name": "StatefulPartitionedCall/tfgp_t2lm_head_model/transformer/h_._4/attn/c_attn/Reshape/shape", "op": "Const", "attr": {"value": {"tensor": {"dtype": "DT_INT32", "tensorShape": {"dim": [{"size": "2"}]}}}, "dtype": {"type": "DT_INT32"}}}, {"name": "unknown_51", "op": "Const", "attr": {"dtype": {"type": "DT_FLOAT"}, "value": {"tensor": {"dtype": "DT_FLOAT", "tensorShape": {"dim": [{"size": "768"}, {"size": "2304"}]}}}}}, {"name": "unknown_52", "op": "Const", "attr": {"dtype": {"type": "DT_FLOAT"}, "value": {"tensor": {"dtype": "DT_FLOAT", "tensorShape": {"dim": [{"size": "1"}, {"size": "2304"}]}}}}}, {"name": "unknown_50", "op": "Const", "attr": {"value": {"tensor": {"dtype": "DT_FLOAT", "tensorShape": {"dim": [{"size": "768"}]}}}, "dtype": {"type": "DT_FLOAT"}}}, {"name": "StatefulPartitionedCall/tfgp_t2lm_head_model/transformer/h_._3/mlp/c_proj/Reshape/shape", "op": "Const", "attr": {"value": {"tensor": {"dtype": "DT_INT32", "tensorShape": {"dim": [{"size": "2"}]}}}, "dtype": {"type": "DT_INT32"}}}, {"name": "unknown_47", "op": "Const", "attr": {"dtype": {"type": "DT_FLOAT"}, "value": {"tensor": {"dtype": "DT_FLOAT", "tensorShape": {"dim": [{"size": "3072"}, {"size": "768"}]}}}}}, {"name": "unknown_48", "op": "Const", "attr": {"dtype": {"type": "DT_FLOAT"}, "value": {"tensor": {"dtype": "DT_FLOAT", "tensorShape": {"dim": [{"size": "1"}, {"size": "768"}]}}}}}, {"name": "StatefulPartitionedCall/tfgp_t2lm_head_model/transformer/h_._3/mlp/mul_2/x", "op": "Const", "attr": {"dtype": {"type": "DT_FLOAT"}, "value": {"tensor": {"dtype": "DT_FLOAT", "tensorShape": {}}}}}, {"name": "StatefulPartitionedCall/tfgp_t2lm_head_model/transformer/h_._3/mlp/add_1/x", "op": "Const", "attr": {"dtype": {"type": "DT_FLOAT"}, "value": {"tensor": {"dtype": "DT_FLOAT", "tensorShape": {}}}}}, {"name": "StatefulPartitionedCall/tfgp_t2lm_head_model/transformer/h_._3/mlp/Sqrt", "op": "Const", "attr": {"dtype": {"type": "DT_FLOAT"}, "value": {"tensor": {"dtype": "DT_FLOAT", "tensorShape": {}}}}}, {"name": "StatefulPartitionedCall/tfgp_t2lm_head_model/transformer/h_._3/mlp/Cast_1/x", "op": "Const", "attr": {"value": {"tensor": {"dtype": "DT_FLOAT", "tensorShape": {}}}, "dtype": {"type": "DT_FLOAT"}}}, {"name": "StatefulPartitionedCall/tfgp_t2lm_head_model/transformer/h_._3/mlp/c_fc/Reshape/shape", "op": "Const", "attr": {"dtype": {"type": "DT_INT32"}, "value": {"tensor": {"dtype": "DT_INT32", "tensorShape": {"dim": [{"size": "2"}]}}}}}, {"name": "unknown_45", "op": "Const", "attr": {"dtype": {"type": "DT_FLOAT"}, "value": {"tensor": {"dtype": "DT_FLOAT", "tensorShape": {"dim": [{"size": "768"}, {"size": "3072"}]}}}}}, {"name": "unknown_46", "op": "Const", "attr": {"value": {"tensor": {"dtype": "DT_FLOAT", "tensorShape": {"dim": [{"size": "1"}, {"size": "3072"}]}}}, "dtype": {"type": "DT_FLOAT"}}}, {"name": "unknown_44", "op": "Const", "attr": {"dtype": {"type": "DT_FLOAT"}, "value": {"tensor": {"dtype": "DT_FLOAT", "tensorShape": {"dim": [{"size": "768"}]}}}}}, {"name": "StatefulPartitionedCall/tfgp_t2lm_head_model/transformer/h_._3/attn/c_proj/Reshape/shape", "op": "Const", "attr": {"value": {"tensor": {"dtype": "DT_INT32", "tensorShape": {"dim": [{"size": "2"}]}}}, "dtype": {"type": "DT_INT32"}}}, {"name": "unknown_41", "op": "Const", "attr": {"dtype": {"type": "DT_FLOAT"}, "value": {"tensor": {"dtype": "DT_FLOAT", "tensorShape": {"dim": [{"size": "768"}, {"size": "768"}]}}}}}, {"name": "unknown_42", "op": "Const", "attr": {"dtype": {"type": "DT_FLOAT"}, "value": {"tensor": {"dtype": "DT_FLOAT", "tensorShape": {"dim": [{"size": "1"}, {"size": "768"}]}}}}}, {"name": "StatefulPartitionedCall/tfgp_t2lm_head_model/transformer/h_._3/attn/strided_slice/stack", "op": "Const", "attr": {"value": {"tensor": {"dtype": "DT_INT32", "tensorShape": {"dim": [{"size": "1"}]}}}, "dtype": {"type": "DT_INT32"}}}, {"name": "StatefulPartitionedCall/tfgp_t2lm_head_model/transformer/h_._3/attn/strided_slice/stack_1", "op": "Const", "attr": {"dtype": {"type": "DT_INT32"}, "value": {"tensor": {"dtype": "DT_INT32", "tensorShape": {"dim": [{"size": "1"}]}}}}}, {"name": "StatefulPartitionedCall/tfgp_t2lm_head_model/transformer/h_._3/attn/strided_slice/stack_2", "op": "Const", "attr": {"value": {"tensor": {"dtype": "DT_INT32", "tensorShape": {"dim": [{"size": "1"}]}}}, "dtype": {"type": "DT_INT32"}}}, {"name": "StatefulPartitionedCall/tfgp_t2lm_head_model/transformer/h_._3/attn/Reshape/shape/1", "op": "Const", "attr": {"dtype": {"type": "DT_INT32"}, "value": {"tensor": {"dtype": "DT_INT32", "tensorShape": {}}}}}, {"name": "StatefulPartitionedCall/tfgp_t2lm_head_model/transformer/h_._3/attn/Reshape/shape/2", "op": "Const", "attr": {"dtype": {"type": "DT_INT32"}, "value": {"tensor": {"dtype": "DT_INT32", "tensorShape": {}}}}}, {"name": "StatefulPartitionedCall/tfgp_t2lm_head_model/transformer/h_._3/attn/Reshape/shape/3", "op": "Const", "attr": {"value": {"tensor": {"dtype": "DT_INT32", "tensorShape": {}}}, "dtype": {"type": "DT_INT32"}}}, {"name": "StatefulPartitionedCall/tfgp_t2lm_head_model/transformer/h_._3/attn/transpose/perm", "op": "Const", "attr": {"value": {"tensor": {"dtype": "DT_INT32", "tensorShape": {"dim": [{"size": "4"}]}}}, "dtype": {"type": "DT_INT32"}}}, {"name": "StatefulPartitionedCall/tfgp_t2lm_head_model/transformer/h_._3/attn/strided_slice_1/stack", "op": "Const", "attr": {"dtype": {"type": "DT_INT32"}, "value": {"tensor": {"dtype": "DT_INT32", "tensorShape": {"dim": [{"size": "1"}]}}}}}, {"name": "StatefulPartitionedCall/tfgp_t2lm_head_model/transformer/h_._3/attn/strided_slice_1/stack_1", "op": "Const", "attr": {"dtype": {"type": "DT_INT32"}, "value": {"tensor": {"dtype": "DT_INT32", "tensorShape": {"dim": [{"size": "1"}]}}}}}, {"name": "StatefulPartitionedCall/tfgp_t2lm_head_model/transformer/h_._3/attn/strided_slice_1/stack_2", "op": "Const", "attr": {"value": {"tensor": {"dtype": "DT_INT32", "tensorShape": {"dim": [{"size": "1"}]}}}, "dtype": {"type": "DT_INT32"}}}, {"name": "StatefulPartitionedCall/tfgp_t2lm_head_model/transformer/h_._3/attn/Reshape_1/shape/1", "op": "Const", "attr": {"value": {"tensor": {"dtype": "DT_INT32", "tensorShape": {}}}, "dtype": {"type": "DT_INT32"}}}, {"name": "StatefulPartitionedCall/tfgp_t2lm_head_model/transformer/h_._3/attn/Reshape_1/shape/2", "op": "Const", "attr": {"value": {"tensor": {"dtype": "DT_INT32", "tensorShape": {}}}, "dtype": {"type": "DT_INT32"}}}, {"name": "StatefulPartitionedCall/tfgp_t2lm_head_model/transformer/h_._3/attn/Reshape_1/shape/3", "op": "Const", "attr": {"dtype": {"type": "DT_INT32"}, "value": {"tensor": {"dtype": "DT_INT32", "tensorShape": {}}}}}, {"name": "StatefulPartitionedCall/tfgp_t2lm_head_model/transformer/h_._3/attn/transpose_1/perm", "op": "Const", "attr": {"value": {"tensor": {"dtype": "DT_INT32", "tensorShape": {"dim": [{"size": "4"}]}}}, "dtype": {"type": "DT_INT32"}}}, {"name": "StatefulPartitionedCall/tfgp_t2lm_head_model/transformer/h_._3/attn/truediv", "op": "Const", "attr": {"value": {"tensor": {"dtype": "DT_FLOAT", "tensorShape": {"dim": [{"size": "1"}, {"size": "1"}, {"size": "5"}, {"size": "5"}]}}}, "dtype": {"type": "DT_FLOAT"}}}, {"name": "StatefulPartitionedCall/tfgp_t2lm_head_model/transformer/h_._3/attn/mul_1", "op": "Const", "attr": {"value": {"tensor": {"dtype": "DT_FLOAT", "tensorShape": {"dim": [{"size": "1"}, {"size": "1"}, {"size": "5"}, {"size": "5"}]}}}, "dtype": {"type": "DT_FLOAT"}}}, {"name": "StatefulPartitionedCall/tfgp_t2lm_head_model/transformer/h_._3/attn/split/split_dim", "op": "Const", "attr": {"value": {"tensor": {"dtype": "DT_INT32", "tensorShape": {}}}, "dtype": {"type": "DT_INT32"}}}, {"name": "StatefulPartitionedCall/tfgp_t2lm_head_model/transformer/h_._3/attn/c_attn/Reshape/shape", "op": "Const", "attr": {"dtype": {"type": "DT_INT32"}, "value": {"tensor": {"dtype": "DT_INT32", "tensorShape": {"dim": [{"size": "2"}]}}}}}, {"name": "unknown_39", "op": "Const", "attr": {"value": {"tensor": {"dtype": "DT_FLOAT", "tensorShape": {"dim": [{"size": "768"}, {"size": "2304"}]}}}, "dtype": {"type": "DT_FLOAT"}}}, {"name": "unknown_40", "op": "Const", "attr": {"dtype": {"type": "DT_FLOAT"}, "value": {"tensor": {"dtype": "DT_FLOAT", "tensorShape": {"dim": [{"size": "1"}, {"size": "2304"}]}}}}}, {"name": "unknown_38", "op": "Const", "attr": {"value": {"tensor": {"dtype": "DT_FLOAT", "tensorShape": {"dim": [{"size": "768"}]}}}, "dtype": {"type": "DT_FLOAT"}}}, {"name": "StatefulPartitionedCall/tfgp_t2lm_head_model/transformer/h_._2/mlp/c_proj/Reshape/shape", "op": "Const", "attr": {"dtype": {"type": "DT_INT32"}, "value": {"tensor": {"dtype": "DT_INT32", "tensorShape": {"dim": [{"size": "2"}]}}}}}, {"name": "unknown_35", "op": "Const", "attr": {"value": {"tensor": {"dtype": "DT_FLOAT", "tensorShape": {"dim": [{"size": "3072"}, {"size": "768"}]}}}, "dtype": {"type": "DT_FLOAT"}}}, {"name": "unknown_36", "op": "Const", "attr": {"value": {"tensor": {"dtype": "DT_FLOAT", "tensorShape": {"dim": [{"size": "1"}, {"size": "768"}]}}}, "dtype": {"type": "DT_FLOAT"}}}, {"name": "StatefulPartitionedCall/tfgp_t2lm_head_model/transformer/h_._2/mlp/mul_2/x", "op": "Const", "attr": {"value": {"tensor": {"dtype": "DT_FLOAT", "tensorShape": {}}}, "dtype": {"type": "DT_FLOAT"}}}, {"name": "StatefulPartitionedCall/tfgp_t2lm_head_model/transformer/h_._2/mlp/add_1/x", "op": "Const", "attr": {"value": {"tensor": {"dtype": "DT_FLOAT", "tensorShape": {}}}, "dtype": {"type": "DT_FLOAT"}}}, {"name": "StatefulPartitionedCall/tfgp_t2lm_head_model/transformer/h_._2/mlp/Sqrt", "op": "Const", "attr": {"value": {"tensor": {"dtype": "DT_FLOAT", "tensorShape": {}}}, "dtype": {"type": "DT_FLOAT"}}}, {"name": "StatefulPartitionedCall/tfgp_t2lm_head_model/transformer/h_._2/mlp/Cast_1/x", "op": "Const", "attr": {"dtype": {"type": "DT_FLOAT"}, "value": {"tensor": {"dtype": "DT_FLOAT", "tensorShape": {}}}}}, {"name": "StatefulPartitionedCall/tfgp_t2lm_head_model/transformer/h_._2/mlp/c_fc/Reshape/shape", "op": "Const", "attr": {"dtype": {"type": "DT_INT32"}, "value": {"tensor": {"dtype": "DT_INT32", "tensorShape": {"dim": [{"size": "2"}]}}}}}, {"name": "unknown_33", "op": "Const", "attr": {"dtype": {"type": "DT_FLOAT"}, "value": {"tensor": {"dtype": "DT_FLOAT", "tensorShape": {"dim": [{"size": "768"}, {"size": "3072"}]}}}}}, {"name": "unknown_34", "op": "Const", "attr": {"dtype": {"type": "DT_FLOAT"}, "value": {"tensor": {"dtype": "DT_FLOAT", "tensorShape": {"dim": [{"size": "1"}, {"size": "3072"}]}}}}}, {"name": "unknown_32", "op": "Const", "attr": {"dtype": {"type": "DT_FLOAT"}, "value": {"tensor": {"dtype": "DT_FLOAT", "tensorShape": {"dim": [{"size": "768"}]}}}}}, {"name": "StatefulPartitionedCall/tfgp_t2lm_head_model/transformer/h_._2/attn/c_proj/Reshape/shape", "op": "Const", "attr": {"dtype": {"type": "DT_INT32"}, "value": {"tensor": {"dtype": "DT_INT32", "tensorShape": {"dim": [{"size": "2"}]}}}}}, {"name": "unknown_29", "op": "Const", "attr": {"dtype": {"type": "DT_FLOAT"}, "value": {"tensor": {"dtype": "DT_FLOAT", "tensorShape": {"dim": [{"size": "768"}, {"size": "768"}]}}}}}, {"name": "unknown_30", "op": "Const", "attr": {"value": {"tensor": {"dtype": "DT_FLOAT", "tensorShape": {"dim": [{"size": "1"}, {"size": "768"}]}}}, "dtype": {"type": "DT_FLOAT"}}}, {"name": "StatefulPartitionedCall/tfgp_t2lm_head_model/transformer/h_._2/attn/strided_slice/stack", "op": "Const", "attr": {"dtype": {"type": "DT_INT32"}, "value": {"tensor": {"dtype": "DT_INT32", "tensorShape": {"dim": [{"size": "1"}]}}}}}, {"name": "StatefulPartitionedCall/tfgp_t2lm_head_model/transformer/h_._2/attn/strided_slice/stack_1", "op": "Const", "attr": {"value": {"tensor": {"dtype": "DT_INT32", "tensorShape": {"dim": [{"size": "1"}]}}}, "dtype": {"type": "DT_INT32"}}}, {"name": "StatefulPartitionedCall/tfgp_t2lm_head_model/transformer/h_._2/attn/strided_slice/stack_2", "op": "Const", "attr": {"dtype": {"type": "DT_INT32"}, "value": {"tensor": {"dtype": "DT_INT32", "tensorShape": {"dim": [{"size": "1"}]}}}}}, {"name": "StatefulPartitionedCall/tfgp_t2lm_head_model/transformer/h_._2/attn/Reshape/shape/1", "op": "Const", "attr": {"dtype": {"type": "DT_INT32"}, "value": {"tensor": {"dtype": "DT_INT32", "tensorShape": {}}}}}, {"name": "StatefulPartitionedCall/tfgp_t2lm_head_model/transformer/h_._2/attn/Reshape/shape/2", "op": "Const", "attr": {"value": {"tensor": {"dtype": "DT_INT32", "tensorShape": {}}}, "dtype": {"type": "DT_INT32"}}}, {"name": "StatefulPartitionedCall/tfgp_t2lm_head_model/transformer/h_._2/attn/Reshape/shape/3", "op": "Const", "attr": {"value": {"tensor": {"dtype": "DT_INT32", "tensorShape": {}}}, "dtype": {"type": "DT_INT32"}}}, {"name": "StatefulPartitionedCall/tfgp_t2lm_head_model/transformer/h_._2/attn/transpose/perm", "op": "Const", "attr": {"dtype": {"type": "DT_INT32"}, "value": {"tensor": {"dtype": "DT_INT32", "tensorShape": {"dim": [{"size": "4"}]}}}}}, {"name": "StatefulPartitionedCall/tfgp_t2lm_head_model/transformer/h_._2/attn/strided_slice_1/stack", "op": "Const", "attr": {"dtype": {"type": "DT_INT32"}, "value": {"tensor": {"dtype": "DT_INT32", "tensorShape": {"dim": [{"size": "1"}]}}}}}, {"name": "StatefulPartitionedCall/tfgp_t2lm_head_model/transformer/h_._2/attn/strided_slice_1/stack_1", "op": "Const", "attr": {"dtype": {"type": "DT_INT32"}, "value": {"tensor": {"dtype": "DT_INT32", "tensorShape": {"dim": [{"size": "1"}]}}}}}, {"name": "StatefulPartitionedCall/tfgp_t2lm_head_model/transformer/h_._2/attn/strided_slice_1/stack_2", "op": "Const", "attr": {"dtype": {"type": "DT_INT32"}, "value": {"tensor": {"dtype": "DT_INT32", "tensorShape": {"dim": [{"size": "1"}]}}}}}, {"name": "StatefulPartitionedCall/tfgp_t2lm_head_model/transformer/h_._2/attn/Reshape_1/shape/1", "op": "Const", "attr": {"value": {"tensor": {"dtype": "DT_INT32", "tensorShape": {}}}, "dtype": {"type": "DT_INT32"}}}, {"name": "StatefulPartitionedCall/tfgp_t2lm_head_model/transformer/h_._2/attn/Reshape_1/shape/2", "op": "Const", "attr": {"value": {"tensor": {"dtype": "DT_INT32", "tensorShape": {}}}, "dtype": {"type": "DT_INT32"}}}, {"name": "StatefulPartitionedCall/tfgp_t2lm_head_model/transformer/h_._2/attn/Reshape_1/shape/3", "op": "Const", "attr": {"dtype": {"type": "DT_INT32"}, "value": {"tensor": {"dtype": "DT_INT32", "tensorShape": {}}}}}, {"name": "StatefulPartitionedCall/tfgp_t2lm_head_model/transformer/h_._2/attn/transpose_1/perm", "op": "Const", "attr": {"value": {"tensor": {"dtype": "DT_INT32", "tensorShape": {"dim": [{"size": "4"}]}}}, "dtype": {"type": "DT_INT32"}}}, {"name": "StatefulPartitionedCall/tfgp_t2lm_head_model/transformer/h_._2/attn/truediv", "op": "Const", "attr": {"dtype": {"type": "DT_FLOAT"}, "value": {"tensor": {"dtype": "DT_FLOAT", "tensorShape": {"dim": [{"size": "1"}, {"size": "1"}, {"size": "5"}, {"size": "5"}]}}}}}, {"name": "StatefulPartitionedCall/tfgp_t2lm_head_model/transformer/h_._2/attn/mul_1", "op": "Const", "attr": {"value": {"tensor": {"dtype": "DT_FLOAT", "tensorShape": {"dim": [{"size": "1"}, {"size": "1"}, {"size": "5"}, {"size": "5"}]}}}, "dtype": {"type": "DT_FLOAT"}}}, {"name": "StatefulPartitionedCall/tfgp_t2lm_head_model/transformer/h_._2/attn/split/split_dim", "op": "Const", "attr": {"dtype": {"type": "DT_INT32"}, "value": {"tensor": {"dtype": "DT_INT32", "tensorShape": {}}}}}, {"name": "StatefulPartitionedCall/tfgp_t2lm_head_model/transformer/h_._2/attn/c_attn/Reshape/shape", "op": "Const", "attr": {"dtype": {"type": "DT_INT32"}, "value": {"tensor": {"dtype": "DT_INT32", "tensorShape": {"dim": [{"size": "2"}]}}}}}, {"name": "unknown_27", "op": "Const", "attr": {"value": {"tensor": {"dtype": "DT_FLOAT", "tensorShape": {"dim": [{"size": "768"}, {"size": "2304"}]}}}, "dtype": {"type": "DT_FLOAT"}}}, {"name": "unknown_28", "op": "Const", "attr": {"value": {"tensor": {"dtype": "DT_FLOAT", "tensorShape": {"dim": [{"size": "1"}, {"size": "2304"}]}}}, "dtype": {"type": "DT_FLOAT"}}}, {"name": "unknown_26", "op": "Const", "attr": {"value": {"tensor": {"dtype": "DT_FLOAT", "tensorShape": {"dim": [{"size": "768"}]}}}, "dtype": {"type": "DT_FLOAT"}}}, {"name": "StatefulPartitionedCall/tfgp_t2lm_head_model/transformer/h_._1/mlp/c_proj/Reshape/shape", "op": "Const", "attr": {"value": {"tensor": {"dtype": "DT_INT32", "tensorShape": {"dim": [{"size": "2"}]}}}, "dtype": {"type": "DT_INT32"}}}, {"name": "unknown_23", "op": "Const", "attr": {"dtype": {"type": "DT_FLOAT"}, "value": {"tensor": {"dtype": "DT_FLOAT", "tensorShape": {"dim": [{"size": "3072"}, {"size": "768"}]}}}}}, {"name": "unknown_24", "op": "Const", "attr": {"value": {"tensor": {"dtype": "DT_FLOAT", "tensorShape": {"dim": [{"size": "1"}, {"size": "768"}]}}}, "dtype": {"type": "DT_FLOAT"}}}, {"name": "StatefulPartitionedCall/tfgp_t2lm_head_model/transformer/h_._1/mlp/mul_2/x", "op": "Const", "attr": {"value": {"tensor": {"dtype": "DT_FLOAT", "tensorShape": {}}}, "dtype": {"type": "DT_FLOAT"}}}, {"name": "StatefulPartitionedCall/tfgp_t2lm_head_model/transformer/h_._1/mlp/add_1/x", "op": "Const", "attr": {"value": {"tensor": {"dtype": "DT_FLOAT", "tensorShape": {}}}, "dtype": {"type": "DT_FLOAT"}}}, {"name": "StatefulPartitionedCall/tfgp_t2lm_head_model/transformer/h_._1/mlp/Sqrt", "op": "Const", "attr": {"dtype": {"type": "DT_FLOAT"}, "value": {"tensor": {"dtype": "DT_FLOAT", "tensorShape": {}}}}}, {"name": "StatefulPartitionedCall/tfgp_t2lm_head_model/transformer/h_._1/mlp/Cast_1/x", "op": "Const", "attr": {"dtype": {"type": "DT_FLOAT"}, "value": {"tensor": {"dtype": "DT_FLOAT", "tensorShape": {}}}}}, {"name": "StatefulPartitionedCall/tfgp_t2lm_head_model/transformer/h_._1/mlp/c_fc/Reshape/shape", "op": "Const", "attr": {"value": {"tensor": {"dtype": "DT_INT32", "tensorShape": {"dim": [{"size": "2"}]}}}, "dtype": {"type": "DT_INT32"}}}, {"name": "unknown_21", "op": "Const", "attr": {"value": {"tensor": {"dtype": "DT_FLOAT", "tensorShape": {"dim": [{"size": "768"}, {"size": "3072"}]}}}, "dtype": {"type": "DT_FLOAT"}}}, {"name": "unknown_22", "op": "Const", "attr": {"value": {"tensor": {"dtype": "DT_FLOAT", "tensorShape": {"dim": [{"size": "1"}, {"size": "3072"}]}}}, "dtype": {"type": "DT_FLOAT"}}}, {"name": "unknown_20", "op": "Const", "attr": {"dtype": {"type": "DT_FLOAT"}, "value": {"tensor": {"dtype": "DT_FLOAT", "tensorShape": {"dim": [{"size": "768"}]}}}}}, {"name": "StatefulPartitionedCall/tfgp_t2lm_head_model/transformer/h_._1/attn/c_proj/Reshape/shape", "op": "Const", "attr": {"value": {"tensor": {"dtype": "DT_INT32", "tensorShape": {"dim": [{"size": "2"}]}}}, "dtype": {"type": "DT_INT32"}}}, {"name": "unknown_17", "op": "Const", "attr": {"dtype": {"type": "DT_FLOAT"}, "value": {"tensor": {"dtype": "DT_FLOAT", "tensorShape": {"dim": [{"size": "768"}, {"size": "768"}]}}}}}, {"name": "unknown_18", "op": "Const", "attr": {"value": {"tensor": {"dtype": "DT_FLOAT", "tensorShape": {"dim": [{"size": "1"}, {"size": "768"}]}}}, "dtype": {"type": "DT_FLOAT"}}}, {"name": "StatefulPartitionedCall/tfgp_t2lm_head_model/transformer/h_._1/attn/strided_slice/stack", "op": "Const", "attr": {"dtype": {"type": "DT_INT32"}, "value": {"tensor": {"dtype": "DT_INT32", "tensorShape": {"dim": [{"size": "1"}]}}}}}, {"name": "StatefulPartitionedCall/tfgp_t2lm_head_model/transformer/h_._1/attn/strided_slice/stack_1", "op": "Const", "attr": {"dtype": {"type": "DT_INT32"}, "value": {"tensor": {"dtype": "DT_INT32", "tensorShape": {"dim": [{"size": "1"}]}}}}}, {"name": "StatefulPartitionedCall/tfgp_t2lm_head_model/transformer/h_._1/attn/strided_slice/stack_2", "op": "Const", "attr": {"value": {"tensor": {"dtype": "DT_INT32", "tensorShape": {"dim": [{"size": "1"}]}}}, "dtype": {"type": "DT_INT32"}}}, {"name": "StatefulPartitionedCall/tfgp_t2lm_head_model/transformer/h_._1/attn/Reshape/shape/1", "op": "Const", "attr": {"value": {"tensor": {"dtype": "DT_INT32", "tensorShape": {}}}, "dtype": {"type": "DT_INT32"}}}, {"name": "StatefulPartitionedCall/tfgp_t2lm_head_model/transformer/h_._1/attn/Reshape/shape/2", "op": "Const", "attr": {"dtype": {"type": "DT_INT32"}, "value": {"tensor": {"dtype": "DT_INT32", "tensorShape": {}}}}}, {"name": "StatefulPartitionedCall/tfgp_t2lm_head_model/transformer/h_._1/attn/Reshape/shape/3", "op": "Const", "attr": {"value": {"tensor": {"dtype": "DT_INT32", "tensorShape": {}}}, "dtype": {"type": "DT_INT32"}}}, {"name": "StatefulPartitionedCall/tfgp_t2lm_head_model/transformer/h_._1/attn/transpose/perm", "op": "Const", "attr": {"value": {"tensor": {"dtype": "DT_INT32", "tensorShape": {"dim": [{"size": "4"}]}}}, "dtype": {"type": "DT_INT32"}}}, {"name": "StatefulPartitionedCall/tfgp_t2lm_head_model/transformer/h_._1/attn/strided_slice_1/stack", "op": "Const", "attr": {"value": {"tensor": {"dtype": "DT_INT32", "tensorShape": {"dim": [{"size": "1"}]}}}, "dtype": {"type": "DT_INT32"}}}, {"name": "StatefulPartitionedCall/tfgp_t2lm_head_model/transformer/h_._1/attn/strided_slice_1/stack_1", "op": "Const", "attr": {"dtype": {"type": "DT_INT32"}, "value": {"tensor": {"dtype": "DT_INT32", "tensorShape": {"dim": [{"size": "1"}]}}}}}, {"name": "StatefulPartitionedCall/tfgp_t2lm_head_model/transformer/h_._1/attn/strided_slice_1/stack_2", "op": "Const", "attr": {"dtype": {"type": "DT_INT32"}, "value": {"tensor": {"dtype": "DT_INT32", "tensorShape": {"dim": [{"size": "1"}]}}}}}, {"name": "StatefulPartitionedCall/tfgp_t2lm_head_model/transformer/h_._1/attn/Reshape_1/shape/1", "op": "Const", "attr": {"value": {"tensor": {"dtype": "DT_INT32", "tensorShape": {}}}, "dtype": {"type": "DT_INT32"}}}, {"name": "StatefulPartitionedCall/tfgp_t2lm_head_model/transformer/h_._1/attn/Reshape_1/shape/2", "op": "Const", "attr": {"value": {"tensor": {"dtype": "DT_INT32", "tensorShape": {}}}, "dtype": {"type": "DT_INT32"}}}, {"name": "StatefulPartitionedCall/tfgp_t2lm_head_model/transformer/h_._1/attn/Reshape_1/shape/3", "op": "Const", "attr": {"dtype": {"type": "DT_INT32"}, "value": {"tensor": {"dtype": "DT_INT32", "tensorShape": {}}}}}, {"name": "StatefulPartitionedCall/tfgp_t2lm_head_model/transformer/h_._1/attn/transpose_1/perm", "op": "Const", "attr": {"value": {"tensor": {"dtype": "DT_INT32", "tensorShape": {"dim": [{"size": "4"}]}}}, "dtype": {"type": "DT_INT32"}}}, {"name": "StatefulPartitionedCall/tfgp_t2lm_head_model/transformer/h_._1/attn/truediv", "op": "Const", "attr": {"dtype": {"type": "DT_FLOAT"}, "value": {"tensor": {"dtype": "DT_FLOAT", "tensorShape": {"dim": [{"size": "1"}, {"size": "1"}, {"size": "5"}, {"size": "5"}]}}}}}, {"name": "StatefulPartitionedCall/tfgp_t2lm_head_model/transformer/h_._1/attn/mul_1", "op": "Const", "attr": {"value": {"tensor": {"dtype": "DT_FLOAT", "tensorShape": {"dim": [{"size": "1"}, {"size": "1"}, {"size": "5"}, {"size": "5"}]}}}, "dtype": {"type": "DT_FLOAT"}}}, {"name": "StatefulPartitionedCall/tfgp_t2lm_head_model/transformer/h_._1/attn/split/split_dim", "op": "Const", "attr": {"value": {"tensor": {"dtype": "DT_INT32", "tensorShape": {}}}, "dtype": {"type": "DT_INT32"}}}, {"name": "StatefulPartitionedCall/tfgp_t2lm_head_model/transformer/h_._1/attn/c_attn/Reshape/shape", "op": "Const", "attr": {"dtype": {"type": "DT_INT32"}, "value": {"tensor": {"dtype": "DT_INT32", "tensorShape": {"dim": [{"size": "2"}]}}}}}, {"name": "unknown_15", "op": "Const", "attr": {"dtype": {"type": "DT_FLOAT"}, "value": {"tensor": {"dtype": "DT_FLOAT", "tensorShape": {"dim": [{"size": "768"}, {"size": "2304"}]}}}}}, {"name": "unknown_16", "op": "Const", "attr": {"value": {"tensor": {"dtype": "DT_FLOAT", "tensorShape": {"dim": [{"size": "1"}, {"size": "2304"}]}}}, "dtype": {"type": "DT_FLOAT"}}}, {"name": "unknown_14", "op": "Const", "attr": {"dtype": {"type": "DT_FLOAT"}, "value": {"tensor": {"dtype": "DT_FLOAT", "tensorShape": {"dim": [{"size": "768"}]}}}}}, {"name": "StatefulPartitionedCall/tfgp_t2lm_head_model/transformer/h_._0/mlp/c_proj/Reshape/shape", "op": "Const", "attr": {"value": {"tensor": {"dtype": "DT_INT32", "tensorShape": {"dim": [{"size": "2"}]}}}, "dtype": {"type": "DT_INT32"}}}, {"name": "unknown_11", "op": "Const", "attr": {"value": {"tensor": {"dtype": "DT_FLOAT", "tensorShape": {"dim": [{"size": "3072"}, {"size": "768"}]}}}, "dtype": {"type": "DT_FLOAT"}}}, {"name": "unknown_12", "op": "Const", "attr": {"value": {"tensor": {"dtype": "DT_FLOAT", "tensorShape": {"dim": [{"size": "1"}, {"size": "768"}]}}}, "dtype": {"type": "DT_FLOAT"}}}, {"name": "StatefulPartitionedCall/tfgp_t2lm_head_model/transformer/h_._0/mlp/mul_2/x", "op": "Const", "attr": {"dtype": {"type": "DT_FLOAT"}, "value": {"tensor": {"dtype": "DT_FLOAT", "tensorShape": {}}}}}, {"name": "StatefulPartitionedCall/tfgp_t2lm_head_model/transformer/h_._0/mlp/add_1/x", "op": "Const", "attr": {"value": {"tensor": {"dtype": "DT_FLOAT", "tensorShape": {}}}, "dtype": {"type": "DT_FLOAT"}}}, {"name": "StatefulPartitionedCall/tfgp_t2lm_head_model/transformer/h_._0/mlp/Sqrt", "op": "Const", "attr": {"dtype": {"type": "DT_FLOAT"}, "value": {"tensor": {"dtype": "DT_FLOAT", "tensorShape": {}}}}}, {"name": "StatefulPartitionedCall/tfgp_t2lm_head_model/transformer/h_._0/mlp/Cast_1/x", "op": "Const", "attr": {"dtype": {"type": "DT_FLOAT"}, "value": {"tensor": {"dtype": "DT_FLOAT", "tensorShape": {}}}}}, {"name": "StatefulPartitionedCall/tfgp_t2lm_head_model/transformer/h_._0/mlp/c_fc/Reshape/shape", "op": "Const", "attr": {"value": {"tensor": {"dtype": "DT_INT32", "tensorShape": {"dim": [{"size": "2"}]}}}, "dtype": {"type": "DT_INT32"}}}, {"name": "unknown_9", "op": "Const", "attr": {"value": {"tensor": {"dtype": "DT_FLOAT", "tensorShape": {"dim": [{"size": "768"}, {"size": "3072"}]}}}, "dtype": {"type": "DT_FLOAT"}}}, {"name": "unknown_10", "op": "Const", "attr": {"value": {"tensor": {"dtype": "DT_FLOAT", "tensorShape": {"dim": [{"size": "1"}, {"size": "3072"}]}}}, "dtype": {"type": "DT_FLOAT"}}}, {"name": "unknown_8", "op": "Const", "attr": {"value": {"tensor": {"dtype": "DT_FLOAT", "tensorShape": {"dim": [{"size": "768"}]}}}, "dtype": {"type": "DT_FLOAT"}}}, {"name": "StatefulPartitionedCall/tfgp_t2lm_head_model/transformer/h_._0/attn/c_proj/Reshape/shape", "op": "Const", "attr": {"value": {"tensor": {"dtype": "DT_INT32", "tensorShape": {"dim": [{"size": "2"}]}}}, "dtype": {"type": "DT_INT32"}}}, {"name": "unknown_5", "op": "Const", "attr": {"value": {"tensor": {"dtype": "DT_FLOAT", "tensorShape": {"dim": [{"size": "768"}, {"size": "768"}]}}}, "dtype": {"type": "DT_FLOAT"}}}, {"name": "unknown_6", "op": "Const", "attr": {"dtype": {"type": "DT_FLOAT"}, "value": {"tensor": {"dtype": "DT_FLOAT", "tensorShape": {"dim": [{"size": "1"}, {"size": "768"}]}}}}}, {"name": "StatefulPartitionedCall/tfgp_t2lm_head_model/transformer/h_._0/attn/strided_slice/stack", "op": "Const", "attr": {"value": {"tensor": {"dtype": "DT_INT32", "tensorShape": {"dim": [{"size": "1"}]}}}, "dtype": {"type": "DT_INT32"}}}, {"name": "StatefulPartitionedCall/tfgp_t2lm_head_model/transformer/h_._0/attn/strided_slice/stack_1", "op": "Const", "attr": {"dtype": {"type": "DT_INT32"}, "value": {"tensor": {"dtype": "DT_INT32", "tensorShape": {"dim": [{"size": "1"}]}}}}}, {"name": "StatefulPartitionedCall/tfgp_t2lm_head_model/transformer/h_._0/attn/strided_slice/stack_2", "op": "Const", "attr": {"dtype": {"type": "DT_INT32"}, "value": {"tensor": {"dtype": "DT_INT32", "tensorShape": {"dim": [{"size": "1"}]}}}}}, {"name": "StatefulPartitionedCall/tfgp_t2lm_head_model/transformer/h_._0/attn/Reshape/shape/1", "op": "Const", "attr": {"value": {"tensor": {"dtype": "DT_INT32", "tensorShape": {}}}, "dtype": {"type": "DT_INT32"}}}, {"name": "StatefulPartitionedCall/tfgp_t2lm_head_model/transformer/h_._0/attn/Reshape/shape/2", "op": "Const", "attr": {"value": {"tensor": {"dtype": "DT_INT32", "tensorShape": {}}}, "dtype": {"type": "DT_INT32"}}}, {"name": "StatefulPartitionedCall/tfgp_t2lm_head_model/transformer/h_._0/attn/Reshape/shape/3", "op": "Const", "attr": {"value": {"tensor": {"dtype": "DT_INT32", "tensorShape": {}}}, "dtype": {"type": "DT_INT32"}}}, {"name": "StatefulPartitionedCall/tfgp_t2lm_head_model/transformer/h_._0/attn/transpose/perm", "op": "Const", "attr": {"dtype": {"type": "DT_INT32"}, "value": {"tensor": {"dtype": "DT_INT32", "tensorShape": {"dim": [{"size": "4"}]}}}}}, {"name": "StatefulPartitionedCall/tfgp_t2lm_head_model/transformer/h_._0/attn/strided_slice_1/stack", "op": "Const", "attr": {"dtype": {"type": "DT_INT32"}, "value": {"tensor": {"dtype": "DT_INT32", "tensorShape": {"dim": [{"size": "1"}]}}}}}, {"name": "StatefulPartitionedCall/tfgp_t2lm_head_model/transformer/h_._0/attn/strided_slice_1/stack_1", "op": "Const", "attr": {"value": {"tensor": {"dtype": "DT_INT32", "tensorShape": {"dim": [{"size": "1"}]}}}, "dtype": {"type": "DT_INT32"}}}, {"name": "StatefulPartitionedCall/tfgp_t2lm_head_model/transformer/h_._0/attn/strided_slice_1/stack_2", "op": "Const", "attr": {"value": {"tensor": {"dtype": "DT_INT32", "tensorShape": {"dim": [{"size": "1"}]}}}, "dtype": {"type": "DT_INT32"}}}, {"name": "StatefulPartitionedCall/tfgp_t2lm_head_model/transformer/h_._0/attn/Reshape_1/shape/1", "op": "Const", "attr": {"value": {"tensor": {"dtype": "DT_INT32", "tensorShape": {}}}, "dtype": {"type": "DT_INT32"}}}, {"name": "StatefulPartitionedCall/tfgp_t2lm_head_model/transformer/h_._0/attn/Reshape_1/shape/2", "op": "Const", "attr": {"value": {"tensor": {"dtype": "DT_INT32", "tensorShape": {}}}, "dtype": {"type": "DT_INT32"}}}, {"name": "StatefulPartitionedCall/tfgp_t2lm_head_model/transformer/h_._0/attn/Reshape_1/shape/3", "op": "Const", "attr": {"value": {"tensor": {"dtype": "DT_INT32", "tensorShape": {}}}, "dtype": {"type": "DT_INT32"}}}, {"name": "StatefulPartitionedCall/tfgp_t2lm_head_model/transformer/h_._0/attn/transpose_1/perm", "op": "Const", "attr": {"value": {"tensor": {"dtype": "DT_INT32", "tensorShape": {"dim": [{"size": "4"}]}}}, "dtype": {"type": "DT_INT32"}}}, {"name": "StatefulPartitionedCall/tfgp_t2lm_head_model/transformer/h_._0/attn/truediv", "op": "Const", "attr": {"dtype": {"type": "DT_FLOAT"}, "value": {"tensor": {"dtype": "DT_FLOAT", "tensorShape": {"dim": [{"size": "1"}, {"size": "1"}, {"size": "5"}, {"size": "5"}]}}}}}, {"name": "StatefulPartitionedCall/tfgp_t2lm_head_model/transformer/h_._0/attn/mul_1", "op": "Const", "attr": {"value": {"tensor": {"dtype": "DT_FLOAT", "tensorShape": {"dim": [{"size": "1"}, {"size": "1"}, {"size": "5"}, {"size": "5"}]}}}, "dtype": {"type": "DT_FLOAT"}}}, {"name": "StatefulPartitionedCall/tfgp_t2lm_head_model/transformer/h_._0/attn/split/split_dim", "op": "Const", "attr": {"dtype": {"type": "DT_INT32"}, "value": {"tensor": {"dtype": "DT_INT32", "tensorShape": {}}}}}, {"name": "StatefulPartitionedCall/tfgp_t2lm_head_model/transformer/h_._0/attn/c_attn/Reshape/shape", "op": "Const", "attr": {"dtype": {"type": "DT_INT32"}, "value": {"tensor": {"dtype": "DT_INT32", "tensorShape": {"dim": [{"size": "2"}]}}}}}, {"name": "unknown_3", "op": "Const", "attr": {"dtype": {"type": "DT_FLOAT"}, "value": {"tensor": {"dtype": "DT_FLOAT", "tensorShape": {"dim": [{"size": "768"}, {"size": "2304"}]}}}}}, {"name": "unknown_4", "op": "Const", "attr": {"value": {"tensor": {"dtype": "DT_FLOAT", "tensorShape": {"dim": [{"size": "1"}, {"size": "2304"}]}}}, "dtype": {"type": "DT_FLOAT"}}}, {"name": "unknown_2", "op": "Const", "attr": {"dtype": {"type": "DT_FLOAT"}, "value": {"tensor": {"dtype": "DT_FLOAT", "tensorShape": {"dim": [{"size": "768"}]}}}}}, {"name": "unknown", "op": "Const", "attr": {"value": {"tensor": {"dtype": "DT_FLOAT", "tensorShape": {"dim": [{"size": "50257"}, {"size": "768"}]}}}, "dtype": {"type": "DT_FLOAT"}}}, {"name": "StatefulPartitionedCall/tfgp_t2lm_head_model/transformer/Reshape/shape", "op": "Const", "attr": {"dtype": {"type": "DT_INT32"}, "value": {"tensor": {"dtype": "DT_INT32", "tensorShape": {"dim": [{"size": "2"}]}}}}}, {"name": "StatefulPartitionedCall/tfgp_t2lm_head_model/transformer/wte/Gather/axis", "op": "Const", "attr": {"dtype": {"type": "DT_INT32"}, "value": {"tensor": {"dtype": "DT_INT32", "tensorShape": {}}}}}, {"name": "StatefulPartitionedCall/tfgp_t2lm_head_model/transformer/Gather", "op": "Const", "attr": {"value": {"tensor": {"dtype": "DT_FLOAT", "tensorShape": {"dim": [{"size": "1"}, {"size": "5"}, {"size": "768"}]}}}, "dtype": {"type": "DT_FLOAT"}}}, {"name": "StatefulPartitionedCall/tfgp_t2lm_head_model/transformer/h_._0/ln_1/moments/mean/reduction_indices", "op": "Const", "attr": {"value": {"tensor": {"dtype": "DT_INT32", "tensorShape": {"dim": [{"size": "1"}]}}}, "dtype": {"type": "DT_INT32"}}}, {"name": "StatefulPartitionedCall/tfgp_t2lm_head_model/transformer/h_._0/ln_1/moments/variance/reduction_indices", "op": "Const", "attr": {"dtype": {"type": "DT_INT32"}, "value": {"tensor": {"dtype": "DT_INT32", "tensorShape": {"dim": [{"size": "1"}]}}}}}, {"name": "StatefulPartitionedCall/tfgp_t2lm_head_model/transformer/h_._0/ln_1/batchnorm/add/y", "op": "Const", "attr": {"value": {"tensor": {"dtype": "DT_FLOAT", "tensorShape": {}}}, "dtype": {"type": "DT_FLOAT"}}}, {"name": "unknown_1", "op": "Const", "attr": {"value": {"tensor": {"dtype": "DT_FLOAT", "tensorShape": {"dim": [{"size": "768"}]}}}, "dtype": {"type": "DT_FLOAT"}}}, {"name": "StatefulPartitionedCall/tfgp_t2lm_head_model/transformer/h_._0/attn/c_attn/strided_slice/stack", "op": "Const", "attr": {"dtype": {"type": "DT_INT32"}, "value": {"tensor": {"dtype": "DT_INT32", "tensorShape": {"dim": [{"size": "1"}]}}}}}, {"name": "StatefulPartitionedCall/tfgp_t2lm_head_model/transformer/h_._0/attn/c_attn/strided_slice/stack_1", "op": "Const", "attr": {"value": {"tensor": {"dtype": "DT_INT32", "tensorShape": {"dim": [{"size": "1"}]}}}, "dtype": {"type": "DT_INT32"}}}, {"name": "StatefulPartitionedCall/tfgp_t2lm_head_model/transformer/h_._0/attn/c_attn/strided_slice/stack_2", "op": "Const", "attr": {"value": {"tensor": {"dtype": "DT_INT32", "tensorShape": {"dim": [{"size": "1"}]}}}, "dtype": {"type": "DT_INT32"}}}, {"name": "StatefulPartitionedCall/tfgp_t2lm_head_model/transformer/h_._0/attn/c_attn/Reshape_1/shape/1", "op": "Const", "attr": {"dtype": {"type": "DT_INT32"}, "value": {"tensor": {"dtype": "DT_INT32", "tensorShape": {}}}}}, {"name": "StatefulPartitionedCall/tfgp_t2lm_head_model/transformer/h_._0/attn/c_attn/Reshape_1/shape/2", "op": "Const", "attr": {"value": {"tensor": {"dtype": "DT_INT32", "tensorShape": {}}}, "dtype": {"type": "DT_INT32"}}}, {"name": "StatefulPartitionedCall/tfgp_t2lm_head_model/transformer/h_._0/attn/strided_slice_2/stack", "op": "Const", "attr": {"value": {"tensor": {"dtype": "DT_INT32", "tensorShape": {"dim": [{"size": "1"}]}}}, "dtype": {"type": "DT_INT32"}}}, {"name": "StatefulPartitionedCall/tfgp_t2lm_head_model/transformer/h_._0/attn/strided_slice_2/stack_1", "op": "Const", "attr": {"value": {"tensor": {"dtype": "DT_INT32", "tensorShape": {"dim": [{"size": "1"}]}}}, "dtype": {"type": "DT_INT32"}}}, {"name": "StatefulPartitionedCall/tfgp_t2lm_head_model/transformer/h_._0/attn/strided_slice_2/stack_2", "op": "Const", "attr": {"dtype": {"type": "DT_INT32"}, "value": {"tensor": {"dtype": "DT_INT32", "tensorShape": {"dim": [{"size": "1"}]}}}}}, {"name": "StatefulPartitionedCall/tfgp_t2lm_head_model/transformer/h_._0/attn/Reshape_2/shape/1", "op": "Const", "attr": {"value": {"tensor": {"dtype": "DT_INT32", "tensorShape": {}}}, "dtype": {"type": "DT_INT32"}}}, {"name": "StatefulPartitionedCall/tfgp_t2lm_head_model/transformer/h_._0/attn/Reshape_2/shape/2", "op": "Const", "attr": {"value": {"tensor": {"dtype": "DT_INT32", "tensorShape": {}}}, "dtype": {"type": "DT_INT32"}}}, {"name": "StatefulPartitionedCall/tfgp_t2lm_head_model/transformer/h_._0/attn/Reshape_2/shape/3", "op": "Const", "attr": {"value": {"tensor": {"dtype": "DT_INT32", "tensorShape": {}}}, "dtype": {"type": "DT_INT32"}}}, {"name": "StatefulPartitionedCall/tfgp_t2lm_head_model/transformer/h_._0/attn/transpose_2/perm", "op": "Const", "attr": {"dtype": {"type": "DT_INT32"}, "value": {"tensor": {"dtype": "DT_INT32", "tensorShape": {"dim": [{"size": "4"}]}}}}}, {"name": "StatefulPartitionedCall/tfgp_t2lm_head_model/transformer/h_._0/attn/transpose_3/perm", "op": "Const", "attr": {"dtype": {"type": "DT_INT32"}, "value": {"tensor": {"dtype": "DT_INT32", "tensorShape": {"dim": [{"size": "4"}]}}}}}, {"name": "StatefulPartitionedCall/tfgp_t2lm_head_model/transformer/h_._0/attn/strided_slice_6/stack", "op": "Const", "attr": {"dtype": {"type": "DT_INT32"}, "value": {"tensor": {"dtype": "DT_INT32", "tensorShape": {"dim": [{"size": "1"}]}}}}}, {"name": "StatefulPartitionedCall/tfgp_t2lm_head_model/transformer/h_._0/attn/strided_slice_6/stack_1", "op": "Const", "attr": {"value": {"tensor": {"dtype": "DT_INT32", "tensorShape": {"dim": [{"size": "1"}]}}}, "dtype": {"type": "DT_INT32"}}}, {"name": "StatefulPartitionedCall/tfgp_t2lm_head_model/transformer/h_._0/attn/strided_slice_6/stack_2", "op": "Const", "attr": {"value": {"tensor": {"dtype": "DT_INT32", "tensorShape": {"dim": [{"size": "1"}]}}}, "dtype": {"type": "DT_INT32"}}}, {"name": "StatefulPartitionedCall/tfgp_t2lm_head_model/transformer/h_._0/attn/Reshape_4/shape/1", "op": "Const", "attr": {"value": {"tensor": {"dtype": "DT_INT32", "tensorShape": {}}}, "dtype": {"type": "DT_INT32"}}}, {"name": "StatefulPartitionedCall/tfgp_t2lm_head_model/transformer/h_._0/attn/Reshape_4/shape/2", "op": "Const", "attr": {"value": {"tensor": {"dtype": "DT_INT32", "tensorShape": {}}}, "dtype": {"type": "DT_INT32"}}}, {"name": "StatefulPartitionedCall/tfgp_t2lm_head_model/transformer/h_._0/attn/c_proj/strided_slice/stack", "op": "Const", "attr": {"dtype": {"type": "DT_INT32"}, "value": {"tensor": {"dtype": "DT_INT32", "tensorShape": {"dim": [{"size": "1"}]}}}}}, {"name": "StatefulPartitionedCall/tfgp_t2lm_head_model/transformer/h_._0/attn/c_proj/strided_slice/stack_1", "op": "Const", "attr": {"value": {"tensor": {"dtype": "DT_INT32", "tensorShape": {"dim": [{"size": "1"}]}}}, "dtype": {"type": "DT_INT32"}}}, {"name": "StatefulPartitionedCall/tfgp_t2lm_head_model/transformer/h_._0/attn/c_proj/strided_slice/stack_2", "op": "Const", "attr": {"value": {"tensor": {"dtype": "DT_INT32", "tensorShape": {"dim": [{"size": "1"}]}}}, "dtype": {"type": "DT_INT32"}}}, {"name": "StatefulPartitionedCall/tfgp_t2lm_head_model/transformer/h_._0/attn/c_proj/Reshape_1/shape/1", "op": "Const", "attr": {"dtype": {"type": "DT_INT32"}, "value": {"tensor": {"dtype": "DT_INT32", "tensorShape": {}}}}}, {"name": "StatefulPartitionedCall/tfgp_t2lm_head_model/transformer/h_._0/attn/c_proj/Reshape_1/shape/2", "op": "Const", "attr": {"dtype": {"type": "DT_INT32"}, "value": {"tensor": {"dtype": "DT_INT32", "tensorShape": {}}}}}, {"name": "StatefulPartitionedCall/tfgp_t2lm_head_model/transformer/h_._0/ln_2/moments/mean/reduction_indices", "op": "Const", "attr": {"value": {"tensor": {"dtype": "DT_INT32", "tensorShape": {"dim": [{"size": "1"}]}}}, "dtype": {"type": "DT_INT32"}}}, {"name": "StatefulPartitionedCall/tfgp_t2lm_head_model/transformer/h_._0/ln_2/moments/variance/reduction_indices", "op": "Const", "attr": {"dtype": {"type": "DT_INT32"}, "value": {"tensor": {"dtype": "DT_INT32", "tensorShape": {"dim": [{"size": "1"}]}}}}}, {"name": "StatefulPartitionedCall/tfgp_t2lm_head_model/transformer/h_._0/ln_2/batchnorm/add/y", "op": "Const", "attr": {"dtype": {"type": "DT_FLOAT"}, "value": {"tensor": {"dtype": "DT_FLOAT", "tensorShape": {}}}}}, {"name": "unknown_7", "op": "Const", "attr": {"value": {"tensor": {"dtype": "DT_FLOAT", "tensorShape": {"dim": [{"size": "768"}]}}}, "dtype": {"type": "DT_FLOAT"}}}, {"name": "StatefulPartitionedCall/tfgp_t2lm_head_model/transformer/h_._0/mlp/c_fc/strided_slice/stack", "op": "Const", "attr": {"dtype": {"type": "DT_INT32"}, "value": {"tensor": {"dtype": "DT_INT32", "tensorShape": {"dim": [{"size": "1"}]}}}}}, {"name": "StatefulPartitionedCall/tfgp_t2lm_head_model/transformer/h_._0/mlp/c_fc/strided_slice/stack_1", "op": "Const", "attr": {"dtype": {"type": "DT_INT32"}, "value": {"tensor": {"dtype": "DT_INT32", "tensorShape": {"dim": [{"size": "1"}]}}}}}, {"name": "StatefulPartitionedCall/tfgp_t2lm_head_model/transformer/h_._0/mlp/c_fc/strided_slice/stack_2", "op": "Const", "attr": {"value": {"tensor": {"dtype": "DT_INT32", "tensorShape": {"dim": [{"size": "1"}]}}}, "dtype": {"type": "DT_INT32"}}}, {"name": "StatefulPartitionedCall/tfgp_t2lm_head_model/transformer/h_._0/mlp/c_fc/Reshape_1/shape/1", "op": "Const", "attr": {"value": {"tensor": {"dtype": "DT_INT32", "tensorShape": {}}}, "dtype": {"type": "DT_INT32"}}}, {"name": "StatefulPartitionedCall/tfgp_t2lm_head_model/transformer/h_._0/mlp/c_fc/Reshape_1/shape/2", "op": "Const", "attr": {"value": {"tensor": {"dtype": "DT_INT32", "tensorShape": {}}}, "dtype": {"type": "DT_INT32"}}}, {"name": "StatefulPartitionedCall/tfgp_t2lm_head_model/transformer/h_._0/mlp/Pow/y", "op": "Const", "attr": {"value": {"tensor": {"dtype": "DT_FLOAT", "tensorShape": {}}}, "dtype": {"type": "DT_FLOAT"}}}, {"name": "StatefulPartitionedCall/tfgp_t2lm_head_model/transformer/h_._0/mlp/c_proj/strided_slice/stack", "op": "Const", "attr": {"dtype": {"type": "DT_INT32"}, "value": {"tensor": {"dtype": "DT_INT32", "tensorShape": {"dim": [{"size": "1"}]}}}}}, {"name": "StatefulPartitionedCall/tfgp_t2lm_head_model/transformer/h_._0/mlp/c_proj/strided_slice/stack_1", "op": "Const", "attr": {"value": {"tensor": {"dtype": "DT_INT32", "tensorShape": {"dim": [{"size": "1"}]}}}, "dtype": {"type": "DT_INT32"}}}, {"name": "StatefulPartitionedCall/tfgp_t2lm_head_model/transformer/h_._0/mlp/c_proj/strided_slice/stack_2", "op": "Const", "attr": {"dtype": {"type": "DT_INT32"}, "value": {"tensor": {"dtype": "DT_INT32", "tensorShape": {"dim": [{"size": "1"}]}}}}}, {"name": "StatefulPartitionedCall/tfgp_t2lm_head_model/transformer/h_._0/mlp/c_proj/Reshape_1/shape/1", "op": "Const", "attr": {"value": {"tensor": {"dtype": "DT_INT32", "tensorShape": {}}}, "dtype": {"type": "DT_INT32"}}}, {"name": "StatefulPartitionedCall/tfgp_t2lm_head_model/transformer/h_._0/mlp/c_proj/Reshape_1/shape/2", "op": "Const", "attr": {"value": {"tensor": {"dtype": "DT_INT32", "tensorShape": {}}}, "dtype": {"type": "DT_INT32"}}}, {"name": "StatefulPartitionedCall/tfgp_t2lm_head_model/transformer/h_._1/ln_1/moments/mean/reduction_indices", "op": "Const", "attr": {"value": {"tensor": {"dtype": "DT_INT32", "tensorShape": {"dim": [{"size": "1"}]}}}, "dtype": {"type": "DT_INT32"}}}, {"name": "StatefulPartitionedCall/tfgp_t2lm_head_model/transformer/h_._1/ln_1/moments/variance/reduction_indices", "op": "Const", "attr": {"value": {"tensor": {"dtype": "DT_INT32", "tensorShape": {"dim": [{"size": "1"}]}}}, "dtype": {"type": "DT_INT32"}}}, {"name": "StatefulPartitionedCall/tfgp_t2lm_head_model/transformer/h_._1/ln_1/batchnorm/add/y", "op": "Const", "attr": {"value": {"tensor": {"dtype": "DT_FLOAT", "tensorShape": {}}}, "dtype": {"type": "DT_FLOAT"}}}, {"name": "unknown_13", "op": "Const", "attr": {"dtype": {"type": "DT_FLOAT"}, "value": {"tensor": {"dtype": "DT_FLOAT", "tensorShape": {"dim": [{"size": "768"}]}}}}}, {"name": "StatefulPartitionedCall/tfgp_t2lm_head_model/transformer/h_._1/attn/c_attn/strided_slice/stack", "op": "Const", "attr": {"value": {"tensor": {"dtype": "DT_INT32", "tensorShape": {"dim": [{"size": "1"}]}}}, "dtype": {"type": "DT_INT32"}}}, {"name": "StatefulPartitionedCall/tfgp_t2lm_head_model/transformer/h_._1/attn/c_attn/strided_slice/stack_1", "op": "Const", "attr": {"value": {"tensor": {"dtype": "DT_INT32", "tensorShape": {"dim": [{"size": "1"}]}}}, "dtype": {"type": "DT_INT32"}}}, {"name": "StatefulPartitionedCall/tfgp_t2lm_head_model/transformer/h_._1/attn/c_attn/strided_slice/stack_2", "op": "Const", "attr": {"value": {"tensor": {"dtype": "DT_INT32", "tensorShape": {"dim": [{"size": "1"}]}}}, "dtype": {"type": "DT_INT32"}}}, {"name": "StatefulPartitionedCall/tfgp_t2lm_head_model/transformer/h_._1/attn/c_attn/Reshape_1/shape/1", "op": "Const", "attr": {"value": {"tensor": {"dtype": "DT_INT32", "tensorShape": {}}}, "dtype": {"type": "DT_INT32"}}}, {"name": "StatefulPartitionedCall/tfgp_t2lm_head_model/transformer/h_._1/attn/c_attn/Reshape_1/shape/2", "op": "Const", "attr": {"dtype": {"type": "DT_INT32"}, "value": {"tensor": {"dtype": "DT_INT32", "tensorShape": {}}}}}, {"name": "StatefulPartitionedCall/tfgp_t2lm_head_model/transformer/h_._1/attn/strided_slice_2/stack", "op": "Const", "attr": {"dtype": {"type": "DT_INT32"}, "value": {"tensor": {"dtype": "DT_INT32", "tensorShape": {"dim": [{"size": "1"}]}}}}}, {"name": "StatefulPartitionedCall/tfgp_t2lm_head_model/transformer/h_._1/attn/strided_slice_2/stack_1", "op": "Const", "attr": {"value": {"tensor": {"dtype": "DT_INT32", "tensorShape": {"dim": [{"size": "1"}]}}}, "dtype": {"type": "DT_INT32"}}}, {"name": "StatefulPartitionedCall/tfgp_t2lm_head_model/transformer/h_._1/attn/strided_slice_2/stack_2", "op": "Const", "attr": {"value": {"tensor": {"dtype": "DT_INT32", "tensorShape": {"dim": [{"size": "1"}]}}}, "dtype": {"type": "DT_INT32"}}}, {"name": "StatefulPartitionedCall/tfgp_t2lm_head_model/transformer/h_._1/attn/Reshape_2/shape/1", "op": "Const", "attr": {"value": {"tensor": {"dtype": "DT_INT32", "tensorShape": {}}}, "dtype": {"type": "DT_INT32"}}}, {"name": "StatefulPartitionedCall/tfgp_t2lm_head_model/transformer/h_._1/attn/Reshape_2/shape/2", "op": "Const", "attr": {"value": {"tensor": {"dtype": "DT_INT32", "tensorShape": {}}}, "dtype": {"type": "DT_INT32"}}}, {"name": "StatefulPartitionedCall/tfgp_t2lm_head_model/transformer/h_._1/attn/Reshape_2/shape/3", "op": "Const", "attr": {"value": {"tensor": {"dtype": "DT_INT32", "tensorShape": {}}}, "dtype": {"type": "DT_INT32"}}}, {"name": "StatefulPartitionedCall/tfgp_t2lm_head_model/transformer/h_._1/attn/transpose_2/perm", "op": "Const", "attr": {"value": {"tensor": {"dtype": "DT_INT32", "tensorShape": {"dim": [{"size": "4"}]}}}, "dtype": {"type": "DT_INT32"}}}, {"name": "StatefulPartitionedCall/tfgp_t2lm_head_model/transformer/h_._1/attn/transpose_3/perm", "op": "Const", "attr": {"dtype": {"type": "DT_INT32"}, "value": {"tensor": {"dtype": "DT_INT32", "tensorShape": {"dim": [{"size": "4"}]}}}}}, {"name": "StatefulPartitionedCall/tfgp_t2lm_head_model/transformer/h_._1/attn/strided_slice_6/stack", "op": "Const", "attr": {"dtype": {"type": "DT_INT32"}, "value": {"tensor": {"dtype": "DT_INT32", "tensorShape": {"dim": [{"size": "1"}]}}}}}, {"name": "StatefulPartitionedCall/tfgp_t2lm_head_model/transformer/h_._1/attn/strided_slice_6/stack_1", "op": "Const", "attr": {"value": {"tensor": {"dtype": "DT_INT32", "tensorShape": {"dim": [{"size": "1"}]}}}, "dtype": {"type": "DT_INT32"}}}, {"name": "StatefulPartitionedCall/tfgp_t2lm_head_model/transformer/h_._1/attn/strided_slice_6/stack_2", "op": "Const", "attr": {"dtype": {"type": "DT_INT32"}, "value": {"tensor": {"dtype": "DT_INT32", "tensorShape": {"dim": [{"size": "1"}]}}}}}, {"name": "StatefulPartitionedCall/tfgp_t2lm_head_model/transformer/h_._1/attn/Reshape_4/shape/1", "op": "Const", "attr": {"value": {"tensor": {"dtype": "DT_INT32", "tensorShape": {}}}, "dtype": {"type": "DT_INT32"}}}, {"name": "StatefulPartitionedCall/tfgp_t2lm_head_model/transformer/h_._1/attn/Reshape_4/shape/2", "op": "Const", "attr": {"dtype": {"type": "DT_INT32"}, "value": {"tensor": {"dtype": "DT_INT32", "tensorShape": {}}}}}, {"name": "StatefulPartitionedCall/tfgp_t2lm_head_model/transformer/h_._1/attn/c_proj/strided_slice/stack", "op": "Const", "attr": {"dtype": {"type": "DT_INT32"}, "value": {"tensor": {"dtype": "DT_INT32", "tensorShape": {"dim": [{"size": "1"}]}}}}}, {"name": "StatefulPartitionedCall/tfgp_t2lm_head_model/transformer/h_._1/attn/c_proj/strided_slice/stack_1", "op": "Const", "attr": {"value": {"tensor": {"dtype": "DT_INT32", "tensorShape": {"dim": [{"size": "1"}]}}}, "dtype": {"type": "DT_INT32"}}}, {"name": "StatefulPartitionedCall/tfgp_t2lm_head_model/transformer/h_._1/attn/c_proj/strided_slice/stack_2", "op": "Const", "attr": {"value": {"tensor": {"dtype": "DT_INT32", "tensorShape": {"dim": [{"size": "1"}]}}}, "dtype": {"type": "DT_INT32"}}}, {"name": "StatefulPartitionedCall/tfgp_t2lm_head_model/transformer/h_._1/attn/c_proj/Reshape_1/shape/1", "op": "Const", "attr": {"value": {"tensor": {"dtype": "DT_INT32", "tensorShape": {}}}, "dtype": {"type": "DT_INT32"}}}, {"name": "StatefulPartitionedCall/tfgp_t2lm_head_model/transformer/h_._1/attn/c_proj/Reshape_1/shape/2", "op": "Const", "attr": {"value": {"tensor": {"dtype": "DT_INT32", "tensorShape": {}}}, "dtype": {"type": "DT_INT32"}}}, {"name": "StatefulPartitionedCall/tfgp_t2lm_head_model/transformer/h_._1/ln_2/moments/mean/reduction_indices", "op": "Const", "attr": {"value": {"tensor": {"dtype": "DT_INT32", "tensorShape": {"dim": [{"size": "1"}]}}}, "dtype": {"type": "DT_INT32"}}}, {"name": "StatefulPartitionedCall/tfgp_t2lm_head_model/transformer/h_._1/ln_2/moments/variance/reduction_indices", "op": "Const", "attr": {"value": {"tensor": {"dtype": "DT_INT32", "tensorShape": {"dim": [{"size": "1"}]}}}, "dtype": {"type": "DT_INT32"}}}, {"name": "StatefulPartitionedCall/tfgp_t2lm_head_model/transformer/h_._1/ln_2/batchnorm/add/y", "op": "Const", "attr": {"dtype": {"type": "DT_FLOAT"}, "value": {"tensor": {"dtype": "DT_FLOAT", "tensorShape": {}}}}}, {"name": "unknown_19", "op": "Const", "attr": {"dtype": {"type": "DT_FLOAT"}, "value": {"tensor": {"dtype": "DT_FLOAT", "tensorShape": {"dim": [{"size": "768"}]}}}}}, {"name": "StatefulPartitionedCall/tfgp_t2lm_head_model/transformer/h_._1/mlp/c_fc/strided_slice/stack", "op": "Const", "attr": {"value": {"tensor": {"dtype": "DT_INT32", "tensorShape": {"dim": [{"size": "1"}]}}}, "dtype": {"type": "DT_INT32"}}}, {"name": "StatefulPartitionedCall/tfgp_t2lm_head_model/transformer/h_._1/mlp/c_fc/strided_slice/stack_1", "op": "Const", "attr": {"dtype": {"type": "DT_INT32"}, "value": {"tensor": {"dtype": "DT_INT32", "tensorShape": {"dim": [{"size": "1"}]}}}}}, {"name": "StatefulPartitionedCall/tfgp_t2lm_head_model/transformer/h_._1/mlp/c_fc/strided_slice/stack_2", "op": "Const", "attr": {"dtype": {"type": "DT_INT32"}, "value": {"tensor": {"dtype": "DT_INT32", "tensorShape": {"dim": [{"size": "1"}]}}}}}, {"name": "StatefulPartitionedCall/tfgp_t2lm_head_model/transformer/h_._1/mlp/c_fc/Reshape_1/shape/1", "op": "Const", "attr": {"value": {"tensor": {"dtype": "DT_INT32", "tensorShape": {}}}, "dtype": {"type": "DT_INT32"}}}, {"name": "StatefulPartitionedCall/tfgp_t2lm_head_model/transformer/h_._1/mlp/c_fc/Reshape_1/shape/2", "op": "Const", "attr": {"dtype": {"type": "DT_INT32"}, "value": {"tensor": {"dtype": "DT_INT32", "tensorShape": {}}}}}, {"name": "StatefulPartitionedCall/tfgp_t2lm_head_model/transformer/h_._1/mlp/Pow/y", "op": "Const", "attr": {"value": {"tensor": {"dtype": "DT_FLOAT", "tensorShape": {}}}, "dtype": {"type": "DT_FLOAT"}}}, {"name": "StatefulPartitionedCall/tfgp_t2lm_head_model/transformer/h_._1/mlp/c_proj/strided_slice/stack", "op": "Const", "attr": {"value": {"tensor": {"dtype": "DT_INT32", "tensorShape": {"dim": [{"size": "1"}]}}}, "dtype": {"type": "DT_INT32"}}}, {"name": "StatefulPartitionedCall/tfgp_t2lm_head_model/transformer/h_._1/mlp/c_proj/strided_slice/stack_1", "op": "Const", "attr": {"value": {"tensor": {"dtype": "DT_INT32", "tensorShape": {"dim": [{"size": "1"}]}}}, "dtype": {"type": "DT_INT32"}}}, {"name": "StatefulPartitionedCall/tfgp_t2lm_head_model/transformer/h_._1/mlp/c_proj/strided_slice/stack_2", "op": "Const", "attr": {"dtype": {"type": "DT_INT32"}, "value": {"tensor": {"dtype": "DT_INT32", "tensorShape": {"dim": [{"size": "1"}]}}}}}, {"name": "StatefulPartitionedCall/tfgp_t2lm_head_model/transformer/h_._1/mlp/c_proj/Reshape_1/shape/1", "op": "Const", "attr": {"value": {"tensor": {"dtype": "DT_INT32", "tensorShape": {}}}, "dtype": {"type": "DT_INT32"}}}, {"name": "StatefulPartitionedCall/tfgp_t2lm_head_model/transformer/h_._1/mlp/c_proj/Reshape_1/shape/2", "op": "Const", "attr": {"dtype": {"type": "DT_INT32"}, "value": {"tensor": {"dtype": "DT_INT32", "tensorShape": {}}}}}, {"name": "StatefulPartitionedCall/tfgp_t2lm_head_model/transformer/h_._2/ln_1/moments/mean/reduction_indices", "op": "Const", "attr": {"value": {"tensor": {"dtype": "DT_INT32", "tensorShape": {"dim": [{"size": "1"}]}}}, "dtype": {"type": "DT_INT32"}}}, {"name": "StatefulPartitionedCall/tfgp_t2lm_head_model/transformer/h_._2/ln_1/moments/variance/reduction_indices", "op": "Const", "attr": {"value": {"tensor": {"dtype": "DT_INT32", "tensorShape": {"dim": [{"size": "1"}]}}}, "dtype": {"type": "DT_INT32"}}}, {"name": "StatefulPartitionedCall/tfgp_t2lm_head_model/transformer/h_._2/ln_1/batchnorm/add/y", "op": "Const", "attr": {"dtype": {"type": "DT_FLOAT"}, "value": {"tensor": {"dtype": "DT_FLOAT", "tensorShape": {}}}}}, {"name": "unknown_25", "op": "Const", "attr": {"value": {"tensor": {"dtype": "DT_FLOAT", "tensorShape": {"dim": [{"size": "768"}]}}}, "dtype": {"type": "DT_FLOAT"}}}, {"name": "StatefulPartitionedCall/tfgp_t2lm_head_model/transformer/h_._2/attn/c_attn/strided_slice/stack", "op": "Const", "attr": {"value": {"tensor": {"dtype": "DT_INT32", "tensorShape": {"dim": [{"size": "1"}]}}}, "dtype": {"type": "DT_INT32"}}}, {"name": "StatefulPartitionedCall/tfgp_t2lm_head_model/transformer/h_._2/attn/c_attn/strided_slice/stack_1", "op": "Const", "attr": {"value": {"tensor": {"dtype": "DT_INT32", "tensorShape": {"dim": [{"size": "1"}]}}}, "dtype": {"type": "DT_INT32"}}}, {"name": "StatefulPartitionedCall/tfgp_t2lm_head_model/transformer/h_._2/attn/c_attn/strided_slice/stack_2", "op": "Const", "attr": {"dtype": {"type": "DT_INT32"}, "value": {"tensor": {"dtype": "DT_INT32", "tensorShape": {"dim": [{"size": "1"}]}}}}}, {"name": "StatefulPartitionedCall/tfgp_t2lm_head_model/transformer/h_._2/attn/c_attn/Reshape_1/shape/1", "op": "Const", "attr": {"value": {"tensor": {"dtype": "DT_INT32", "tensorShape": {}}}, "dtype": {"type": "DT_INT32"}}}, {"name": "StatefulPartitionedCall/tfgp_t2lm_head_model/transformer/h_._2/attn/c_attn/Reshape_1/shape/2", "op": "Const", "attr": {"dtype": {"type": "DT_INT32"}, "value": {"tensor": {"dtype": "DT_INT32", "tensorShape": {}}}}}, {"name": "StatefulPartitionedCall/tfgp_t2lm_head_model/transformer/h_._2/attn/strided_slice_2/stack", "op": "Const", "attr": {"dtype": {"type": "DT_INT32"}, "value": {"tensor": {"dtype": "DT_INT32", "tensorShape": {"dim": [{"size": "1"}]}}}}}, {"name": "StatefulPartitionedCall/tfgp_t2lm_head_model/transformer/h_._2/attn/strided_slice_2/stack_1", "op": "Const", "attr": {"value": {"tensor": {"dtype": "DT_INT32", "tensorShape": {"dim": [{"size": "1"}]}}}, "dtype": {"type": "DT_INT32"}}}, {"name": "StatefulPartitionedCall/tfgp_t2lm_head_model/transformer/h_._2/attn/strided_slice_2/stack_2", "op": "Const", "attr": {"dtype": {"type": "DT_INT32"}, "value": {"tensor": {"dtype": "DT_INT32", "tensorShape": {"dim": [{"size": "1"}]}}}}}, {"name": "StatefulPartitionedCall/tfgp_t2lm_head_model/transformer/h_._2/attn/Reshape_2/shape/1", "op": "Const", "attr": {"value": {"tensor": {"dtype": "DT_INT32", "tensorShape": {}}}, "dtype": {"type": "DT_INT32"}}}, {"name": "StatefulPartitionedCall/tfgp_t2lm_head_model/transformer/h_._2/attn/Reshape_2/shape/2", "op": "Const", "attr": {"dtype": {"type": "DT_INT32"}, "value": {"tensor": {"dtype": "DT_INT32", "tensorShape": {}}}}}, {"name": "StatefulPartitionedCall/tfgp_t2lm_head_model/transformer/h_._2/attn/Reshape_2/shape/3", "op": "Const", "attr": {"value": {"tensor": {"dtype": "DT_INT32", "tensorShape": {}}}, "dtype": {"type": "DT_INT32"}}}, {"name": "StatefulPartitionedCall/tfgp_t2lm_head_model/transformer/h_._2/attn/transpose_2/perm", "op": "Const", "attr": {"dtype": {"type": "DT_INT32"}, "value": {"tensor": {"dtype": "DT_INT32", "tensorShape": {"dim": [{"size": "4"}]}}}}}, {"name": "StatefulPartitionedCall/tfgp_t2lm_head_model/transformer/h_._2/attn/transpose_3/perm", "op": "Const", "attr": {"dtype": {"type": "DT_INT32"}, "value": {"tensor": {"dtype": "DT_INT32", "tensorShape": {"dim": [{"size": "4"}]}}}}}, {"name": "StatefulPartitionedCall/tfgp_t2lm_head_model/transformer/h_._2/attn/strided_slice_6/stack", "op": "Const", "attr": {"value": {"tensor": {"dtype": "DT_INT32", "tensorShape": {"dim": [{"size": "1"}]}}}, "dtype": {"type": "DT_INT32"}}}, {"name": "StatefulPartitionedCall/tfgp_t2lm_head_model/transformer/h_._2/attn/strided_slice_6/stack_1", "op": "Const", "attr": {"value": {"tensor": {"dtype": "DT_INT32", "tensorShape": {"dim": [{"size": "1"}]}}}, "dtype": {"type": "DT_INT32"}}}, {"name": "StatefulPartitionedCall/tfgp_t2lm_head_model/transformer/h_._2/attn/strided_slice_6/stack_2", "op": "Const", "attr": {"dtype": {"type": "DT_INT32"}, "value": {"tensor": {"dtype": "DT_INT32", "tensorShape": {"dim": [{"size": "1"}]}}}}}, {"name": "StatefulPartitionedCall/tfgp_t2lm_head_model/transformer/h_._2/attn/Reshape_4/shape/1", "op": "Const", "attr": {"value": {"tensor": {"dtype": "DT_INT32", "tensorShape": {}}}, "dtype": {"type": "DT_INT32"}}}, {"name": "StatefulPartitionedCall/tfgp_t2lm_head_model/transformer/h_._2/attn/Reshape_4/shape/2", "op": "Const", "attr": {"value": {"tensor": {"dtype": "DT_INT32", "tensorShape": {}}}, "dtype": {"type": "DT_INT32"}}}, {"name": "StatefulPartitionedCall/tfgp_t2lm_head_model/transformer/h_._2/attn/c_proj/strided_slice/stack", "op": "Const", "attr": {"dtype": {"type": "DT_INT32"}, "value": {"tensor": {"dtype": "DT_INT32", "tensorShape": {"dim": [{"size": "1"}]}}}}}, {"name": "StatefulPartitionedCall/tfgp_t2lm_head_model/transformer/h_._2/attn/c_proj/strided_slice/stack_1", "op": "Const", "attr": {"dtype": {"type": "DT_INT32"}, "value": {"tensor": {"dtype": "DT_INT32", "tensorShape": {"dim": [{"size": "1"}]}}}}}, {"name": "StatefulPartitionedCall/tfgp_t2lm_head_model/transformer/h_._2/attn/c_proj/strided_slice/stack_2", "op": "Const", "attr": {"value": {"tensor": {"dtype": "DT_INT32", "tensorShape": {"dim": [{"size": "1"}]}}}, "dtype": {"type": "DT_INT32"}}}, {"name": "StatefulPartitionedCall/tfgp_t2lm_head_model/transformer/h_._2/attn/c_proj/Reshape_1/shape/1", "op": "Const", "attr": {"dtype": {"type": "DT_INT32"}, "value": {"tensor": {"dtype": "DT_INT32", "tensorShape": {}}}}}, {"name": "StatefulPartitionedCall/tfgp_t2lm_head_model/transformer/h_._2/attn/c_proj/Reshape_1/shape/2", "op": "Const", "attr": {"dtype": {"type": "DT_INT32"}, "value": {"tensor": {"dtype": "DT_INT32", "tensorShape": {}}}}}, {"name": "StatefulPartitionedCall/tfgp_t2lm_head_model/transformer/h_._2/ln_2/moments/mean/reduction_indices", "op": "Const", "attr": {"value": {"tensor": {"dtype": "DT_INT32", "tensorShape": {"dim": [{"size": "1"}]}}}, "dtype": {"type": "DT_INT32"}}}, {"name": "StatefulPartitionedCall/tfgp_t2lm_head_model/transformer/h_._2/ln_2/moments/variance/reduction_indices", "op": "Const", "attr": {"value": {"tensor": {"dtype": "DT_INT32", "tensorShape": {"dim": [{"size": "1"}]}}}, "dtype": {"type": "DT_INT32"}}}, {"name": "StatefulPartitionedCall/tfgp_t2lm_head_model/transformer/h_._2/ln_2/batchnorm/add/y", "op": "Const", "attr": {"value": {"tensor": {"dtype": "DT_FLOAT", "tensorShape": {}}}, "dtype": {"type": "DT_FLOAT"}}}, {"name": "unknown_31", "op": "Const", "attr": {"value": {"tensor": {"dtype": "DT_FLOAT", "tensorShape": {"dim": [{"size": "768"}]}}}, "dtype": {"type": "DT_FLOAT"}}}, {"name": "StatefulPartitionedCall/tfgp_t2lm_head_model/transformer/h_._2/mlp/c_fc/strided_slice/stack", "op": "Const", "attr": {"dtype": {"type": "DT_INT32"}, "value": {"tensor": {"dtype": "DT_INT32", "tensorShape": {"dim": [{"size": "1"}]}}}}}, {"name": "StatefulPartitionedCall/tfgp_t2lm_head_model/transformer/h_._2/mlp/c_fc/strided_slice/stack_1", "op": "Const", "attr": {"value": {"tensor": {"dtype": "DT_INT32", "tensorShape": {"dim": [{"size": "1"}]}}}, "dtype": {"type": "DT_INT32"}}}, {"name": "StatefulPartitionedCall/tfgp_t2lm_head_model/transformer/h_._2/mlp/c_fc/strided_slice/stack_2", "op": "Const", "attr": {"dtype": {"type": "DT_INT32"}, "value": {"tensor": {"dtype": "DT_INT32", "tensorShape": {"dim": [{"size": "1"}]}}}}}, {"name": "StatefulPartitionedCall/tfgp_t2lm_head_model/transformer/h_._2/mlp/c_fc/Reshape_1/shape/1", "op": "Const", "attr": {"value": {"tensor": {"dtype": "DT_INT32", "tensorShape": {}}}, "dtype": {"type": "DT_INT32"}}}, {"name": "StatefulPartitionedCall/tfgp_t2lm_head_model/transformer/h_._2/mlp/c_fc/Reshape_1/shape/2", "op": "Const", "attr": {"dtype": {"type": "DT_INT32"}, "value": {"tensor": {"dtype": "DT_INT32", "tensorShape": {}}}}}, {"name": "StatefulPartitionedCall/tfgp_t2lm_head_model/transformer/h_._2/mlp/Pow/y", "op": "Const", "attr": {"value": {"tensor": {"dtype": "DT_FLOAT", "tensorShape": {}}}, "dtype": {"type": "DT_FLOAT"}}}, {"name": "StatefulPartitionedCall/tfgp_t2lm_head_model/transformer/h_._2/mlp/c_proj/strided_slice/stack", "op": "Const", "attr": {"dtype": {"type": "DT_INT32"}, "value": {"tensor": {"dtype": "DT_INT32", "tensorShape": {"dim": [{"size": "1"}]}}}}}, {"name": "StatefulPartitionedCall/tfgp_t2lm_head_model/transformer/h_._2/mlp/c_proj/strided_slice/stack_1", "op": "Const", "attr": {"value": {"tensor": {"dtype": "DT_INT32", "tensorShape": {"dim": [{"size": "1"}]}}}, "dtype": {"type": "DT_INT32"}}}, {"name": "StatefulPartitionedCall/tfgp_t2lm_head_model/transformer/h_._2/mlp/c_proj/strided_slice/stack_2", "op": "Const", "attr": {"dtype": {"type": "DT_INT32"}, "value": {"tensor": {"dtype": "DT_INT32", "tensorShape": {"dim": [{"size": "1"}]}}}}}, {"name": "StatefulPartitionedCall/tfgp_t2lm_head_model/transformer/h_._2/mlp/c_proj/Reshape_1/shape/1", "op": "Const", "attr": {"dtype": {"type": "DT_INT32"}, "value": {"tensor": {"dtype": "DT_INT32", "tensorShape": {}}}}}, {"name": "StatefulPartitionedCall/tfgp_t2lm_head_model/transformer/h_._2/mlp/c_proj/Reshape_1/shape/2", "op": "Const", "attr": {"value": {"tensor": {"dtype": "DT_INT32", "tensorShape": {}}}, "dtype": {"type": "DT_INT32"}}}, {"name": "StatefulPartitionedCall/tfgp_t2lm_head_model/transformer/h_._3/ln_1/moments/mean/reduction_indices", "op": "Const", "attr": {"dtype": {"type": "DT_INT32"}, "value": {"tensor": {"dtype": "DT_INT32", "tensorShape": {"dim": [{"size": "1"}]}}}}}, {"name": "StatefulPartitionedCall/tfgp_t2lm_head_model/transformer/h_._3/ln_1/moments/variance/reduction_indices", "op": "Const", "attr": {"value": {"tensor": {"dtype": "DT_INT32", "tensorShape": {"dim": [{"size": "1"}]}}}, "dtype": {"type": "DT_INT32"}}}, {"name": "StatefulPartitionedCall/tfgp_t2lm_head_model/transformer/h_._3/ln_1/batchnorm/add/y", "op": "Const", "attr": {"value": {"tensor": {"dtype": "DT_FLOAT", "tensorShape": {}}}, "dtype": {"type": "DT_FLOAT"}}}, {"name": "unknown_37", "op": "Const", "attr": {"dtype": {"type": "DT_FLOAT"}, "value": {"tensor": {"dtype": "DT_FLOAT", "tensorShape": {"dim": [{"size": "768"}]}}}}}, {"name": "StatefulPartitionedCall/tfgp_t2lm_head_model/transformer/h_._3/attn/c_attn/strided_slice/stack", "op": "Const", "attr": {"dtype": {"type": "DT_INT32"}, "value": {"tensor": {"dtype": "DT_INT32", "tensorShape": {"dim": [{"size": "1"}]}}}}}, {"name": "StatefulPartitionedCall/tfgp_t2lm_head_model/transformer/h_._3/attn/c_attn/strided_slice/stack_1", "op": "Const", "attr": {"dtype": {"type": "DT_INT32"}, "value": {"tensor": {"dtype": "DT_INT32", "tensorShape": {"dim": [{"size": "1"}]}}}}}, {"name": "StatefulPartitionedCall/tfgp_t2lm_head_model/transformer/h_._3/attn/c_attn/strided_slice/stack_2", "op": "Const", "attr": {"value": {"tensor": {"dtype": "DT_INT32", "tensorShape": {"dim": [{"size": "1"}]}}}, "dtype": {"type": "DT_INT32"}}}, {"name": "StatefulPartitionedCall/tfgp_t2lm_head_model/transformer/h_._3/attn/c_attn/Reshape_1/shape/1", "op": "Const", "attr": {"dtype": {"type": "DT_INT32"}, "value": {"tensor": {"dtype": "DT_INT32", "tensorShape": {}}}}}, {"name": "StatefulPartitionedCall/tfgp_t2lm_head_model/transformer/h_._3/attn/c_attn/Reshape_1/shape/2", "op": "Const", "attr": {"value": {"tensor": {"dtype": "DT_INT32", "tensorShape": {}}}, "dtype": {"type": "DT_INT32"}}}, {"name": "StatefulPartitionedCall/tfgp_t2lm_head_model/transformer/h_._3/attn/strided_slice_2/stack", "op": "Const", "attr": {"value": {"tensor": {"dtype": "DT_INT32", "tensorShape": {"dim": [{"size": "1"}]}}}, "dtype": {"type": "DT_INT32"}}}, {"name": "StatefulPartitionedCall/tfgp_t2lm_head_model/transformer/h_._3/attn/strided_slice_2/stack_1", "op": "Const", "attr": {"dtype": {"type": "DT_INT32"}, "value": {"tensor": {"dtype": "DT_INT32", "tensorShape": {"dim": [{"size": "1"}]}}}}}, {"name": "StatefulPartitionedCall/tfgp_t2lm_head_model/transformer/h_._3/attn/strided_slice_2/stack_2", "op": "Const", "attr": {"value": {"tensor": {"dtype": "DT_INT32", "tensorShape": {"dim": [{"size": "1"}]}}}, "dtype": {"type": "DT_INT32"}}}, {"name": "StatefulPartitionedCall/tfgp_t2lm_head_model/transformer/h_._3/attn/Reshape_2/shape/1", "op": "Const", "attr": {"value": {"tensor": {"dtype": "DT_INT32", "tensorShape": {}}}, "dtype": {"type": "DT_INT32"}}}, {"name": "StatefulPartitionedCall/tfgp_t2lm_head_model/transformer/h_._3/attn/Reshape_2/shape/2", "op": "Const", "attr": {"value": {"tensor": {"dtype": "DT_INT32", "tensorShape": {}}}, "dtype": {"type": "DT_INT32"}}}, {"name": "StatefulPartitionedCall/tfgp_t2lm_head_model/transformer/h_._3/attn/Reshape_2/shape/3", "op": "Const", "attr": {"dtype": {"type": "DT_INT32"}, "value": {"tensor": {"dtype": "DT_INT32", "tensorShape": {}}}}}, {"name": "StatefulPartitionedCall/tfgp_t2lm_head_model/transformer/h_._3/attn/transpose_2/perm", "op": "Const", "attr": {"dtype": {"type": "DT_INT32"}, "value": {"tensor": {"dtype": "DT_INT32", "tensorShape": {"dim": [{"size": "4"}]}}}}}, {"name": "StatefulPartitionedCall/tfgp_t2lm_head_model/transformer/h_._3/attn/transpose_3/perm", "op": "Const", "attr": {"dtype": {"type": "DT_INT32"}, "value": {"tensor": {"dtype": "DT_INT32", "tensorShape": {"dim": [{"size": "4"}]}}}}}, {"name": "StatefulPartitionedCall/tfgp_t2lm_head_model/transformer/h_._3/attn/strided_slice_6/stack", "op": "Const", "attr": {"dtype": {"type": "DT_INT32"}, "value": {"tensor": {"dtype": "DT_INT32", "tensorShape": {"dim": [{"size": "1"}]}}}}}, {"name": "StatefulPartitionedCall/tfgp_t2lm_head_model/transformer/h_._3/attn/strided_slice_6/stack_1", "op": "Const", "attr": {"dtype": {"type": "DT_INT32"}, "value": {"tensor": {"dtype": "DT_INT32", "tensorShape": {"dim": [{"size": "1"}]}}}}}, {"name": "StatefulPartitionedCall/tfgp_t2lm_head_model/transformer/h_._3/attn/strided_slice_6/stack_2", "op": "Const", "attr": {"dtype": {"type": "DT_INT32"}, "value": {"tensor": {"dtype": "DT_INT32", "tensorShape": {"dim": [{"size": "1"}]}}}}}, {"name": "StatefulPartitionedCall/tfgp_t2lm_head_model/transformer/h_._3/attn/Reshape_4/shape/1", "op": "Const", "attr": {"value": {"tensor": {"dtype": "DT_INT32", "tensorShape": {}}}, "dtype": {"type": "DT_INT32"}}}, {"name": "StatefulPartitionedCall/tfgp_t2lm_head_model/transformer/h_._3/attn/Reshape_4/shape/2", "op": "Const", "attr": {"value": {"tensor": {"dtype": "DT_INT32", "tensorShape": {}}}, "dtype": {"type": "DT_INT32"}}}, {"name": "StatefulPartitionedCall/tfgp_t2lm_head_model/transformer/h_._3/attn/c_proj/strided_slice/stack", "op": "Const", "attr": {"value": {"tensor": {"dtype": "DT_INT32", "tensorShape": {"dim": [{"size": "1"}]}}}, "dtype": {"type": "DT_INT32"}}}, {"name": "StatefulPartitionedCall/tfgp_t2lm_head_model/transformer/h_._3/attn/c_proj/strided_slice/stack_1", "op": "Const", "attr": {"value": {"tensor": {"dtype": "DT_INT32", "tensorShape": {"dim": [{"size": "1"}]}}}, "dtype": {"type": "DT_INT32"}}}, {"name": "StatefulPartitionedCall/tfgp_t2lm_head_model/transformer/h_._3/attn/c_proj/strided_slice/stack_2", "op": "Const", "attr": {"value": {"tensor": {"dtype": "DT_INT32", "tensorShape": {"dim": [{"size": "1"}]}}}, "dtype": {"type": "DT_INT32"}}}, {"name": "StatefulPartitionedCall/tfgp_t2lm_head_model/transformer/h_._3/attn/c_proj/Reshape_1/shape/1", "op": "Const", "attr": {"dtype": {"type": "DT_INT32"}, "value": {"tensor": {"dtype": "DT_INT32", "tensorShape": {}}}}}, {"name": "StatefulPartitionedCall/tfgp_t2lm_head_model/transformer/h_._3/attn/c_proj/Reshape_1/shape/2", "op": "Const", "attr": {"value": {"tensor": {"dtype": "DT_INT32", "tensorShape": {}}}, "dtype": {"type": "DT_INT32"}}}, {"name": "StatefulPartitionedCall/tfgp_t2lm_head_model/transformer/h_._3/ln_2/moments/mean/reduction_indices", "op": "Const", "attr": {"dtype": {"type": "DT_INT32"}, "value": {"tensor": {"dtype": "DT_INT32", "tensorShape": {"dim": [{"size": "1"}]}}}}}, {"name": "StatefulPartitionedCall/tfgp_t2lm_head_model/transformer/h_._3/ln_2/moments/variance/reduction_indices", "op": "Const", "attr": {"dtype": {"type": "DT_INT32"}, "value": {"tensor": {"dtype": "DT_INT32", "tensorShape": {"dim": [{"size": "1"}]}}}}}, {"name": "StatefulPartitionedCall/tfgp_t2lm_head_model/transformer/h_._3/ln_2/batchnorm/add/y", "op": "Const", "attr": {"dtype": {"type": "DT_FLOAT"}, "value": {"tensor": {"dtype": "DT_FLOAT", "tensorShape": {}}}}}, {"name": "unknown_43", "op": "Const", "attr": {"value": {"tensor": {"dtype": "DT_FLOAT", "tensorShape": {"dim": [{"size": "768"}]}}}, "dtype": {"type": "DT_FLOAT"}}}, {"name": "StatefulPartitionedCall/tfgp_t2lm_head_model/transformer/h_._3/mlp/c_fc/strided_slice/stack", "op": "Const", "attr": {"value": {"tensor": {"dtype": "DT_INT32", "tensorShape": {"dim": [{"size": "1"}]}}}, "dtype": {"type": "DT_INT32"}}}, {"name": "StatefulPartitionedCall/tfgp_t2lm_head_model/transformer/h_._3/mlp/c_fc/strided_slice/stack_1", "op": "Const", "attr": {"value": {"tensor": {"dtype": "DT_INT32", "tensorShape": {"dim": [{"size": "1"}]}}}, "dtype": {"type": "DT_INT32"}}}, {"name": "StatefulPartitionedCall/tfgp_t2lm_head_model/transformer/h_._3/mlp/c_fc/strided_slice/stack_2", "op": "Const", "attr": {"value": {"tensor": {"dtype": "DT_INT32", "tensorShape": {"dim": [{"size": "1"}]}}}, "dtype": {"type": "DT_INT32"}}}, {"name": "StatefulPartitionedCall/tfgp_t2lm_head_model/transformer/h_._3/mlp/c_fc/Reshape_1/shape/1", "op": "Const", "attr": {"value": {"tensor": {"dtype": "DT_INT32", "tensorShape": {}}}, "dtype": {"type": "DT_INT32"}}}, {"name": "StatefulPartitionedCall/tfgp_t2lm_head_model/transformer/h_._3/mlp/c_fc/Reshape_1/shape/2", "op": "Const", "attr": {"dtype": {"type": "DT_INT32"}, "value": {"tensor": {"dtype": "DT_INT32", "tensorShape": {}}}}}, {"name": "StatefulPartitionedCall/tfgp_t2lm_head_model/transformer/h_._3/mlp/Pow/y", "op": "Const", "attr": {"dtype": {"type": "DT_FLOAT"}, "value": {"tensor": {"dtype": "DT_FLOAT", "tensorShape": {}}}}}, {"name": "StatefulPartitionedCall/tfgp_t2lm_head_model/transformer/h_._3/mlp/c_proj/strided_slice/stack", "op": "Const", "attr": {"dtype": {"type": "DT_INT32"}, "value": {"tensor": {"dtype": "DT_INT32", "tensorShape": {"dim": [{"size": "1"}]}}}}}, {"name": "StatefulPartitionedCall/tfgp_t2lm_head_model/transformer/h_._3/mlp/c_proj/strided_slice/stack_1", "op": "Const", "attr": {"value": {"tensor": {"dtype": "DT_INT32", "tensorShape": {"dim": [{"size": "1"}]}}}, "dtype": {"type": "DT_INT32"}}}, {"name": "StatefulPartitionedCall/tfgp_t2lm_head_model/transformer/h_._3/mlp/c_proj/strided_slice/stack_2", "op": "Const", "attr": {"dtype": {"type": "DT_INT32"}, "value": {"tensor": {"dtype": "DT_INT32", "tensorShape": {"dim": [{"size": "1"}]}}}}}, {"name": "StatefulPartitionedCall/tfgp_t2lm_head_model/transformer/h_._3/mlp/c_proj/Reshape_1/shape/1", "op": "Const", "attr": {"dtype": {"type": "DT_INT32"}, "value": {"tensor": {"dtype": "DT_INT32", "tensorShape": {}}}}}, {"name": "StatefulPartitionedCall/tfgp_t2lm_head_model/transformer/h_._3/mlp/c_proj/Reshape_1/shape/2", "op": "Const", "attr": {"dtype": {"type": "DT_INT32"}, "value": {"tensor": {"dtype": "DT_INT32", "tensorShape": {}}}}}, {"name": "StatefulPartitionedCall/tfgp_t2lm_head_model/transformer/h_._4/ln_1/moments/mean/reduction_indices", "op": "Const", "attr": {"dtype": {"type": "DT_INT32"}, "value": {"tensor": {"dtype": "DT_INT32", "tensorShape": {"dim": [{"size": "1"}]}}}}}, {"name": "StatefulPartitionedCall/tfgp_t2lm_head_model/transformer/h_._4/ln_1/moments/variance/reduction_indices", "op": "Const", "attr": {"value": {"tensor": {"dtype": "DT_INT32", "tensorShape": {"dim": [{"size": "1"}]}}}, "dtype": {"type": "DT_INT32"}}}, {"name": "StatefulPartitionedCall/tfgp_t2lm_head_model/transformer/h_._4/ln_1/batchnorm/add/y", "op": "Const", "attr": {"dtype": {"type": "DT_FLOAT"}, "value": {"tensor": {"dtype": "DT_FLOAT", "tensorShape": {}}}}}, {"name": "unknown_49", "op": "Const", "attr": {"dtype": {"type": "DT_FLOAT"}, "value": {"tensor": {"dtype": "DT_FLOAT", "tensorShape": {"dim": [{"size": "768"}]}}}}}, {"name": "StatefulPartitionedCall/tfgp_t2lm_head_model/transformer/h_._4/attn/c_attn/strided_slice/stack", "op": "Const", "attr": {"value": {"tensor": {"dtype": "DT_INT32", "tensorShape": {"dim": [{"size": "1"}]}}}, "dtype": {"type": "DT_INT32"}}}, {"name": "StatefulPartitionedCall/tfgp_t2lm_head_model/transformer/h_._4/attn/c_attn/strided_slice/stack_1", "op": "Const", "attr": {"dtype": {"type": "DT_INT32"}, "value": {"tensor": {"dtype": "DT_INT32", "tensorShape": {"dim": [{"size": "1"}]}}}}}, {"name": "StatefulPartitionedCall/tfgp_t2lm_head_model/transformer/h_._4/attn/c_attn/strided_slice/stack_2", "op": "Const", "attr": {"dtype": {"type": "DT_INT32"}, "value": {"tensor": {"dtype": "DT_INT32", "tensorShape": {"dim": [{"size": "1"}]}}}}}, {"name": "StatefulPartitionedCall/tfgp_t2lm_head_model/transformer/h_._4/attn/c_attn/Reshape_1/shape/1", "op": "Const", "attr": {"value": {"tensor": {"dtype": "DT_INT32", "tensorShape": {}}}, "dtype": {"type": "DT_INT32"}}}, {"name": "StatefulPartitionedCall/tfgp_t2lm_head_model/transformer/h_._4/attn/c_attn/Reshape_1/shape/2", "op": "Const", "attr": {"dtype": {"type": "DT_INT32"}, "value": {"tensor": {"dtype": "DT_INT32", "tensorShape": {}}}}}, {"name": "StatefulPartitionedCall/tfgp_t2lm_head_model/transformer/h_._4/attn/strided_slice_2/stack", "op": "Const", "attr": {"value": {"tensor": {"dtype": "DT_INT32", "tensorShape": {"dim": [{"size": "1"}]}}}, "dtype": {"type": "DT_INT32"}}}, {"name": "StatefulPartitionedCall/tfgp_t2lm_head_model/transformer/h_._4/attn/strided_slice_2/stack_1", "op": "Const", "attr": {"value": {"tensor": {"dtype": "DT_INT32", "tensorShape": {"dim": [{"size": "1"}]}}}, "dtype": {"type": "DT_INT32"}}}, {"name": "StatefulPartitionedCall/tfgp_t2lm_head_model/transformer/h_._4/attn/strided_slice_2/stack_2", "op": "Const", "attr": {"value": {"tensor": {"dtype": "DT_INT32", "tensorShape": {"dim": [{"size": "1"}]}}}, "dtype": {"type": "DT_INT32"}}}, {"name": "StatefulPartitionedCall/tfgp_t2lm_head_model/transformer/h_._4/attn/Reshape_2/shape/1", "op": "Const", "attr": {"dtype": {"type": "DT_INT32"}, "value": {"tensor": {"dtype": "DT_INT32", "tensorShape": {}}}}}, {"name": "StatefulPartitionedCall/tfgp_t2lm_head_model/transformer/h_._4/attn/Reshape_2/shape/2", "op": "Const", "attr": {"dtype": {"type": "DT_INT32"}, "value": {"tensor": {"dtype": "DT_INT32", "tensorShape": {}}}}}, {"name": "StatefulPartitionedCall/tfgp_t2lm_head_model/transformer/h_._4/attn/Reshape_2/shape/3", "op": "Const", "attr": {"value": {"tensor": {"dtype": "DT_INT32", "tensorShape": {}}}, "dtype": {"type": "DT_INT32"}}}, {"name": "StatefulPartitionedCall/tfgp_t2lm_head_model/transformer/h_._4/attn/transpose_2/perm", "op": "Const", "attr": {"dtype": {"type": "DT_INT32"}, "value": {"tensor": {"dtype": "DT_INT32", "tensorShape": {"dim": [{"size": "4"}]}}}}}, {"name": "StatefulPartitionedCall/tfgp_t2lm_head_model/transformer/h_._4/attn/transpose_3/perm", "op": "Const", "attr": {"dtype": {"type": "DT_INT32"}, "value": {"tensor": {"dtype": "DT_INT32", "tensorShape": {"dim": [{"size": "4"}]}}}}}, {"name": "StatefulPartitionedCall/tfgp_t2lm_head_model/transformer/h_._4/attn/strided_slice_6/stack", "op": "Const", "attr": {"value": {"tensor": {"dtype": "DT_INT32", "tensorShape": {"dim": [{"size": "1"}]}}}, "dtype": {"type": "DT_INT32"}}}, {"name": "StatefulPartitionedCall/tfgp_t2lm_head_model/transformer/h_._4/attn/strided_slice_6/stack_1", "op": "Const", "attr": {"dtype": {"type": "DT_INT32"}, "value": {"tensor": {"dtype": "DT_INT32", "tensorShape": {"dim": [{"size": "1"}]}}}}}, {"name": "StatefulPartitionedCall/tfgp_t2lm_head_model/transformer/h_._4/attn/strided_slice_6/stack_2", "op": "Const", "attr": {"value": {"tensor": {"dtype": "DT_INT32", "tensorShape": {"dim": [{"size": "1"}]}}}, "dtype": {"type": "DT_INT32"}}}, {"name": "StatefulPartitionedCall/tfgp_t2lm_head_model/transformer/h_._4/attn/Reshape_4/shape/1", "op": "Const", "attr": {"dtype": {"type": "DT_INT32"}, "value": {"tensor": {"dtype": "DT_INT32", "tensorShape": {}}}}}, {"name": "StatefulPartitionedCall/tfgp_t2lm_head_model/transformer/h_._4/attn/Reshape_4/shape/2", "op": "Const", "attr": {"dtype": {"type": "DT_INT32"}, "value": {"tensor": {"dtype": "DT_INT32", "tensorShape": {}}}}}, {"name": "StatefulPartitionedCall/tfgp_t2lm_head_model/transformer/h_._4/attn/c_proj/strided_slice/stack", "op": "Const", "attr": {"value": {"tensor": {"dtype": "DT_INT32", "tensorShape": {"dim": [{"size": "1"}]}}}, "dtype": {"type": "DT_INT32"}}}, {"name": "StatefulPartitionedCall/tfgp_t2lm_head_model/transformer/h_._4/attn/c_proj/strided_slice/stack_1", "op": "Const", "attr": {"value": {"tensor": {"dtype": "DT_INT32", "tensorShape": {"dim": [{"size": "1"}]}}}, "dtype": {"type": "DT_INT32"}}}, {"name": "StatefulPartitionedCall/tfgp_t2lm_head_model/transformer/h_._4/attn/c_proj/strided_slice/stack_2", "op": "Const", "attr": {"value": {"tensor": {"dtype": "DT_INT32", "tensorShape": {"dim": [{"size": "1"}]}}}, "dtype": {"type": "DT_INT32"}}}, {"name": "StatefulPartitionedCall/tfgp_t2lm_head_model/transformer/h_._4/attn/c_proj/Reshape_1/shape/1", "op": "Const", "attr": {"dtype": {"type": "DT_INT32"}, "value": {"tensor": {"dtype": "DT_INT32", "tensorShape": {}}}}}, {"name": "StatefulPartitionedCall/tfgp_t2lm_head_model/transformer/h_._4/attn/c_proj/Reshape_1/shape/2", "op": "Const", "attr": {"dtype": {"type": "DT_INT32"}, "value": {"tensor": {"dtype": "DT_INT32", "tensorShape": {}}}}}, {"name": "StatefulPartitionedCall/tfgp_t2lm_head_model/transformer/h_._4/ln_2/moments/mean/reduction_indices", "op": "Const", "attr": {"value": {"tensor": {"dtype": "DT_INT32", "tensorShape": {"dim": [{"size": "1"}]}}}, "dtype": {"type": "DT_INT32"}}}, {"name": "StatefulPartitionedCall/tfgp_t2lm_head_model/transformer/h_._4/ln_2/moments/variance/reduction_indices", "op": "Const", "attr": {"value": {"tensor": {"dtype": "DT_INT32", "tensorShape": {"dim": [{"size": "1"}]}}}, "dtype": {"type": "DT_INT32"}}}, {"name": "StatefulPartitionedCall/tfgp_t2lm_head_model/transformer/h_._4/ln_2/batchnorm/add/y", "op": "Const", "attr": {"dtype": {"type": "DT_FLOAT"}, "value": {"tensor": {"dtype": "DT_FLOAT", "tensorShape": {}}}}}, {"name": "unknown_55", "op": "Const", "attr": {"dtype": {"type": "DT_FLOAT"}, "value": {"tensor": {"dtype": "DT_FLOAT", "tensorShape": {"dim": [{"size": "768"}]}}}}}, {"name": "StatefulPartitionedCall/tfgp_t2lm_head_model/transformer/h_._4/mlp/c_fc/strided_slice/stack", "op": "Const", "attr": {"value": {"tensor": {"dtype": "DT_INT32", "tensorShape": {"dim": [{"size": "1"}]}}}, "dtype": {"type": "DT_INT32"}}}, {"name": "StatefulPartitionedCall/tfgp_t2lm_head_model/transformer/h_._4/mlp/c_fc/strided_slice/stack_1", "op": "Const", "attr": {"dtype": {"type": "DT_INT32"}, "value": {"tensor": {"dtype": "DT_INT32", "tensorShape": {"dim": [{"size": "1"}]}}}}}, {"name": "StatefulPartitionedCall/tfgp_t2lm_head_model/transformer/h_._4/mlp/c_fc/strided_slice/stack_2", "op": "Const", "attr": {"dtype": {"type": "DT_INT32"}, "value": {"tensor": {"dtype": "DT_INT32", "tensorShape": {"dim": [{"size": "1"}]}}}}}, {"name": "StatefulPartitionedCall/tfgp_t2lm_head_model/transformer/h_._4/mlp/c_fc/Reshape_1/shape/1", "op": "Const", "attr": {"value": {"tensor": {"dtype": "DT_INT32", "tensorShape": {}}}, "dtype": {"type": "DT_INT32"}}}, {"name": "StatefulPartitionedCall/tfgp_t2lm_head_model/transformer/h_._4/mlp/c_fc/Reshape_1/shape/2", "op": "Const", "attr": {"value": {"tensor": {"dtype": "DT_INT32", "tensorShape": {}}}, "dtype": {"type": "DT_INT32"}}}, {"name": "StatefulPartitionedCall/tfgp_t2lm_head_model/transformer/h_._4/mlp/Pow/y", "op": "Const", "attr": {"dtype": {"type": "DT_FLOAT"}, "value": {"tensor": {"dtype": "DT_FLOAT", "tensorShape": {}}}}}, {"name": "StatefulPartitionedCall/tfgp_t2lm_head_model/transformer/h_._4/mlp/c_proj/strided_slice/stack", "op": "Const", "attr": {"value": {"tensor": {"dtype": "DT_INT32", "tensorShape": {"dim": [{"size": "1"}]}}}, "dtype": {"type": "DT_INT32"}}}, {"name": "StatefulPartitionedCall/tfgp_t2lm_head_model/transformer/h_._4/mlp/c_proj/strided_slice/stack_1", "op": "Const", "attr": {"value": {"tensor": {"dtype": "DT_INT32", "tensorShape": {"dim": [{"size": "1"}]}}}, "dtype": {"type": "DT_INT32"}}}, {"name": "StatefulPartitionedCall/tfgp_t2lm_head_model/transformer/h_._4/mlp/c_proj/strided_slice/stack_2", "op": "Const", "attr": {"value": {"tensor": {"dtype": "DT_INT32", "tensorShape": {"dim": [{"size": "1"}]}}}, "dtype": {"type": "DT_INT32"}}}, {"name": "StatefulPartitionedCall/tfgp_t2lm_head_model/transformer/h_._4/mlp/c_proj/Reshape_1/shape/1", "op": "Const", "attr": {"dtype": {"type": "DT_INT32"}, "value": {"tensor": {"dtype": "DT_INT32", "tensorShape": {}}}}}, {"name": "StatefulPartitionedCall/tfgp_t2lm_head_model/transformer/h_._4/mlp/c_proj/Reshape_1/shape/2", "op": "Const", "attr": {"value": {"tensor": {"dtype": "DT_INT32", "tensorShape": {}}}, "dtype": {"type": "DT_INT32"}}}, {"name": "StatefulPartitionedCall/tfgp_t2lm_head_model/transformer/h_._5/ln_1/moments/mean/reduction_indices", "op": "Const", "attr": {"value": {"tensor": {"dtype": "DT_INT32", "tensorShape": {"dim": [{"size": "1"}]}}}, "dtype": {"type": "DT_INT32"}}}, {"name": "StatefulPartitionedCall/tfgp_t2lm_head_model/transformer/h_._5/ln_1/moments/variance/reduction_indices", "op": "Const", "attr": {"value": {"tensor": {"dtype": "DT_INT32", "tensorShape": {"dim": [{"size": "1"}]}}}, "dtype": {"type": "DT_INT32"}}}, {"name": "StatefulPartitionedCall/tfgp_t2lm_head_model/transformer/h_._5/ln_1/batchnorm/add/y", "op": "Const", "attr": {"dtype": {"type": "DT_FLOAT"}, "value": {"tensor": {"dtype": "DT_FLOAT", "tensorShape": {}}}}}, {"name": "unknown_61", "op": "Const", "attr": {"dtype": {"type": "DT_FLOAT"}, "value": {"tensor": {"dtype": "DT_FLOAT", "tensorShape": {"dim": [{"size": "768"}]}}}}}, {"name": "StatefulPartitionedCall/tfgp_t2lm_head_model/transformer/h_._5/attn/c_attn/strided_slice/stack", "op": "Const", "attr": {"dtype": {"type": "DT_INT32"}, "value": {"tensor": {"dtype": "DT_INT32", "tensorShape": {"dim": [{"size": "1"}]}}}}}, {"name": "StatefulPartitionedCall/tfgp_t2lm_head_model/transformer/h_._5/attn/c_attn/strided_slice/stack_1", "op": "Const", "attr": {"dtype": {"type": "DT_INT32"}, "value": {"tensor": {"dtype": "DT_INT32", "tensorShape": {"dim": [{"size": "1"}]}}}}}, {"name": "StatefulPartitionedCall/tfgp_t2lm_head_model/transformer/h_._5/attn/c_attn/strided_slice/stack_2", "op": "Const", "attr": {"value": {"tensor": {"dtype": "DT_INT32", "tensorShape": {"dim": [{"size": "1"}]}}}, "dtype": {"type": "DT_INT32"}}}, {"name": "StatefulPartitionedCall/tfgp_t2lm_head_model/transformer/h_._5/attn/c_attn/Reshape_1/shape/1", "op": "Const", "attr": {"dtype": {"type": "DT_INT32"}, "value": {"tensor": {"dtype": "DT_INT32", "tensorShape": {}}}}}, {"name": "StatefulPartitionedCall/tfgp_t2lm_head_model/transformer/h_._5/attn/c_attn/Reshape_1/shape/2", "op": "Const", "attr": {"value": {"tensor": {"dtype": "DT_INT32", "tensorShape": {}}}, "dtype": {"type": "DT_INT32"}}}, {"name": "StatefulPartitionedCall/tfgp_t2lm_head_model/transformer/h_._5/attn/strided_slice_2/stack", "op": "Const", "attr": {"dtype": {"type": "DT_INT32"}, "value": {"tensor": {"dtype": "DT_INT32", "tensorShape": {"dim": [{"size": "1"}]}}}}}, {"name": "StatefulPartitionedCall/tfgp_t2lm_head_model/transformer/h_._5/attn/strided_slice_2/stack_1", "op": "Const", "attr": {"dtype": {"type": "DT_INT32"}, "value": {"tensor": {"dtype": "DT_INT32", "tensorShape": {"dim": [{"size": "1"}]}}}}}, {"name": "StatefulPartitionedCall/tfgp_t2lm_head_model/transformer/h_._5/attn/strided_slice_2/stack_2", "op": "Const", "attr": {"dtype": {"type": "DT_INT32"}, "value": {"tensor": {"dtype": "DT_INT32", "tensorShape": {"dim": [{"size": "1"}]}}}}}, {"name": "StatefulPartitionedCall/tfgp_t2lm_head_model/transformer/h_._5/attn/Reshape_2/shape/1", "op": "Const", "attr": {"value": {"tensor": {"dtype": "DT_INT32", "tensorShape": {}}}, "dtype": {"type": "DT_INT32"}}}, {"name": "StatefulPartitionedCall/tfgp_t2lm_head_model/transformer/h_._5/attn/Reshape_2/shape/2", "op": "Const", "attr": {"dtype": {"type": "DT_INT32"}, "value": {"tensor": {"dtype": "DT_INT32", "tensorShape": {}}}}}, {"name": "StatefulPartitionedCall/tfgp_t2lm_head_model/transformer/h_._5/attn/Reshape_2/shape/3", "op": "Const", "attr": {"dtype": {"type": "DT_INT32"}, "value": {"tensor": {"dtype": "DT_INT32", "tensorShape": {}}}}}, {"name": "StatefulPartitionedCall/tfgp_t2lm_head_model/transformer/h_._5/attn/transpose_2/perm", "op": "Const", "attr": {"value": {"tensor": {"dtype": "DT_INT32", "tensorShape": {"dim": [{"size": "4"}]}}}, "dtype": {"type": "DT_INT32"}}}, {"name": "input_ids", "op": "Placeholder", "attr": {"shape": {"shape": {"dim": [{"size": "-1"}, {"size": "5"}]}}, "dtype": {"type": "DT_INT32"}}}, {"name": "StatefulPartitionedCall/tfgp_t2lm_head_model/transformer/Reshape", "op": "Reshape", "input": ["input_ids", "StatefulPartitionedCall/tfgp_t2lm_head_model/transformer/Reshape/shape"], "attr": {"Tshape": {"type": "DT_INT32"}, "T": {"type": "DT_INT32"}}}, {"name": "StatefulPartitionedCall/tfgp_t2lm_head_model/transformer/wte/Gather", "op": "GatherV2", "input": ["unknown", "StatefulPartitionedCall/tfgp_t2lm_head_model/transformer/Reshape", "StatefulPartitionedCall/tfgp_t2lm_head_model/transformer/wte/Gather/axis"], "attr": {"batch_dims": {"i": "0"}, "Tindices": {"type": "DT_INT32"}, "Tparams": {"type": "DT_FLOAT"}, "Taxis": {"type": "DT_INT32"}}}, {"name": "StatefulPartitionedCall/tfgp_t2lm_head_model/transformer/add", "op": "AddV2", "input": ["StatefulPartitionedCall/tfgp_t2lm_head_model/transformer/wte/Gather", "StatefulPartitionedCall/tfgp_t2lm_head_model/transformer/Gather"], "attr": {"T": {"type": "DT_FLOAT"}}}, {"name": "StatefulPartitionedCall/tfgp_t2lm_head_model/transformer/h_._0/ln_1/moments/mean", "op": "Mean", "input": ["StatefulPartitionedCall/tfgp_t2lm_head_model/transformer/add", "StatefulPartitionedCall/tfgp_t2lm_head_model/transformer/h_._0/ln_1/moments/mean/reduction_indices"], "attr": {"Tidx": {"type": "DT_INT32"}, "keep_dims": {"b": true}, "T": {"type": "DT_FLOAT"}}}, {"name": "StatefulPartitionedCall/tfgp_t2lm_head_model/transformer/h_._0/ln_1/moments/SquaredDifference", "op": "SquaredDifference", "input": ["StatefulPartitionedCall/tfgp_t2lm_head_model/transformer/add", "StatefulPartitionedCall/tfgp_t2lm_head_model/transformer/h_._0/ln_1/moments/mean"], "attr": {"T": {"type": "DT_FLOAT"}}}, {"name": "StatefulPartitionedCall/tfgp_t2lm_head_model/transformer/h_._0/ln_1/moments/variance", "op": "Mean", "input": ["StatefulPartitionedCall/tfgp_t2lm_head_model/transformer/h_._0/ln_1/moments/SquaredDifference", "StatefulPartitionedCall/tfgp_t2lm_head_model/transformer/h_._0/ln_1/moments/variance/reduction_indices"], "attr": {"Tidx": {"type": "DT_INT32"}, "keep_dims": {"b": true}, "T": {"type": "DT_FLOAT"}}}, {"name": "StatefulPartitionedCall/tfgp_t2lm_head_model/transformer/h_._0/ln_1/batchnorm/add", "op": "AddV2", "input": ["StatefulPartitionedCall/tfgp_t2lm_head_model/transformer/h_._0/ln_1/moments/variance", "StatefulPartitionedCall/tfgp_t2lm_head_model/transformer/h_._0/ln_1/batchnorm/add/y"], "attr": {"T": {"type": "DT_FLOAT"}}}, {"name": "StatefulPartitionedCall/tfgp_t2lm_head_model/transformer/h_._0/ln_1/batchnorm/Rsqrt", "op": "Rsqrt", "input": ["StatefulPartitionedCall/tfgp_t2lm_head_model/transformer/h_._0/ln_1/batchnorm/add"], "attr": {"T": {"type": "DT_FLOAT"}}}, {"name": "StatefulPartitionedCall/tfgp_t2lm_head_model/transformer/h_._0/ln_1/batchnorm/mul", "op": "Mul", "input": ["StatefulPartitionedCall/tfgp_t2lm_head_model/transformer/h_._0/ln_1/batchnorm/Rsqrt", "unknown_1"], "attr": {"T": {"type": "DT_FLOAT"}}}, {"name": "StatefulPartitionedCall/tfgp_t2lm_head_model/transformer/h_._0/ln_1/batchnorm/mul_2", "op": "Mul", "input": ["StatefulPartitionedCall/tfgp_t2lm_head_model/transformer/h_._0/ln_1/moments/mean", "StatefulPartitionedCall/tfgp_t2lm_head_model/transformer/h_._0/ln_1/batchnorm/mul"], "attr": {"T": {"type": "DT_FLOAT"}}}, {"name": "StatefulPartitionedCall/tfgp_t2lm_head_model/transformer/h_._0/ln_1/batchnorm/mul_1", "op": "Mul", "input": ["StatefulPartitionedCall/tfgp_t2lm_head_model/transformer/add", "StatefulPartitionedCall/tfgp_t2lm_head_model/transformer/h_._0/ln_1/batchnorm/mul"], "attr": {"T": {"type": "DT_FLOAT"}}}, {"name": "StatefulPartitionedCall/tfgp_t2lm_head_model/transformer/h_._0/ln_1/batchnorm/sub", "op": "Sub", "input": ["unknown_2", "StatefulPartitionedCall/tfgp_t2lm_head_model/transformer/h_._0/ln_1/batchnorm/mul_2"], "attr": {"T": {"type": "DT_FLOAT"}}}, {"name": "StatefulPartitionedCall/tfgp_t2lm_head_model/transformer/h_._0/ln_1/batchnorm/add_1", "op": "AddV2", "input": ["StatefulPartitionedCall/tfgp_t2lm_head_model/transformer/h_._0/ln_1/batchnorm/mul_1", "StatefulPartitionedCall/tfgp_t2lm_head_model/transformer/h_._0/ln_1/batchnorm/sub"], "attr": {"T": {"type": "DT_FLOAT"}}}, {"name": "StatefulPartitionedCall/tfgp_t2lm_head_model/transformer/h_._0/attn/c_attn/Reshape", "op": "Reshape", "input": ["StatefulPartitionedCall/tfgp_t2lm_head_model/transformer/h_._0/ln_1/batchnorm/add_1", "StatefulPartitionedCall/tfgp_t2lm_head_model/transformer/h_._0/attn/c_attn/Reshape/shape"], "attr": {"Tshape": {"type": "DT_INT32"}, "T": {"type": "DT_FLOAT"}}}, {"name": "StatefulPartitionedCall/tfgp_t2lm_head_model/transformer/h_._0/attn/c_attn/Shape", "op": "Shape", "input": ["StatefulPartitionedCall/tfgp_t2lm_head_model/transformer/h_._0/ln_1/batchnorm/add_1"], "attr": {"T": {"type": "DT_FLOAT"}, "out_type": {"type": "DT_INT32"}}}, {"name": "StatefulPartitionedCall/tfgp_t2lm_head_model/transformer/h_._0/attn/c_attn/MatMul", "op": "MatMul", "input": ["StatefulPartitionedCall/tfgp_t2lm_head_model/transformer/h_._0/attn/c_attn/Reshape", "unknown_3"], "device": "/device:CPU:0", "attr": {"T": {"type": "DT_FLOAT"}, "transpose_a": {"b": false}, "transpose_b": {"b": false}}}, {"name": "StatefulPartitionedCall/tfgp_t2lm_head_model/transformer/h_._0/attn/c_attn/strided_slice", "op": "StridedSlice", "input": ["StatefulPartitionedCall/tfgp_t2lm_head_model/transformer/h_._0/attn/c_attn/Shape", "StatefulPartitionedCall/tfgp_t2lm_head_model/transformer/h_._0/attn/c_attn/strided_slice/stack", "StatefulPartitionedCall/tfgp_t2lm_head_model/transformer/h_._0/attn/c_attn/strided_slice/stack_1", "StatefulPartitionedCall/tfgp_t2lm_head_model/transformer/h_._0/attn/c_attn/strided_slice/stack_2"], "attr": {"ellipsis_mask": {"i": "0"}, "end_mask": {"i": "0"}, "begin_mask": {"i": "0"}, "T": {"type": "DT_INT32"}, "Index": {"type": "DT_INT32"}, "shrink_axis_mask": {"i": "1"}, "new_axis_mask": {"i": "0"}}}, {"name": "StatefulPartitionedCall/tfgp_t2lm_head_model/transformer/h_._0/attn/c_attn/add", "op": "AddV2", "input": ["StatefulPartitionedCall/tfgp_t2lm_head_model/transformer/h_._0/attn/c_attn/MatMul", "unknown_4"], "attr": {"T": {"type": "DT_FLOAT"}}}, {"name": "StatefulPartitionedCall/tfgp_t2lm_head_model/transformer/h_._0/attn/c_attn/Reshape_1/shape", "op": "Pack", "input": ["StatefulPartitionedCall/tfgp_t2lm_head_model/transformer/h_._0/attn/c_attn/strided_slice", "StatefulPartitionedCall/tfgp_t2lm_head_model/transformer/h_._0/attn/c_attn/Reshape_1/shape/1", "StatefulPartitionedCall/tfgp_t2lm_head_model/transformer/h_._0/attn/c_attn/Reshape_1/shape/2"], "attr": {"axis": {"i": "0"}, "T": {"type": "DT_INT32"}, "N": {"i": "3"}}}, {"name": "StatefulPartitionedCall/tfgp_t2lm_head_model/transformer/h_._0/attn/c_attn/Reshape_1", "op": "Reshape", "input": ["StatefulPartitionedCall/tfgp_t2lm_head_model/transformer/h_._0/attn/c_attn/add", "StatefulPartitionedCall/tfgp_t2lm_head_model/transformer/h_._0/attn/c_attn/Reshape_1/shape"], "attr": {"T": {"type": "DT_FLOAT"}, "Tshape": {"type": "DT_INT32"}}}, {"name": "StatefulPartitionedCall/tfgp_t2lm_head_model/transformer/h_._0/attn/split", "op": "Split", "input": ["StatefulPartitionedCall/tfgp_t2lm_head_model/transformer/h_._0/attn/split/split_dim", "StatefulPartitionedCall/tfgp_t2lm_head_model/transformer/h_._0/attn/c_attn/Reshape_1"], "attr": {"num_split": {"i": "3"}, "T": {"type": "DT_FLOAT"}}}, {"name": "StatefulPartitionedCall/tfgp_t2lm_head_model/transformer/h_._0/attn/Shape", "op": "Shape", "input": ["StatefulPartitionedCall/tfgp_t2lm_head_model/transformer/h_._0/attn/split"], "attr": {"out_type": {"type": "DT_INT32"}, "T": {"type": "DT_FLOAT"}}}, {"name": "StatefulPartitionedCall/tfgp_t2lm_head_model/transformer/h_._0/attn/Shape_1", "op": "Shape", "input": ["StatefulPartitionedCall/tfgp_t2lm_head_model/transformer/h_._0/attn/split:1"], "attr": {"out_type": {"type": "DT_INT32"}, "T": {"type": "DT_FLOAT"}}}, {"name": "StatefulPartitionedCall/tfgp_t2lm_head_model/transformer/h_._0/attn/Shape_2", "op": "Shape", "input": ["StatefulPartitionedCall/tfgp_t2lm_head_model/transformer/h_._0/attn/split:2"], "attr": {"T": {"type": "DT_FLOAT"}, "out_type": {"type": "DT_INT32"}}}, {"name": "StatefulPartitionedCall/tfgp_t2lm_head_model/transformer/h_._0/attn/strided_slice", "op": "StridedSlice", "input": ["StatefulPartitionedCall/tfgp_t2lm_head_model/transformer/h_._0/attn/Shape", "StatefulPartitionedCall/tfgp_t2lm_head_model/transformer/h_._0/attn/strided_slice/stack", "StatefulPartitionedCall/tfgp_t2lm_head_model/transformer/h_._0/attn/strided_slice/stack_1", "StatefulPartitionedCall/tfgp_t2lm_head_model/transformer/h_._0/attn/strided_slice/stack_2"], "attr": {"new_axis_mask": {"i": "0"}, "ellipsis_mask": {"i": "0"}, "begin_mask": {"i": "0"}, "Index": {"type": "DT_INT32"}, "shrink_axis_mask": {"i": "1"}, "end_mask": {"i": "0"}, "T": {"type": "DT_INT32"}}}, {"name": "StatefulPartitionedCall/tfgp_t2lm_head_model/transformer/h_._0/attn/strided_slice_1", "op": "StridedSlice", "input": ["StatefulPartitionedCall/tfgp_t2lm_head_model/transformer/h_._0/attn/Shape_1", "StatefulPartitionedCall/tfgp_t2lm_head_model/transformer/h_._0/attn/strided_slice_1/stack", "StatefulPartitionedCall/tfgp_t2lm_head_model/transformer/h_._0/attn/strided_slice_1/stack_1", "StatefulPartitionedCall/tfgp_t2lm_head_model/transformer/h_._0/attn/strided_slice_1/stack_2"], "attr": {"ellipsis_mask": {"i": "0"}, "end_mask": {"i": "0"}, "Index": {"type": "DT_INT32"}, "shrink_axis_mask": {"i": "1"}, "T": {"type": "DT_INT32"}, "new_axis_mask": {"i": "0"}, "begin_mask": {"i": "0"}}}, {"name": "StatefulPartitionedCall/tfgp_t2lm_head_model/transformer/h_._0/attn/strided_slice_2", "op": "StridedSlice", "input": ["StatefulPartitionedCall/tfgp_t2lm_head_model/transformer/h_._0/attn/Shape_2", "StatefulPartitionedCall/tfgp_t2lm_head_model/transformer/h_._0/attn/strided_slice_2/stack", "StatefulPartitionedCall/tfgp_t2lm_head_model/transformer/h_._0/attn/strided_slice_2/stack_1", "StatefulPartitionedCall/tfgp_t2lm_head_model/transformer/h_._0/attn/strided_slice_2/stack_2"], "attr": {"shrink_axis_mask": {"i": "1"}, "new_axis_mask": {"i": "0"}, "begin_mask": {"i": "0"}, "ellipsis_mask": {"i": "0"}, "Index": {"type": "DT_INT32"}, "end_mask": {"i": "0"}, "T": {"type": "DT_INT32"}}}, {"name": "StatefulPartitionedCall/tfgp_t2lm_head_model/transformer/h_._0/attn/Reshape/shape", "op": "Pack", "input": ["StatefulPartitionedCall/tfgp_t2lm_head_model/transformer/h_._0/attn/strided_slice", "StatefulPartitionedCall/tfgp_t2lm_head_model/transformer/h_._0/attn/Reshape/shape/1", "StatefulPartitionedCall/tfgp_t2lm_head_model/transformer/h_._0/attn/Reshape/shape/2", "StatefulPartitionedCall/tfgp_t2lm_head_model/transformer/h_._0/attn/Reshape/shape/3"], "attr": {"T": {"type": "DT_INT32"}, "N": {"i": "4"}, "axis": {"i": "0"}}}, {"name": "StatefulPartitionedCall/tfgp_t2lm_head_model/transformer/h_._0/attn/Reshape_1/shape", "op": "Pack", "input": ["StatefulPartitionedCall/tfgp_t2lm_head_model/transformer/h_._0/attn/strided_slice_1", "StatefulPartitionedCall/tfgp_t2lm_head_model/transformer/h_._0/attn/Reshape_1/shape/1", "StatefulPartitionedCall/tfgp_t2lm_head_model/transformer/h_._0/attn/Reshape_1/shape/2", "StatefulPartitionedCall/tfgp_t2lm_head_model/transformer/h_._0/attn/Reshape_1/shape/3"], "attr": {"axis": {"i": "0"}, "T": {"type": "DT_INT32"}, "N": {"i": "4"}}}, {"name": "StatefulPartitionedCall/tfgp_t2lm_head_model/transformer/h_._0/attn/Reshape_2/shape", "op": "Pack", "input": ["StatefulPartitionedCall/tfgp_t2lm_head_model/transformer/h_._0/attn/strided_slice_2", "StatefulPartitionedCall/tfgp_t2lm_head_model/transformer/h_._0/attn/Reshape_2/shape/1", "StatefulPartitionedCall/tfgp_t2lm_head_model/transformer/h_._0/attn/Reshape_2/shape/2", "StatefulPartitionedCall/tfgp_t2lm_head_model/transformer/h_._0/attn/Reshape_2/shape/3"], "attr": {"T": {"type": "DT_INT32"}, "N": {"i": "4"}, "axis": {"i": "0"}}}, {"name": "StatefulPartitionedCall/tfgp_t2lm_head_model/transformer/h_._0/attn/Reshape", "op": "Reshape", "input": ["StatefulPartitionedCall/tfgp_t2lm_head_model/transformer/h_._0/attn/split", "StatefulPartitionedCall/tfgp_t2lm_head_model/transformer/h_._0/attn/Reshape/shape"], "attr": {"Tshape": {"type": "DT_INT32"}, "T": {"type": "DT_FLOAT"}}}, {"name": "StatefulPartitionedCall/tfgp_t2lm_head_model/transformer/h_._0/attn/Reshape_1", "op": "Reshape", "input": ["StatefulPartitionedCall/tfgp_t2lm_head_model/transformer/h_._0/attn/split:1", "StatefulPartitionedCall/tfgp_t2lm_head_model/transformer/h_._0/attn/Reshape_1/shape"], "attr": {"T": {"type": "DT_FLOAT"}, "Tshape": {"type": "DT_INT32"}}}, {"name": "StatefulPartitionedCall/tfgp_t2lm_head_model/transformer/h_._0/attn/Reshape_2", "op": "Reshape", "input": ["StatefulPartitionedCall/tfgp_t2lm_head_model/transformer/h_._0/attn/split:2", "StatefulPartitionedCall/tfgp_t2lm_head_model/transformer/h_._0/attn/Reshape_2/shape"], "attr": {"Tshape": {"type": "DT_INT32"}, "T": {"type": "DT_FLOAT"}}}, {"name": "StatefulPartitionedCall/tfgp_t2lm_head_model/transformer/h_._0/attn/transpose", "op": "Transpose", "input": ["StatefulPartitionedCall/tfgp_t2lm_head_model/transformer/h_._0/attn/Reshape", "StatefulPartitionedCall/tfgp_t2lm_head_model/transformer/h_._0/attn/transpose/perm"], "attr": {"Tperm": {"type": "DT_INT32"}, "T": {"type": "DT_FLOAT"}}}, {"name": "StatefulPartitionedCall/tfgp_t2lm_head_model/transformer/h_._0/attn/transpose_1", "op": "Transpose", "input": ["StatefulPartitionedCall/tfgp_t2lm_head_model/transformer/h_._0/attn/Reshape_1", "StatefulPartitionedCall/tfgp_t2lm_head_model/transformer/h_._0/attn/transpose_1/perm"], "attr": {"Tperm": {"type": "DT_INT32"}, "T": {"type": "DT_FLOAT"}}}, {"name": "StatefulPartitionedCall/tfgp_t2lm_head_model/transformer/h_._0/attn/transpose_2", "op": "Transpose", "input": ["StatefulPartitionedCall/tfgp_t2lm_head_model/transformer/h_._0/attn/Reshape_2", "StatefulPartitionedCall/tfgp_t2lm_head_model/transformer/h_._0/attn/transpose_2/perm"], "attr": {"T": {"type": "DT_FLOAT"}, "Tperm": {"type": "DT_INT32"}}}, {"name": "StatefulPartitionedCall/tfgp_t2lm_head_model/transformer/h_._0/attn/MatMul", "op": "BatchMatMulV2", "input": ["StatefulPartitionedCall/tfgp_t2lm_head_model/transformer/h_._0/attn/transpose", "StatefulPartitionedCall/tfgp_t2lm_head_model/transformer/h_._0/attn/transpose_1"], "attr": {"T": {"type": "DT_FLOAT"}, "adj_y": {"b": true}, "adj_x": {"b": false}}}, {"name": "StatefulPartitionedCall/tfgp_t2lm_head_model/transformer/h_._0/attn/stack", "op": "Pack", "input": ["StatefulPartitionedCall/tfgp_t2lm_head_model/transformer/h_._0/attn/transpose_1", "StatefulPartitionedCall/tfgp_t2lm_head_model/transformer/h_._0/attn/transpose_2"], "attr": {"N": {"i": "2"}, "axis": {"i": "0"}, "T": {"type": "DT_FLOAT"}}}, {"name": "StatefulPartitionedCall/tfgp_t2lm_head_model/transformer/h_._0/attn/mul", "op": "Mul", "input": ["StatefulPartitionedCall/tfgp_t2lm_head_model/transformer/h_._0/attn/MatMul", "StatefulPartitionedCall/tfgp_t2lm_head_model/transformer/h_._0/attn/truediv"], "attr": {"T": {"type": "DT_FLOAT"}}}, {"name": "Identity_1", "op": "Identity", "input": ["StatefulPartitionedCall/tfgp_t2lm_head_model/transformer/h_._0/attn/stack"], "attr": {"T": {"type": "DT_FLOAT"}}}, {"name": "StatefulPartitionedCall/tfgp_t2lm_head_model/transformer/h_._0/attn/sub_2", "op": "Sub", "input": ["StatefulPartitionedCall/tfgp_t2lm_head_model/transformer/h_._0/attn/mul", "StatefulPartitionedCall/tfgp_t2lm_head_model/transformer/h_._0/attn/mul_1"], "attr": {"T": {"type": "DT_FLOAT"}}}, {"name": "StatefulPartitionedCall/tfgp_t2lm_head_model/transformer/h_._0/attn/Softmax", "op": "Softmax", "input": ["StatefulPartitionedCall/tfgp_t2lm_head_model/transformer/h_._0/attn/sub_2"], "attr": {"T": {"type": "DT_FLOAT"}}}, {"name": "StatefulPartitionedCall/tfgp_t2lm_head_model/transformer/h_._0/attn/MatMul_1", "op": "BatchMatMulV2", "input": ["StatefulPartitionedCall/tfgp_t2lm_head_model/transformer/h_._0/attn/Softmax", "StatefulPartitionedCall/tfgp_t2lm_head_model/transformer/h_._0/attn/transpose_2"], "attr": {"T": {"type": "DT_FLOAT"}, "adj_x": {"b": false}, "adj_y": {"b": false}}}, {"name": "StatefulPartitionedCall/tfgp_t2lm_head_model/transformer/h_._0/attn/transpose_3", "op": "Transpose", "input": ["StatefulPartitionedCall/tfgp_t2lm_head_model/transformer/h_._0/attn/MatMul_1", "StatefulPartitionedCall/tfgp_t2lm_head_model/transformer/h_._0/attn/transpose_3/perm"], "attr": {"T": {"type": "DT_FLOAT"}, "Tperm": {"type": "DT_INT32"}}}, {"name": "StatefulPartitionedCall/tfgp_t2lm_head_model/transformer/h_._0/attn/c_proj/Reshape", "op": "Reshape", "input": ["StatefulPartitionedCall/tfgp_t2lm_head_model/transformer/h_._0/attn/transpose_3", "StatefulPartitionedCall/tfgp_t2lm_head_model/transformer/h_._0/attn/c_proj/Reshape/shape"], "attr": {"Tshape": {"type": "DT_INT32"}, "T": {"type": "DT_FLOAT"}}}, {"name": "StatefulPartitionedCall/tfgp_t2lm_head_model/transformer/h_._0/attn/Shape_5", "op": "Shape", "input": ["StatefulPartitionedCall/tfgp_t2lm_head_model/transformer/h_._0/attn/transpose_3"], "attr": {"out_type": {"type": "DT_INT32"}, "T": {"type": "DT_FLOAT"}}}, {"name": "StatefulPartitionedCall/tfgp_t2lm_head_model/transformer/h_._0/attn/c_proj/MatMul", "op": "MatMul", "input": ["StatefulPartitionedCall/tfgp_t2lm_head_model/transformer/h_._0/attn/c_proj/Reshape", "unknown_5"], "device": "/device:CPU:0", "attr": {"transpose_b": {"b": false}, "transpose_a": {"b": false}, "T": {"type": "DT_FLOAT"}}}, {"name": "StatefulPartitionedCall/tfgp_t2lm_head_model/transformer/h_._0/attn/strided_slice_6", "op": "StridedSlice", "input": ["StatefulPartitionedCall/tfgp_t2lm_head_model/transformer/h_._0/attn/Shape_5", "StatefulPartitionedCall/tfgp_t2lm_head_model/transformer/h_._0/attn/strided_slice_6/stack", "StatefulPartitionedCall/tfgp_t2lm_head_model/transformer/h_._0/attn/strided_slice_6/stack_1", "StatefulPartitionedCall/tfgp_t2lm_head_model/transformer/h_._0/attn/strided_slice_6/stack_2"], "attr": {"ellipsis_mask": {"i": "0"}, "begin_mask": {"i": "0"}, "Index": {"type": "DT_INT32"}, "end_mask": {"i": "0"}, "T": {"type": "DT_INT32"}, "new_axis_mask": {"i": "0"}, "shrink_axis_mask": {"i": "1"}}}, {"name": "StatefulPartitionedCall/tfgp_t2lm_head_model/transformer/h_._0/attn/c_proj/add", "op": "AddV2", "input": ["StatefulPartitionedCall/tfgp_t2lm_head_model/transformer/h_._0/attn/c_proj/MatMul", "unknown_6"], "attr": {"T": {"type": "DT_FLOAT"}}}, {"name": "StatefulPartitionedCall/tfgp_t2lm_head_model/transformer/h_._0/attn/Reshape_4/shape", "op": "Pack", "input": ["StatefulPartitionedCall/tfgp_t2lm_head_model/transformer/h_._0/attn/strided_slice_6", "StatefulPartitionedCall/tfgp_t2lm_head_model/transformer/h_._0/attn/Reshape_4/shape/1", "StatefulPartitionedCall/tfgp_t2lm_head_model/transformer/h_._0/attn/Reshape_4/shape/2"], "attr": {"N": {"i": "3"}, "T": {"type": "DT_INT32"}, "axis": {"i": "0"}}}, {"name": "StatefulPartitionedCall/tfgp_t2lm_head_model/transformer/h_._0/attn/Reshape_4", "op": "Reshape", "input": ["StatefulPartitionedCall/tfgp_t2lm_head_model/transformer/h_._0/attn/transpose_3", "StatefulPartitionedCall/tfgp_t2lm_head_model/transformer/h_._0/attn/Reshape_4/shape"], "attr": {"T": {"type": "DT_FLOAT"}, "Tshape": {"type": "DT_INT32"}}}, {"name": "StatefulPartitionedCall/tfgp_t2lm_head_model/transformer/h_._0/attn/c_proj/Shape", "op": "Shape", "input": ["StatefulPartitionedCall/tfgp_t2lm_head_model/transformer/h_._0/attn/Reshape_4"], "attr": {"out_type": {"type": "DT_INT32"}, "T": {"type": "DT_FLOAT"}}}, {"name": "StatefulPartitionedCall/tfgp_t2lm_head_model/transformer/h_._0/attn/c_proj/strided_slice", "op": "StridedSlice", "input": ["StatefulPartitionedCall/tfgp_t2lm_head_model/transformer/h_._0/attn/c_proj/Shape", "StatefulPartitionedCall/tfgp_t2lm_head_model/transformer/h_._0/attn/c_proj/strided_slice/stack", "StatefulPartitionedCall/tfgp_t2lm_head_model/transformer/h_._0/attn/c_proj/strided_slice/stack_1", "StatefulPartitionedCall/tfgp_t2lm_head_model/transformer/h_._0/attn/c_proj/strided_slice/stack_2"], "attr": {"T": {"type": "DT_INT32"}, "begin_mask": {"i": "0"}, "ellipsis_mask": {"i": "0"}, "shrink_axis_mask": {"i": "1"}, "Index": {"type": "DT_INT32"}, "end_mask": {"i": "0"}, "new_axis_mask": {"i": "0"}}}, {"name": "StatefulPartitionedCall/tfgp_t2lm_head_model/transformer/h_._0/attn/c_proj/Reshape_1/shape", "op": "Pack", "input": ["StatefulPartitionedCall/tfgp_t2lm_head_model/transformer/h_._0/attn/c_proj/strided_slice", "StatefulPartitionedCall/tfgp_t2lm_head_model/transformer/h_._0/attn/c_proj/Reshape_1/shape/1", "StatefulPartitionedCall/tfgp_t2lm_head_model/transformer/h_._0/attn/c_proj/Reshape_1/shape/2"], "attr": {"N": {"i": "3"}, "T": {"type": "DT_INT32"}, "axis": {"i": "0"}}}, {"name": "StatefulPartitionedCall/tfgp_t2lm_head_model/transformer/h_._0/attn/c_proj/Reshape_1", "op": "Reshape", "input": ["StatefulPartitionedCall/tfgp_t2lm_head_model/transformer/h_._0/attn/c_proj/add", "StatefulPartitionedCall/tfgp_t2lm_head_model/transformer/h_._0/attn/c_proj/Reshape_1/shape"], "attr": {"Tshape": {"type": "DT_INT32"}, "T": {"type": "DT_FLOAT"}}}, {"name": "StatefulPartitionedCall/tfgp_t2lm_head_model/transformer/h_._0/add", "op": "AddV2", "input": ["StatefulPartitionedCall/tfgp_t2lm_head_model/transformer/add", "StatefulPartitionedCall/tfgp_t2lm_head_model/transformer/h_._0/attn/c_proj/Reshape_1"], "attr": {"T": {"type": "DT_FLOAT"}}}, {"name": "StatefulPartitionedCall/tfgp_t2lm_head_model/transformer/h_._0/ln_2/moments/mean", "op": "Mean", "input": ["StatefulPartitionedCall/tfgp_t2lm_head_model/transformer/h_._0/add", "StatefulPartitionedCall/tfgp_t2lm_head_model/transformer/h_._0/ln_2/moments/mean/reduction_indices"], "attr": {"keep_dims": {"b": true}, "Tidx": {"type": "DT_INT32"}, "T": {"type": "DT_FLOAT"}}}, {"name": "StatefulPartitionedCall/tfgp_t2lm_head_model/transformer/h_._0/ln_2/moments/SquaredDifference", "op": "SquaredDifference", "input": ["StatefulPartitionedCall/tfgp_t2lm_head_model/transformer/h_._0/add", "StatefulPartitionedCall/tfgp_t2lm_head_model/transformer/h_._0/ln_2/moments/mean"], "attr": {"T": {"type": "DT_FLOAT"}}}, {"name": "StatefulPartitionedCall/tfgp_t2lm_head_model/transformer/h_._0/ln_2/moments/variance", "op": "Mean", "input": ["StatefulPartitionedCall/tfgp_t2lm_head_model/transformer/h_._0/ln_2/moments/SquaredDifference", "StatefulPartitionedCall/tfgp_t2lm_head_model/transformer/h_._0/ln_2/moments/variance/reduction_indices"], "attr": {"T": {"type": "DT_FLOAT"}, "Tidx": {"type": "DT_INT32"}, "keep_dims": {"b": true}}}, {"name": "StatefulPartitionedCall/tfgp_t2lm_head_model/transformer/h_._0/ln_2/batchnorm/add", "op": "AddV2", "input": ["StatefulPartitionedCall/tfgp_t2lm_head_model/transformer/h_._0/ln_2/moments/variance", "StatefulPartitionedCall/tfgp_t2lm_head_model/transformer/h_._0/ln_2/batchnorm/add/y"], "attr": {"T": {"type": "DT_FLOAT"}}}, {"name": "StatefulPartitionedCall/tfgp_t2lm_head_model/transformer/h_._0/ln_2/batchnorm/Rsqrt", "op": "Rsqrt", "input": ["StatefulPartitionedCall/tfgp_t2lm_head_model/transformer/h_._0/ln_2/batchnorm/add"], "attr": {"T": {"type": "DT_FLOAT"}}}, {"name": "StatefulPartitionedCall/tfgp_t2lm_head_model/transformer/h_._0/ln_2/batchnorm/mul", "op": "Mul", "input": ["StatefulPartitionedCall/tfgp_t2lm_head_model/transformer/h_._0/ln_2/batchnorm/Rsqrt", "unknown_7"], "attr": {"T": {"type": "DT_FLOAT"}}}, {"name": "StatefulPartitionedCall/tfgp_t2lm_head_model/transformer/h_._0/ln_2/batchnorm/mul_2", "op": "Mul", "input": ["StatefulPartitionedCall/tfgp_t2lm_head_model/transformer/h_._0/ln_2/moments/mean", "StatefulPartitionedCall/tfgp_t2lm_head_model/transformer/h_._0/ln_2/batchnorm/mul"], "attr": {"T": {"type": "DT_FLOAT"}}}, {"name": "StatefulPartitionedCall/tfgp_t2lm_head_model/transformer/h_._0/ln_2/batchnorm/mul_1", "op": "Mul", "input": ["StatefulPartitionedCall/tfgp_t2lm_head_model/transformer/h_._0/add", "StatefulPartitionedCall/tfgp_t2lm_head_model/transformer/h_._0/ln_2/batchnorm/mul"], "attr": {"T": {"type": "DT_FLOAT"}}}, {"name": "StatefulPartitionedCall/tfgp_t2lm_head_model/transformer/h_._0/ln_2/batchnorm/sub", "op": "Sub", "input": ["unknown_8", "StatefulPartitionedCall/tfgp_t2lm_head_model/transformer/h_._0/ln_2/batchnorm/mul_2"], "attr": {"T": {"type": "DT_FLOAT"}}}, {"name": "StatefulPartitionedCall/tfgp_t2lm_head_model/transformer/h_._0/ln_2/batchnorm/add_1", "op": "AddV2", "input": ["StatefulPartitionedCall/tfgp_t2lm_head_model/transformer/h_._0/ln_2/batchnorm/mul_1", "StatefulPartitionedCall/tfgp_t2lm_head_model/transformer/h_._0/ln_2/batchnorm/sub"], "attr": {"T": {"type": "DT_FLOAT"}}}, {"name": "StatefulPartitionedCall/tfgp_t2lm_head_model/transformer/h_._0/mlp/c_fc/Reshape", "op": "Reshape", "input": ["StatefulPartitionedCall/tfgp_t2lm_head_model/transformer/h_._0/ln_2/batchnorm/add_1", "StatefulPartitionedCall/tfgp_t2lm_head_model/transformer/h_._0/mlp/c_fc/Reshape/shape"], "attr": {"T": {"type": "DT_FLOAT"}, "Tshape": {"type": "DT_INT32"}}}, {"name": "StatefulPartitionedCall/tfgp_t2lm_head_model/transformer/h_._0/mlp/c_fc/Shape", "op": "Shape", "input": ["StatefulPartitionedCall/tfgp_t2lm_head_model/transformer/h_._0/ln_2/batchnorm/add_1"], "attr": {"out_type": {"type": "DT_INT32"}, "T": {"type": "DT_FLOAT"}}}, {"name": "StatefulPartitionedCall/tfgp_t2lm_head_model/transformer/h_._0/mlp/c_fc/MatMul", "op": "MatMul", "input": ["StatefulPartitionedCall/tfgp_t2lm_head_model/transformer/h_._0/mlp/c_fc/Reshape", "unknown_9"], "device": "/device:CPU:0", "attr": {"transpose_a": {"b": false}, "T": {"type": "DT_FLOAT"}, "transpose_b": {"b": false}}}, {"name": "StatefulPartitionedCall/tfgp_t2lm_head_model/transformer/h_._0/mlp/c_fc/strided_slice", "op": "StridedSlice", "input": ["StatefulPartitionedCall/tfgp_t2lm_head_model/transformer/h_._0/mlp/c_fc/Shape", "StatefulPartitionedCall/tfgp_t2lm_head_model/transformer/h_._0/mlp/c_fc/strided_slice/stack", "StatefulPartitionedCall/tfgp_t2lm_head_model/transformer/h_._0/mlp/c_fc/strided_slice/stack_1", "StatefulPartitionedCall/tfgp_t2lm_head_model/transformer/h_._0/mlp/c_fc/strided_slice/stack_2"], "attr": {"new_axis_mask": {"i": "0"}, "shrink_axis_mask": {"i": "1"}, "Index": {"type": "DT_INT32"}, "end_mask": {"i": "0"}, "T": {"type": "DT_INT32"}, "ellipsis_mask": {"i": "0"}, "begin_mask": {"i": "0"}}}, {"name": "StatefulPartitionedCall/tfgp_t2lm_head_model/transformer/h_._0/mlp/c_fc/add", "op": "AddV2", "input": ["StatefulPartitionedCall/tfgp_t2lm_head_model/transformer/h_._0/mlp/c_fc/MatMul", "unknown_10"], "attr": {"T": {"type": "DT_FLOAT"}}}, {"name": "StatefulPartitionedCall/tfgp_t2lm_head_model/transformer/h_._0/mlp/c_fc/Reshape_1/shape", "op": "Pack", "input": ["StatefulPartitionedCall/tfgp_t2lm_head_model/transformer/h_._0/mlp/c_fc/strided_slice", "StatefulPartitionedCall/tfgp_t2lm_head_model/transformer/h_._0/mlp/c_fc/Reshape_1/shape/1", "StatefulPartitionedCall/tfgp_t2lm_head_model/transformer/h_._0/mlp/c_fc/Reshape_1/shape/2"], "attr": {"N": {"i": "3"}, "T": {"type": "DT_INT32"}, "axis": {"i": "0"}}}, {"name": "StatefulPartitionedCall/tfgp_t2lm_head_model/transformer/h_._0/mlp/c_fc/Reshape_1", "op": "Reshape", "input": ["StatefulPartitionedCall/tfgp_t2lm_head_model/transformer/h_._0/mlp/c_fc/add", "StatefulPartitionedCall/tfgp_t2lm_head_model/transformer/h_._0/mlp/c_fc/Reshape_1/shape"], "attr": {"T": {"type": "DT_FLOAT"}, "Tshape": {"type": "DT_INT32"}}}, {"name": "StatefulPartitionedCall/tfgp_t2lm_head_model/transformer/h_._0/mlp/mul_2", "op": "Mul", "input": ["StatefulPartitionedCall/tfgp_t2lm_head_model/transformer/h_._0/mlp/mul_2/x", "StatefulPartitionedCall/tfgp_t2lm_head_model/transformer/h_._0/mlp/c_fc/Reshape_1"], "attr": {"T": {"type": "DT_FLOAT"}, "_grappler_ArithmeticOptimizer_MinimizeBroadcasts": {"b": true}}}, {"name": "StatefulPartitionedCall/tfgp_t2lm_head_model/transformer/h_._0/mlp/Pow", "op": "Pow", "input": ["StatefulPartitionedCall/tfgp_t2lm_head_model/transformer/h_._0/mlp/c_fc/Reshape_1", "StatefulPartitionedCall/tfgp_t2lm_head_model/transformer/h_._0/mlp/Pow/y"], "attr": {"T": {"type": "DT_FLOAT"}}}, {"name": "StatefulPartitionedCall/tfgp_t2lm_head_model/transformer/h_._0/mlp/mul", "op": "Mul", "input": ["StatefulPartitionedCall/tfgp_t2lm_head_model/transformer/h_._0/mlp/Cast_1/x", "StatefulPartitionedCall/tfgp_t2lm_head_model/transformer/h_._0/mlp/Pow"], "attr": {"T": {"type": "DT_FLOAT"}}}, {"name": "StatefulPartitionedCall/tfgp_t2lm_head_model/transformer/h_._0/mlp/add", "op": "AddV2", "input": ["StatefulPartitionedCall/tfgp_t2lm_head_model/transformer/h_._0/mlp/c_fc/Reshape_1", "StatefulPartitionedCall/tfgp_t2lm_head_model/transformer/h_._0/mlp/mul"], "attr": {"T": {"type": "DT_FLOAT"}}}, {"name": "StatefulPartitionedCall/tfgp_t2lm_head_model/transformer/h_._0/mlp/mul_1", "op": "Mul", "input": ["StatefulPartitionedCall/tfgp_t2lm_head_model/transformer/h_._0/mlp/Sqrt", "StatefulPartitionedCall/tfgp_t2lm_head_model/transformer/h_._0/mlp/add"], "attr": {"T": {"type": "DT_FLOAT"}}}, {"name": "StatefulPartitionedCall/tfgp_t2lm_head_model/transformer/h_._0/mlp/Tanh", "op": "Tanh", "input": ["StatefulPartitionedCall/tfgp_t2lm_head_model/transformer/h_._0/mlp/mul_1"], "attr": {"T": {"type": "DT_FLOAT"}}}, {"name": "StatefulPartitionedCall/tfgp_t2lm_head_model/transformer/h_._0/mlp/add_1", "op": "AddV2", "input": ["StatefulPartitionedCall/tfgp_t2lm_head_model/transformer/h_._0/mlp/add_1/x", "StatefulPartitionedCall/tfgp_t2lm_head_model/transformer/h_._0/mlp/Tanh"], "attr": {"T": {"type": "DT_FLOAT"}}}, {"name": "StatefulPartitionedCall/tfgp_t2lm_head_model/transformer/h_._0/mlp/mul_3", "op": "Mul", "input": ["StatefulPartitionedCall/tfgp_t2lm_head_model/transformer/h_._0/mlp/mul_2", "StatefulPartitionedCall/tfgp_t2lm_head_model/transformer/h_._0/mlp/add_1"], "attr": {"T": {"type": "DT_FLOAT"}, "_grappler_ArithmeticOptimizer_MinimizeBroadcasts": {"b": true}}}, {"name": "StatefulPartitionedCall/tfgp_t2lm_head_model/transformer/h_._0/mlp/c_proj/Reshape", "op": "Reshape", "input": ["StatefulPartitionedCall/tfgp_t2lm_head_model/transformer/h_._0/mlp/mul_3", "StatefulPartitionedCall/tfgp_t2lm_head_model/transformer/h_._0/mlp/c_proj/Reshape/shape"], "attr": {"Tshape": {"type": "DT_INT32"}, "T": {"type": "DT_FLOAT"}}}, {"name": "StatefulPartitionedCall/tfgp_t2lm_head_model/transformer/h_._0/mlp/c_proj/Shape", "op": "Shape", "input": ["StatefulPartitionedCall/tfgp_t2lm_head_model/transformer/h_._0/mlp/mul_3"], "attr": {"T": {"type": "DT_FLOAT"}, "out_type": {"type": "DT_INT32"}}}, {"name": "StatefulPartitionedCall/tfgp_t2lm_head_model/transformer/h_._0/mlp/c_proj/MatMul", "op": "MatMul", "input": ["StatefulPartitionedCall/tfgp_t2lm_head_model/transformer/h_._0/mlp/c_proj/Reshape", "unknown_11"], "device": "/device:CPU:0", "attr": {"transpose_a": {"b": false}, "transpose_b": {"b": false}, "T": {"type": "DT_FLOAT"}}}, {"name": "StatefulPartitionedCall/tfgp_t2lm_head_model/transformer/h_._0/mlp/c_proj/strided_slice", "op": "StridedSlice", "input": ["StatefulPartitionedCall/tfgp_t2lm_head_model/transformer/h_._0/mlp/c_proj/Shape", "StatefulPartitionedCall/tfgp_t2lm_head_model/transformer/h_._0/mlp/c_proj/strided_slice/stack", "StatefulPartitionedCall/tfgp_t2lm_head_model/transformer/h_._0/mlp/c_proj/strided_slice/stack_1", "StatefulPartitionedCall/tfgp_t2lm_head_model/transformer/h_._0/mlp/c_proj/strided_slice/stack_2"], "attr": {"Index": {"type": "DT_INT32"}, "ellipsis_mask": {"i": "0"}, "end_mask": {"i": "0"}, "T": {"type": "DT_INT32"}, "begin_mask": {"i": "0"}, "shrink_axis_mask": {"i": "1"}, "new_axis_mask": {"i": "0"}}}, {"name": "StatefulPartitionedCall/tfgp_t2lm_head_model/transformer/h_._0/mlp/c_proj/add", "op": "AddV2", "input": ["StatefulPartitionedCall/tfgp_t2lm_head_model/transformer/h_._0/mlp/c_proj/MatMul", "unknown_12"], "attr": {"T": {"type": "DT_FLOAT"}}}, {"name": "StatefulPartitionedCall/tfgp_t2lm_head_model/transformer/h_._0/mlp/c_proj/Reshape_1/shape", "op": "Pack", "input": ["StatefulPartitionedCall/tfgp_t2lm_head_model/transformer/h_._0/mlp/c_proj/strided_slice", "StatefulPartitionedCall/tfgp_t2lm_head_model/transformer/h_._0/mlp/c_proj/Reshape_1/shape/1", "StatefulPartitionedCall/tfgp_t2lm_head_model/transformer/h_._0/mlp/c_proj/Reshape_1/shape/2"], "attr": {"T": {"type": "DT_INT32"}, "N": {"i": "3"}, "axis": {"i": "0"}}}, {"name": "StatefulPartitionedCall/tfgp_t2lm_head_model/transformer/h_._0/mlp/c_proj/Reshape_1", "op": "Reshape", "input": ["StatefulPartitionedCall/tfgp_t2lm_head_model/transformer/h_._0/mlp/c_proj/add", "StatefulPartitionedCall/tfgp_t2lm_head_model/transformer/h_._0/mlp/c_proj/Reshape_1/shape"], "attr": {"Tshape": {"type": "DT_INT32"}, "T": {"type": "DT_FLOAT"}}}, {"name": "StatefulPartitionedCall/tfgp_t2lm_head_model/transformer/h_._0/add_1", "op": "AddV2", "input": ["StatefulPartitionedCall/tfgp_t2lm_head_model/transformer/h_._0/add", "StatefulPartitionedCall/tfgp_t2lm_head_model/transformer/h_._0/mlp/c_proj/Reshape_1"], "attr": {"T": {"type": "DT_FLOAT"}}}, {"name": "StatefulPartitionedCall/tfgp_t2lm_head_model/transformer/h_._1/ln_1/moments/mean", "op": "Mean", "input": ["StatefulPartitionedCall/tfgp_t2lm_head_model/transformer/h_._0/add_1", "StatefulPartitionedCall/tfgp_t2lm_head_model/transformer/h_._1/ln_1/moments/mean/reduction_indices"], "attr": {"Tidx": {"type": "DT_INT32"}, "keep_dims": {"b": true}, "T": {"type": "DT_FLOAT"}}}, {"name": "StatefulPartitionedCall/tfgp_t2lm_head_model/transformer/h_._1/ln_1/moments/SquaredDifference", "op": "SquaredDifference", "input": ["StatefulPartitionedCall/tfgp_t2lm_head_model/transformer/h_._0/add_1", "StatefulPartitionedCall/tfgp_t2lm_head_model/transformer/h_._1/ln_1/moments/mean"], "attr": {"T": {"type": "DT_FLOAT"}}}, {"name": "StatefulPartitionedCall/tfgp_t2lm_head_model/transformer/h_._1/ln_1/moments/variance", "op": "Mean", "input": ["StatefulPartitionedCall/tfgp_t2lm_head_model/transformer/h_._1/ln_1/moments/SquaredDifference", "StatefulPartitionedCall/tfgp_t2lm_head_model/transformer/h_._1/ln_1/moments/variance/reduction_indices"], "attr": {"T": {"type": "DT_FLOAT"}, "Tidx": {"type": "DT_INT32"}, "keep_dims": {"b": true}}}, {"name": "StatefulPartitionedCall/tfgp_t2lm_head_model/transformer/h_._1/ln_1/batchnorm/add", "op": "AddV2", "input": ["StatefulPartitionedCall/tfgp_t2lm_head_model/transformer/h_._1/ln_1/moments/variance", "StatefulPartitionedCall/tfgp_t2lm_head_model/transformer/h_._1/ln_1/batchnorm/add/y"], "attr": {"T": {"type": "DT_FLOAT"}}}, {"name": "StatefulPartitionedCall/tfgp_t2lm_head_model/transformer/h_._1/ln_1/batchnorm/Rsqrt", "op": "Rsqrt", "input": ["StatefulPartitionedCall/tfgp_t2lm_head_model/transformer/h_._1/ln_1/batchnorm/add"], "attr": {"T": {"type": "DT_FLOAT"}}}, {"name": "StatefulPartitionedCall/tfgp_t2lm_head_model/transformer/h_._1/ln_1/batchnorm/mul", "op": "Mul", "input": ["StatefulPartitionedCall/tfgp_t2lm_head_model/transformer/h_._1/ln_1/batchnorm/Rsqrt", "unknown_13"], "attr": {"T": {"type": "DT_FLOAT"}}}, {"name": "StatefulPartitionedCall/tfgp_t2lm_head_model/transformer/h_._1/ln_1/batchnorm/mul_2", "op": "Mul", "input": ["StatefulPartitionedCall/tfgp_t2lm_head_model/transformer/h_._1/ln_1/moments/mean", "StatefulPartitionedCall/tfgp_t2lm_head_model/transformer/h_._1/ln_1/batchnorm/mul"], "attr": {"T": {"type": "DT_FLOAT"}}}, {"name": "StatefulPartitionedCall/tfgp_t2lm_head_model/transformer/h_._1/ln_1/batchnorm/mul_1", "op": "Mul", "input": ["StatefulPartitionedCall/tfgp_t2lm_head_model/transformer/h_._0/add_1", "StatefulPartitionedCall/tfgp_t2lm_head_model/transformer/h_._1/ln_1/batchnorm/mul"], "attr": {"T": {"type": "DT_FLOAT"}}}, {"name": "StatefulPartitionedCall/tfgp_t2lm_head_model/transformer/h_._1/ln_1/batchnorm/sub", "op": "Sub", "input": ["unknown_14", "StatefulPartitionedCall/tfgp_t2lm_head_model/transformer/h_._1/ln_1/batchnorm/mul_2"], "attr": {"T": {"type": "DT_FLOAT"}}}, {"name": "StatefulPartitionedCall/tfgp_t2lm_head_model/transformer/h_._1/ln_1/batchnorm/add_1", "op": "AddV2", "input": ["StatefulPartitionedCall/tfgp_t2lm_head_model/transformer/h_._1/ln_1/batchnorm/mul_1", "StatefulPartitionedCall/tfgp_t2lm_head_model/transformer/h_._1/ln_1/batchnorm/sub"], "attr": {"T": {"type": "DT_FLOAT"}}}, {"name": "StatefulPartitionedCall/tfgp_t2lm_head_model/transformer/h_._1/attn/c_attn/Reshape", "op": "Reshape", "input": ["StatefulPartitionedCall/tfgp_t2lm_head_model/transformer/h_._1/ln_1/batchnorm/add_1", "StatefulPartitionedCall/tfgp_t2lm_head_model/transformer/h_._1/attn/c_attn/Reshape/shape"], "attr": {"Tshape": {"type": "DT_INT32"}, "T": {"type": "DT_FLOAT"}}}, {"name": "StatefulPartitionedCall/tfgp_t2lm_head_model/transformer/h_._1/attn/c_attn/Shape", "op": "Shape", "input": ["StatefulPartitionedCall/tfgp_t2lm_head_model/transformer/h_._1/ln_1/batchnorm/add_1"], "attr": {"out_type": {"type": "DT_INT32"}, "T": {"type": "DT_FLOAT"}}}, {"name": "StatefulPartitionedCall/tfgp_t2lm_head_model/transformer/h_._1/attn/c_attn/MatMul", "op": "MatMul", "input": ["StatefulPartitionedCall/tfgp_t2lm_head_model/transformer/h_._1/attn/c_attn/Reshape", "unknown_15"], "device": "/device:CPU:0", "attr": {"transpose_b": {"b": false}, "T": {"type": "DT_FLOAT"}, "transpose_a": {"b": false}}}, {"name": "StatefulPartitionedCall/tfgp_t2lm_head_model/transformer/h_._1/attn/c_attn/strided_slice", "op": "StridedSlice", "input": ["StatefulPartitionedCall/tfgp_t2lm_head_model/transformer/h_._1/attn/c_attn/Shape", "StatefulPartitionedCall/tfgp_t2lm_head_model/transformer/h_._1/attn/c_attn/strided_slice/stack", "StatefulPartitionedCall/tfgp_t2lm_head_model/transformer/h_._1/attn/c_attn/strided_slice/stack_1", "StatefulPartitionedCall/tfgp_t2lm_head_model/transformer/h_._1/attn/c_attn/strided_slice/stack_2"], "attr": {"begin_mask": {"i": "0"}, "end_mask": {"i": "0"}, "shrink_axis_mask": {"i": "1"}, "new_axis_mask": {"i": "0"}, "Index": {"type": "DT_INT32"}, "T": {"type": "DT_INT32"}, "ellipsis_mask": {"i": "0"}}}, {"name": "StatefulPartitionedCall/tfgp_t2lm_head_model/transformer/h_._1/attn/c_attn/add", "op": "AddV2", "input": ["StatefulPartitionedCall/tfgp_t2lm_head_model/transformer/h_._1/attn/c_attn/MatMul", "unknown_16"], "attr": {"T": {"type": "DT_FLOAT"}}}, {"name": "StatefulPartitionedCall/tfgp_t2lm_head_model/transformer/h_._1/attn/c_attn/Reshape_1/shape", "op": "Pack", "input": ["StatefulPartitionedCall/tfgp_t2lm_head_model/transformer/h_._1/attn/c_attn/strided_slice", "StatefulPartitionedCall/tfgp_t2lm_head_model/transformer/h_._1/attn/c_attn/Reshape_1/shape/1", "StatefulPartitionedCall/tfgp_t2lm_head_model/transformer/h_._1/attn/c_attn/Reshape_1/shape/2"], "attr": {"T": {"type": "DT_INT32"}, "axis": {"i": "0"}, "N": {"i": "3"}}}, {"name": "StatefulPartitionedCall/tfgp_t2lm_head_model/transformer/h_._1/attn/c_attn/Reshape_1", "op": "Reshape", "input": ["StatefulPartitionedCall/tfgp_t2lm_head_model/transformer/h_._1/attn/c_attn/add", "StatefulPartitionedCall/tfgp_t2lm_head_model/transformer/h_._1/attn/c_attn/Reshape_1/shape"], "attr": {"Tshape": {"type": "DT_INT32"}, "T": {"type": "DT_FLOAT"}}}, {"name": "StatefulPartitionedCall/tfgp_t2lm_head_model/transformer/h_._1/attn/split", "op": "Split", "input": ["StatefulPartitionedCall/tfgp_t2lm_head_model/transformer/h_._1/attn/split/split_dim", "StatefulPartitionedCall/tfgp_t2lm_head_model/transformer/h_._1/attn/c_attn/Reshape_1"], "attr": {"T": {"type": "DT_FLOAT"}, "num_split": {"i": "3"}}}, {"name": "StatefulPartitionedCall/tfgp_t2lm_head_model/transformer/h_._1/attn/Shape", "op": "Shape", "input": ["StatefulPartitionedCall/tfgp_t2lm_head_model/transformer/h_._1/attn/split"], "attr": {"out_type": {"type": "DT_INT32"}, "T": {"type": "DT_FLOAT"}}}, {"name": "StatefulPartitionedCall/tfgp_t2lm_head_model/transformer/h_._1/attn/Shape_1", "op": "Shape", "input": ["StatefulPartitionedCall/tfgp_t2lm_head_model/transformer/h_._1/attn/split:1"], "attr": {"out_type": {"type": "DT_INT32"}, "T": {"type": "DT_FLOAT"}}}, {"name": "StatefulPartitionedCall/tfgp_t2lm_head_model/transformer/h_._1/attn/Shape_2", "op": "Shape", "input": ["StatefulPartitionedCall/tfgp_t2lm_head_model/transformer/h_._1/attn/split:2"], "attr": {"T": {"type": "DT_FLOAT"}, "out_type": {"type": "DT_INT32"}}}, {"name": "StatefulPartitionedCall/tfgp_t2lm_head_model/transformer/h_._1/attn/strided_slice", "op": "StridedSlice", "input": ["StatefulPartitionedCall/tfgp_t2lm_head_model/transformer/h_._1/attn/Shape", "StatefulPartitionedCall/tfgp_t2lm_head_model/transformer/h_._1/attn/strided_slice/stack", "StatefulPartitionedCall/tfgp_t2lm_head_model/transformer/h_._1/attn/strided_slice/stack_1", "StatefulPartitionedCall/tfgp_t2lm_head_model/transformer/h_._1/attn/strided_slice/stack_2"], "attr": {"new_axis_mask": {"i": "0"}, "end_mask": {"i": "0"}, "Index": {"type": "DT_INT32"}, "begin_mask": {"i": "0"}, "T": {"type": "DT_INT32"}, "shrink_axis_mask": {"i": "1"}, "ellipsis_mask": {"i": "0"}}}, {"name": "StatefulPartitio…
ype": "float32"}, {"name": "unknown_64", "shape": [1, 2304], "dtype": "float32"}, {"name": "unknown_62", "shape": [768], "dtype": "float32"}, {"name": "StatefulPartitionedCall/tfgp_t2lm_head_model/transformer/h_._4/mlp/c_proj/Reshape/shape", "shape": [2], "dtype": "int32"}, {"name": "unknown_59", "shape": [3072, 768], "dtype": "float32"}, {"name": "unknown_60", "shape": [1, 768], "dtype": "float32"}, {"name": "StatefulPartitionedCall/tfgp_t2lm_head_model/transformer/h_._4/mlp/mul_2/x", "shape": [], "dtype": "float32"}, {"name": "StatefulPartitionedCall/tfgp_t2lm_head_model/transformer/h_._4/mlp/add_1/x", "shape": [], "dtype": "float32"}, {"name": "StatefulPartitionedCall/tfgp_t2lm_head_model/transformer/h_._4/mlp/Sqrt", "shape": [], "dtype": "float32"}, {"name": "StatefulPartitionedCall/tfgp_t2lm_head_model/transformer/h_._4/mlp/Cast_1/x", "shape": [], "dtype": "float32"}, {"name": "StatefulPartitionedCall/tfgp_t2lm_head_model/transformer/h_._4/mlp/c_fc/Reshape/shape", "shape": [2], "dtype": "int32"}, {"name": "unknown_57", "shape": [768, 3072], "dtype": "float32"}, {"name": "unknown_58", "shape": [1, 3072], "dtype": "float32"}, {"name": "unknown_56", "shape": [768], "dtype": "float32"}, {"name": "StatefulPartitionedCall/tfgp_t2lm_head_model/transformer/h_._4/attn/c_proj/Reshape/shape", "shape": [2], "dtype": "int32"}, {"name": "unknown_53", "shape": [768, 768], "dtype": "float32"}, {"name": "unknown_54", "shape": [1, 768], "dtype": "float32"}, {"name": "StatefulPartitionedCall/tfgp_t2lm_head_model/transformer/h_._4/attn/strided_slice/stack", "shape": [1], "dtype": "int32"}, {"name": "StatefulPartitionedCall/tfgp_t2lm_head_model/transformer/h_._4/attn/strided_slice/stack_1", "shape": [1], "dtype": "int32"}, {"name": "StatefulPartitionedCall/tfgp_t2lm_head_model/transformer/h_._4/attn/strided_slice/stack_2", "shape": [1], "dtype": "int32"}, {"name": "StatefulPartitionedCall/tfgp_t2lm_head_model/transformer/h_._4/attn/Reshape/shape/1", "shape": [], "dtype": "int32"}, {"name": "StatefulPartitionedCall/tfgp_t2lm_head_model/transformer/h_._4/attn/Reshape/shape/2", "shape": [], "dtype": "int32"}, {"name": "StatefulPartitionedCall/tfgp_t2lm_head_model/transformer/h_._4/attn/Reshape/shape/3", "shape": [], "dtype": "int32"}, {"name": "StatefulPartitionedCall/tfgp_t2lm_head_model/transformer/h_._4/attn/transpose/perm", "shape": [4], "dtype": "int32"}, {"name": "StatefulPartitionedCall/tfgp_t2lm_head_model/transformer/h_._4/attn/strided_slice_1/stack", "shape": [1], "dtype": "int32"}, {"name": "StatefulPartitionedCall/tfgp_t2lm_head_model/transformer/h_._4/attn/strided_slice_1/stack_1", "shape": [1], "dtype": "int32"}, {"name": "StatefulPartitionedCall/tfgp_t2lm_head_model/transformer/h_._4/attn/strided_slice_1/stack_2", "shape": [1], "dtype": "int32"}, {"name": "StatefulPartitionedCall/tfgp_t2lm_head_model/transformer/h_._4/attn/Reshape_1/shape/1", "shape": [], "dtype": "int32"}, {"name": "StatefulPartitionedCall/tfgp_t2lm_head_model/transformer/h_._4/attn/Reshape_1/shape/2", "shape": [], "dtype": "int32"}, {"name": "StatefulPartitionedCall/tfgp_t2lm_head_model/transformer/h_._4/attn/Reshape_1/shape/3", "shape": [], "dtype": "int32"}, {"name": "StatefulPartitionedCall/tfgp_t2lm_head_model/transformer/h_._4/attn/transpose_1/perm", "shape": [4], "dtype": "int32"}, {"name": "StatefulPartitionedCall/tfgp_t2lm_head_model/transformer/h_._4/attn/truediv", "shape": [1, 1, 5, 5], "dtype": "float32"}, {"name": "StatefulPartitionedCall/tfgp_t2lm_head_model/transformer/h_._4/attn/mul_1", "shape": [1, 1, 5, 5], "dtype": "float32"}, {"name": "StatefulPartitionedCall/tfgp_t2lm_head_model/transformer/h_._4/attn/split/split_dim", "shape": [], "dtype": "int32"}, {"name": "StatefulPartitionedCall/tfgp_t2lm_head_model/transformer/h_._4/attn/c_attn/Reshape/shape", "shape": [2], "dtype": "int32"}, {"name": "unknown_51", "shape": [768, 2304], "dtype": "float32"}, {"name": "unknown_52", "shape": [1, 2304], "dtype": "float32"}, {"name": "unknown_50", "shape": [768], "dtype": "float32"}, {"name": "StatefulPartitionedCall/tfgp_t2lm_head_model/transformer/h_._3/mlp/c_proj/Reshape/shape", "shape": [2], "dtype": "int32"}, {"name": "unknown_47", "shape": [3072, 768], "dtype": "float32"}, {"name": "unknown_48", "shape": [1, 768], "dtype": "float32"}, {"name": "StatefulPartitionedCall/tfgp_t2lm_head_model/transformer/h_._3/mlp/mul_2/x", "shape": [], "dtype": "float32"}, {"name": "StatefulPartitionedCall/tfgp_t2lm_head_model/transformer/h_._3/mlp/add_1/x", "shape": [], "dtype": "float32"}, {"name": "StatefulPartitionedCall/tfgp_t2lm_head_model/transformer/h_._3/mlp/Sqrt", "shape": [], "dtype": "float32"}, {"name": "StatefulPartitionedCall/tfgp_t2lm_head_model/transformer/h_._3/mlp/Cast_1/x", "shape": [], "dtype": "float32"}, {"name": "StatefulPartitionedCall/tfgp_t2lm_head_model/transformer/h_._3/mlp/c_fc/Reshape/shape", "shape": [2], "dtype": "int32"}, {"name": "unknown_45", "shape": [768, 3072], "dtype": "float32"}, {"name": "unknown_46", "shape": [1, 3072], "dtype": "float32"}, {"name": "unknown_44", "shape": [768], "dtype": "float32"}, {"name": "StatefulPartitionedCall/tfgp_t2lm_head_model/transformer/h_._3/attn/c_proj/Reshape/shape", "shape": [2], "dtype": "int32"}, {"name": "unknown_41", "shape": [768, 768], "dtype": "float32"}, {"name": "unknown_42", "shape": [1, 768], "dtype": "float32"}, {"name": "StatefulPartitionedCall/tfgp_t2lm_head_model/transformer/h_._3/attn/strided_slice/stack", "shape": [1], "dtype": "int32"}, {"name": "StatefulPartitionedCall/tfgp_t2lm_head_model/transformer/h_._3/attn/strided_slice/stack_1", "shape": [1], "dtype": "int32"}, {"name": "StatefulPartitionedCall/tfgp_t2lm_head_model/transformer/h_._3/attn/strided_slice/stack_2", "shape": [1], "dtype": "int32"}, {"name": "StatefulPartitionedCall/tfgp_t2lm_head_model/transformer/h_._3/attn/Reshape/shape/1", "shape": [], "dtype": "int32"}, {"name": "StatefulPartitionedCall/tfgp_t2lm_head_model/transformer/h_._3/attn/Reshape/shape/2", "shape": [], "dtype": "int32"}, {"name": "StatefulPartitionedCall/tfgp_t2lm_head_model/transformer/h_._3/attn/Reshape/shape/3", "shape": [], "dtype": "int32"}, {"name": "StatefulPartitionedCall/tfgp_t2lm_head_model/transformer/h_._3/attn/transpose/perm", "shape": [4], "dtype": "int32"}, {"name": "StatefulPartitionedCall/tfgp_t2lm_head_model/transformer/h_._3/attn/strided_slice_1/stack", "shape": [1], "dtype": "int32"}, {"name": "StatefulPartitionedCall/tfgp_t2lm_head_model/transformer/h_._3/attn/strided_slice_1/stack_1", "shape": [1], "dtype": "int32"}, {"name": "StatefulPartitionedCall/tfgp_t2lm_head_model/transformer/h_._3/attn/strided_slice_1/stack_2", "shape": [1], "dtype": "int32"}, {"name": "StatefulPartitionedCall/tfgp_t2lm_head_model/transformer/h_._3/attn/Reshape_1/shape/1", "shape": [], "dtype": "int32"}, {"name": "StatefulPartitionedCall/tfgp_t2lm_head_model/transformer/h_._3/attn/Reshape_1/shape/2", "shape": [], "dtype": "int32"}, {"name": "StatefulPartitionedCall/tfgp_t2lm_head_model/transformer/h_._3/attn/Reshape_1/shape/3", "shape": [], "dtype": "int32"}, {"name": "StatefulPartitionedCall/tfgp_t2lm_head_model/transformer/h_._3/attn/transpose_1/perm", "shape": [4], "dtype": "int32"}, {"name": "StatefulPartitionedCall/tfgp_t2lm_head_model/transformer/h_._3/attn/truediv", "shape": [1, 1, 5, 5], "dtype": "float32"}, {"name": "StatefulPartitionedCall/tfgp_t2lm_head_model/transformer/h_._3/attn/mul_1", "shape": [1, 1, 5, 5], "dtype": "float32"}, {"name": "StatefulPartitionedCall/tfgp_t2lm_head_model/transformer/h_._3/attn/split/split_dim", "shape": [], "dtype": "int32"}, {"name": "StatefulPartitionedCall/tfgp_t2lm_head_model/transformer/h_._3/attn/c_attn/Reshape/shape", "shape": [2], "dtype": "int32"}, {"name": "unknown_39", "shape": [768, 2304], "dtype": "float32"}, {"name": "unknown_40", "shape": [1, 2304], "dtype": "float32"}, {"name": "unknown_38", "shape": [768], "dtype": "float32"}, {"name": "StatefulPartitionedCall/tfgp_t2lm_head_model/transformer/h_._2/mlp/c_proj/Reshape/shape", "shape": [2], "dtype": "int32"}, {"name": "unknown_35", "shape": [3072, 768], "dtype": "float32"}, {"name": "unknown_36", "shape": [1, 768], "dtype": "float32"}, {"name": "StatefulPartitionedCall/tfgp_t2lm_head_model/transformer/h_._2/mlp/mul_2/x", "shape": [], "dtype": "float32"}, {"name": "StatefulPartitionedCall/tfgp_t2lm_head_model/transformer/h_._2/mlp/add_1/x", "shape": [], "dtype": "float32"}, {"name": "StatefulPartitionedCall/tfgp_t2lm_head_model/transformer/h_._2/mlp/Sqrt", "shape": [], "dtype": "float32"}, {"name": "StatefulPartitionedCall/tfgp_t2lm_head_model/transformer/h_._2/mlp/Cast_1/x", "shape": [], "dtype": "float32"}, {"name": "StatefulPartitionedCall/tfgp_t2lm_head_model/transformer/h_._2/mlp/c_fc/Reshape/shape", "shape": [2], "dtype": "int32"}, {"name": "unknown_33", "shape": [768, 3072], "dtype": "float32"}, {"name": "unknown_34", "shape": [1, 3072], "dtype": "float32"}, {"name": "unknown_32", "shape": [768], "dtype": "float32"}, {"name": "StatefulPartitionedCall/tfgp_t2lm_head_model/transformer/h_._2/attn/c_proj/Reshape/shape", "shape": [2], "dtype": "int32"}, {"name": "unknown_29", "shape": [768, 768], "dtype": "float32"}, {"name": "unknown_30", "shape": [1, 768], "dtype": "float32"}, {"name": "StatefulPartitionedCall/tfgp_t2lm_head_model/transformer/h_._2/attn/strided_slice/stack", "shape": [1], "dtype": "int32"}, {"name": "StatefulPartitionedCall/tfgp_t2lm_head_model/transformer/h_._2/attn/strided_slice/stack_1", "shape": [1], "dtype": "int32"}, {"name": "StatefulPartitionedCall/tfgp_t2lm_head_model/transformer/h_._2/attn/strided_slice/stack_2", "shape": [1], "dtype": "int32"}, {"name": "StatefulPartitionedCall/tfgp_t2lm_head_model/transformer/h_._2/attn/Reshape/shape/1", "shape": [], "dtype": "int32"}, {"name": "StatefulPartitionedCall/tfgp_t2lm_head_model/transformer/h_._2/attn/Reshape/shape/2", "shape": [], "dtype": "int32"}, {"name": "StatefulPartitionedCall/tfgp_t2lm_head_model/transformer/h_._2/attn/Reshape/shape/3", "shape": [], "dtype": "int32"}, {"name": "StatefulPartitionedCall/tfgp_t2lm_head_model/transformer/h_._2/attn/transpose/perm", "shape": [4], "dtype": "int32"}, {"name": "StatefulPartitionedCall/tfgp_t2lm_head_model/transformer/h_._2/attn/strided_slice_1/stack", "shape": [1], "dtype": "int32"}, {"name": "StatefulPartitionedCall/tfgp_t2lm_head_model/transformer/h_._2/attn/strided_slice_1/stack_1", "shape": [1], "dtype": "int32"}, {"name": "StatefulPartitionedCall/tfgp_t2lm_head_model/transformer/h_._2/attn/strided_slice_1/stack_2", "shape": [1], "dtype": "int32"}, {"name": "StatefulPartitionedCall/tfgp_t2lm_head_model/transformer/h_._2/attn/Reshape_1/shape/1", "shape": [], "dtype": "int32"}, {"name": "StatefulPartitionedCall/tfgp_t2lm_head_model/transformer/h_._2/attn/Reshape_1/shape/2", "shape": [], "dtype": "int32"}, {"name": "StatefulPartitionedCall/tfgp_t2lm_head_model/transformer/h_._2/attn/Reshape_1/shape/3", "shape": [], "dtype": "int32"}, {"name": "StatefulPartitionedCall/tfgp_t2lm_head_model/transformer/h_._2/attn/transpose_1/perm", "shape": [4], "dtype": "int32"}, {"name": "StatefulPartitionedCall/tfgp_t2lm_head_model/transformer/h_._2/attn/truediv", "shape": [1, 1, 5, 5], "dtype": "float32"}, {"name": "StatefulPartitionedCall/tfgp_t2lm_head_model/transformer/h_._2/attn/mul_1", "shape": [1, 1, 5, 5], "dtype": "float32"}, {"name": "StatefulPartitionedCall/tfgp_t2lm_head_model/transformer/h_._2/attn/split/split_dim", "shape": [], "dtype": "int32"}, {"name": "StatefulPartitionedCall/tfgp_t2lm_head_model/transformer/h_._2/attn/c_attn/Reshape/shape", "shape": [2], "dtype": "int32"}, {"name": "unknown_27", "shape": [768, 2304], "dtype": "float32"}, {"name": "unknown_28", "shape": [1, 2304], "dtype": "float32"}, {"name": "unknown_26", "shape": [768], "dtype": "float32"}, {"name": "StatefulPartitionedCall/tfgp_t2lm_head_model/transformer/h_._1/mlp/c_proj/Reshape/shape", "shape": [2], "dtype": "int32"}, {"name": "unknown_23", "shape": [3072, 768], "dtype": "float32"}, {"name": "unknown_24", "shape": [1, 768], "dtype": "float32"}, {"name": "StatefulPartitionedCall/tfgp_t2lm_head_model/transformer/h_._1/mlp/mul_2/x", "shape": [], "dtype": "float32"}, {"name": "StatefulPartitionedCall/tfgp_t2lm_head_model/transformer/h_._1/mlp/add_1/x", "shape": [], "dtype": "float32"}, {"name": "StatefulPartitionedCall/tfgp_t2lm_head_model/transformer/h_._1/mlp/Sqrt", "shape": [], "dtype": "float32"}, {"name": "StatefulPartitionedCall/tfgp_t2lm_head_model/transformer/h_._1/mlp/Cast_1/x", "shape": [], "dtype": "float32"}, {"name": "StatefulPartitionedCall/tfgp_t2lm_head_model/transformer/h_._1/mlp/c_fc/Reshape/shape", "shape": [2], "dtype": "int32"}, {"name": "unknown_21", "shape": [768, 3072], "dtype": "float32"}, {"name": "unknown_22", "shape": [1, 3072], "dtype": "float32"}, {"name": "unknown_20", "shape": [768], "dtype": "float32"}, {"name": "StatefulPartitionedCall/tfgp_t2lm_head_model/transformer/h_._1/attn/c_proj/Reshape/shape", "shape": [2], "dtype": "int32"}, {"name": "unknown_17", "shape": [768, 768], "dtype": "float32"}, {"name": "unknown_18", "shape": [1, 768], "dtype": "float32"}, {"name": "StatefulPartitionedCall/tfgp_t2lm_head_model/transformer/h_._1/attn/strided_slice/stack", "shape": [1], "dtype": "int32"}, {"name": "StatefulPartitionedCall/tfgp_t2lm_head_model/transformer/h_._1/attn/strided_slice/stack_1", "shape": [1], "dtype": "int32"}, {"name": "StatefulPartitionedCall/tfgp_t2lm_head_model/transformer/h_._1/attn/strided_slice/stack_2", "shape": [1], "dtype": "int32"}, {"name": "StatefulPartitionedCall/tfgp_t2lm_head_model/transformer/h_._1/attn/Reshape/shape/1", "shape": [], "dtype": "int32"}, {"name": "StatefulPartitionedCall/tfgp_t2lm_head_model/transformer/h_._1/attn/Reshape/shape/2", "shape": [], "dtype": "int32"}, {"name": "StatefulPartitionedCall/tfgp_t2lm_head_model/transformer/h_._1/attn/Reshape/shape/3", "shape": [], "dtype": "int32"}, {"name": "StatefulPartitionedCall/tfgp_t2lm_head_model/transformer/h_._1/attn/transpose/perm", "shape": [4], "dtype": "int32"}, {"name": "StatefulPartitionedCall/tfgp_t2lm_head_model/transformer/h_._1/attn/strided_slice_1/stack", "shape": [1], "dtype": "int32"}, {"name": "StatefulPartitionedCall/tfgp_t2lm_head_model/transformer/h_._1/attn/strided_slice_1/stack_1", "shape": [1], "dtype": "int32"}, {"name": "StatefulPartitionedCall/tfgp_t2lm_head_model/transformer/h_._1/attn/strided_slice_1/stack_2", "shape": [1], "dtype": "int32"}, {"name": "StatefulPartitionedCall/tfgp_t2lm_head_model/transformer/h_._1/attn/Reshape_1/shape/1", "shape": [], "dtype": "int32"}, {"name": "StatefulPartitionedCall/tfgp_t2lm_head_model/transformer/h_._1/attn/Reshape_1/shape/2", "shape": [], "dtype": "int32"}, {"name": "StatefulPartitionedCall/tfgp_t2lm_head_model/transformer/h_._1/attn/Reshape_1/shape/3", "shape": [], "dtype": "int32"}, {"name": "StatefulPartitionedCall/tfgp_t2lm_head_model/transformer/h_._1/attn/transpose_1/perm", "shape": [4], "dtype": "int32"}, {"name": "StatefulPartitionedCall/tfgp_t2lm_head_model/transformer/h_._1/attn/truediv", "shape": [1, 1, 5, 5], "dtype": "float32"}, {"name": "StatefulPartitionedCall/tfgp_t2lm_head_model/transformer/h_._1/attn/mul_1", "shape": [1, 1, 5, 5], "dtype": "float32"}, {"name": "StatefulPartitionedCall/tfgp_t2lm_head_model/transformer/h_._1/attn/split/split_dim", "shape": [], "dtype": "int32"}, {"name": "StatefulPartitionedCall/tfgp_t2lm_head_model/transformer/h_._1/attn/c_attn/Reshape/shape", "shape": [2], "dtype": "int32"}, {"name": "unknown_15", "shape": [768, 2304], "dtype": "float32"}, {"name": "unknown_16", "shape": [1, 2304], "dtype": "float32"}, {"name": "unknown_14", "shape": [768], "dtype": "float32"}, {"name": "StatefulPartitionedCall/tfgp_t2lm_head_model/transformer/h_._0/mlp/c_proj/Reshape/shape", "shape": [2], "dtype": "int32"}, {"name": "unknown_11", "shape": [3072, 768], "dtype": "float32"}, {"name": "unknown_12", "shape": [1, 768], "dtype": "float32"}, {"name": "StatefulPartitionedCall/tfgp_t2lm_head_model/transformer/h_._0/mlp/mul_2/x", "shape": [], "dtype": "float32"}, {"name": "StatefulPartitionedCall/tfgp_t2lm_head_model/transformer/h_._0/mlp/add_1/x", "shape": [], "dtype": "float32"}, {"name": "StatefulPartitionedCall/tfgp_t2lm_head_model/transformer/h_._0/mlp/Sqrt", "shape": [], "dtype": "float32"}, {"name": "StatefulPartitionedCall/tfgp_t2lm_head_model/transformer/h_._0/mlp/Cast_1/x", "shape": [], "dtype": "float32"}, {"name": "StatefulPartitionedCall/tfgp_t2lm_head_model/transformer/h_._0/mlp/c_fc/Reshape/shape", "shape": [2], "dtype": "int32"}, {"name": "unknown_9", "shape": [768, 3072], "dtype": "float32"}, {"name": "unknown_10", "shape": [1, 3072], "dtype": "float32"}, {"name": "unknown_8", "shape": [768], "dtype": "float32"}, {"name": "StatefulPartitionedCall/tfgp_t2lm_head_model/transformer/h_._0/attn/c_proj/Reshape/shape", "shape": [2], "dtype": "int32"}, {"name": "unknown_5", "shape": [768, 768], "dtype": "float32"}, {"name": "unknown_6", "shape": [1, 768], "dtype": "float32"}, {"name": "StatefulPartitionedCall/tfgp_t2lm_head_model/transformer/h_._0/attn/strided_slice/stack", "shape": [1], "dtype": "int32"}, {"name": "StatefulPartitionedCall/tfgp_t2lm_head_model/transformer/h_._0/attn/strided_slice/stack_1", "shape": [1], "dtype": "int32"}, {"name": "StatefulPartitionedCall/tfgp_t2lm_head_model/transformer/h_._0/attn/strided_slice/stack_2", "shape": [1], "dtype": "int32"}, {"name": "StatefulPartitionedCall/tfgp_t2lm_head_model/transformer/h_._0/attn/Reshape/shape/1", "shape": [], "dtype": "int32"}, {"name": "StatefulPartitionedCall/tfgp_t2lm_head_model/transformer/h_._0/attn/Reshape/shape/2", "shape": [], "dtype": "int32"}, {"name": "StatefulPartitionedCall/tfgp_t2lm_head_model/transformer/h_._0/attn/Reshape/shape/3", "shape": [], "dtype": "int32"}, {"name": "StatefulPartitionedCall/tfgp_t2lm_head_model/transformer/h_._0/attn/transpose/perm", "shape": [4], "dtype": "int32"}, {"name": "StatefulPartitionedCall/tfgp_t2lm_head_model/transformer/h_._0/attn/strided_slice_1/stack", "shape": [1], "dtype": "int32"}, {"name": "StatefulPartitionedCall/tfgp_t2lm_head_model/transformer/h_._0/attn/strided_slice_1/stack_1", "shape": [1], "dtype": "int32"}, {"name": "StatefulPartitionedCall/tfgp_t2lm_head_model/transformer/h_._0/attn/strided_slice_1/stack_2", "shape": [1], "dtype": "int32"}, {"name": "StatefulPartitionedCall/tfgp_t2lm_head_model/transformer/h_._0/attn/Reshape_1/shape/1", "shape": [], "dtype": "int32"}, {"name": "StatefulPartitionedCall/tfgp_t2lm_head_model/transformer/h_._0/attn/Reshape_1/shape/2", "shape": [], "dtype": "int32"}, {"name": "StatefulPartitionedCall/tfgp_t2lm_head_model/transformer/h_._0/attn/Reshape_1/shape/3", "shape": [], "dtype": "int32"}, {"name": "StatefulPartitionedCall/tfgp_t2lm_head_model/transformer/h_._0/attn/transpose_1/perm", "shape": [4], "dtype": "int32"}, {"name": "StatefulPartitionedCall/tfgp_t2lm_head_model/transformer/h_._0/attn/truediv", "shape": [1, 1, 5, 5], "dtype": "float32"}, {"name": "StatefulPartitionedCall/tfgp_t2lm_head_model/transformer/h_._0/attn/mul_1", "shape": [1, 1, 5, 5], "dtype": "float32"}, {"name": "StatefulPartitionedCall/tfgp_t2lm_head_model/transformer/h_._0/attn/split/split_dim", "shape": [], "dtype": "int32"}, {"name": "StatefulPartitionedCall/tfgp_t2lm_head_model/transformer/h_._0/attn/c_attn/Reshape/shape", "shape": [2], "dtype": "int32"}, {"name": "unknown_3", "shape": [768, 2304], "dtype": "float32"}, {"name": "unknown_4", "shape": [1, 2304], "dtype": "float32"}, {"name": "unknown_2", "shape": [768], "dtype": "float32"}, {"name": "unknown", "shape": [50257, 768], "dtype": "float32"}, {"name": "StatefulPartitionedCall/tfgp_t2lm_head_model/transformer/Reshape/shape", "shape": [2], "dtype": "int32"}, {"name": "StatefulPartitionedCall/tfgp_t2lm_head_model/transformer/wte/Gather/axis", "shape": [], "dtype": "int32"}, {"name": "StatefulPartitionedCall/tfgp_t2lm_head_model/transformer/Gather", "shape": [1, 5, 768], "dtype": "float32"}, {"name": "StatefulPartitionedCall/tfgp_t2lm_head_model/transformer/h_._0/ln_1/moments/mean/reduction_indices", "shape": [1], "dtype": "int32"}, {"name": "StatefulPartitionedCall/tfgp_t2lm_head_model/transformer/h_._0/ln_1/moments/variance/reduction_indices", "shape": [1], "dtype": "int32"}, {"name": "StatefulPartitionedCall/tfgp_t2lm_head_model/transformer/h_._0/ln_1/batchnorm/add/y", "shape": [], "dtype": "float32"}, {"name": "unknown_1", "shape": [768], "dtype": "float32"}, {"name": "StatefulPartitionedCall/tfgp_t2lm_head_model/transformer/h_._0/attn/c_attn/strided_slice/stack", "shape": [1], "dtype": "int32"}, {"name": "StatefulPartitionedCall/tfgp_t2lm_head_model/transformer/h_._0/attn/c_attn/strided_slice/stack_1", "shape": [1], "dtype": "int32"}, {"name": "StatefulPartitionedCall/tfgp_t2lm_head_model/transformer/h_._0/attn/c_attn/strided_slice/stack_2", "shape": [1], "dtype": "int32"}, {"name": "StatefulPartitionedCall/tfgp_t2lm_head_model/transformer/h_._0/attn/c_attn/Reshape_1/shape/1", "shape": [], "dtype": "int32"}, {"name": "StatefulPartitionedCall/tfgp_t2lm_head_model/transformer/h_._0/attn/c_attn/Reshape_1/shape/2", "shape": [], "dtype": "int32"}, {"name": "StatefulPartitionedCall/tfgp_t2lm_head_model/transformer/h_._0/attn/strided_slice_2/stack", "shape": [1], "dtype": "int32"}, {"name": "StatefulPartitionedCall/tfgp_t2lm_head_model/transformer/h_._0/attn/strided_slice_2/stack_1", "shape": [1], "dtype": "int32"}, {"name": "StatefulPartitionedCall/tfgp_t2lm_head_model/transformer/h_._0/attn/strided_slice_2/stack_2", "shape": [1], "dtype": "int32"}, {"name": "StatefulPartitionedCall/tfgp_t2lm_head_model/transformer/h_._0/attn/Reshape_2/shape/1", "shape": [], "dtype": "int32"}, {"name": "StatefulPartitionedCall/tfgp_t2lm_head_model/transformer/h_._0/attn/Reshape_2/shape/2", "shape": [], "dtype": "int32"}, {"name": "StatefulPartitionedCall/tfgp_t2lm_head_model/transformer/h_._0/attn/Reshape_2/shape/3", "shape": [], "dtype": "int32"}, {"name": "StatefulPartitionedCall/tfgp_t2lm_head_model/transformer/h_._0/attn/transpose_2/perm", "shape": [4], "dtype": "int32"}, {"name": "StatefulPartitionedCall/tfgp_t2lm_head_model/transformer/h_._0/attn/transpose_3/perm", "shape": [4], "dtype": "int32"}, {"name": "StatefulPartitionedCall/tfgp_t2lm_head_model/transformer/h_._0/attn/strided_slice_6/stack", "shape": [1], "dtype": "int32"}, {"name": "StatefulPartitionedCall/tfgp_t2lm_head_model/transformer/h_._0/attn/strided_slice_6/stack_1", "shape": [1], "dtype": "int32"}, {"name": "StatefulPartitionedCall/tfgp_t2lm_head_model/transformer/h_._0/attn/strided_slice_6/stack_2", "shape": [1], "dtype": "int32"}, {"name": "StatefulPartitionedCall/tfgp_t2lm_head_model/transformer/h_._0/attn/Reshape_4/shape/1", "shape": [], "dtype": "int32"}, {"name": "StatefulPartitionedCall/tfgp_t2lm_head_model/transformer/h_._0/attn/Reshape_4/shape/2", "shape": [], "dtype": "int32"}, {"name": "StatefulPartitionedCall/tfgp_t2lm_head_model/transformer/h_._0/attn/c_proj/strided_slice/stack", "shape": [1], "dtype": "int32"}, {"name": "StatefulPartitionedCall/tfgp_t2lm_head_model/transformer/h_._0/attn/c_proj/strided_slice/stack_1", "shape": [1], "dtype": "int32"}, {"name": "StatefulPartitionedCall/tfgp_t2lm_head_model/transformer/h_._0/attn/c_proj/strided_slice/stack_2", "shape": [1], "dtype": "int32"}, {"name": "StatefulPartitionedCall/tfgp_t2lm_head_model/transformer/h_._0/attn/c_proj/Reshape_1/shape/1", "shape": [], "dtype": "int32"}, {"name": "StatefulPartitionedCall/tfgp_t2lm_head_model/transformer/h_._0/attn/c_proj/Reshape_1/shape/2", "shape": [], "dtype": "int32"}, {"name": "StatefulPartitionedCall/tfgp_t2lm_head_model/transformer/h_._0/ln_2/moments/mean/reduction_indices", "shape": [1], "dtype": "int32"}, {"name": "StatefulPartitionedCall/tfgp_t2lm_head_model/transformer/h_._0/ln_2/moments/variance/reduction_indices", "shape": [1], "dtype": "int32"}, {"name": "StatefulPartitionedCall/tfgp_t2lm_head_model/transformer/h_._0/ln_2/batchnorm/add/y", "shape": [], "dtype": "float32"}, {"name": "unknown_7", "shape": [768], "dtype": "float32"}, {"name": "StatefulPartitionedCall/tfgp_t2lm_head_model/transformer/h_._0/mlp/c_fc/strided_slice/stack", "shape": [1], "dtype": "int32"}, {"name": "StatefulPartitionedCall/tfgp_t2lm_head_model/transformer/h_._0/mlp/c_fc/strided_slice/stack_1", "shape": [1], "dtype": "int32"}, {"name": "StatefulPartitionedCall/tfgp_t2lm_head_model/transformer/h_._0/mlp/c_fc/strided_slice/stack_2", "shape": [1], "dtype": "int32"}, {"name": "StatefulPartitionedCall/tfgp_t2lm_head_model/transformer/h_._0/mlp/c_fc/Reshape_1/shape/1", "shape": [], "dtype": "int32"}, {"name": "StatefulPartitionedCall/tfgp_t2lm_head_model/transformer/h_._0/mlp/c_fc/Reshape_1/shape/2", "shape": [], "dtype": "int32"}, {"name": "StatefulPartitionedCall/tfgp_t2lm_head_model/transformer/h_._0/mlp/Pow/y", "shape": [], "dtype": "float32"}, {"name": "StatefulPartitionedCall/tfgp_t2lm_head_model/transformer/h_._0/mlp/c_proj/strided_slice/stack", "shape": [1], "dtype": "int32"}, {"name": "StatefulPartitionedCall/tfgp_t2lm_head_model/transformer/h_._0/mlp/c_proj/strided_slice/stack_1", "shape": [1], "dtype": "int32"}, {"name": "StatefulPartitionedCall/tfgp_t2lm_head_model/transformer/h_._0/mlp/c_proj/strided_slice/stack_2", "shape": [1], "dtype": "int32"}, {"name": "StatefulPartitionedCall/tfgp_t2lm_head_model/transformer/h_._0/mlp/c_proj/Reshape_1/shape/1", "shape": [], "dtype": "int32"}, {"name": "StatefulPartitionedCall/tfgp_t2lm_head_model/transformer/h_._0/mlp/c_proj/Reshape_1/shape/2", "shape": [], "dtype": "int32"}, {"name": "StatefulPartitionedCall/tfgp_t2lm_head_model/transformer/h_._1/ln_1/moments/mean/reduction_indices", "shape": [1], "dtype": "int32"}, {"name": "StatefulPartitionedCall/tfgp_t2lm_head_model/transformer/h_._1/ln_1/moments/variance/reduction_indices", "shape": [1], "dtype": "int32"}, {"name": "StatefulPartitionedCall/tfgp_t2lm_head_model/transformer/h_._1/ln_1/batchnorm/add/y", "shape": [], "dtype": "float32"}, {"name": "unknown_13", "shape": [768], "dtype": "float32"}, {"name": "StatefulPartitionedCall/tfgp_t2lm_head_model/transformer/h_._1/attn/c_attn/strided_slice/stack", "shape": [1], "dtype": "int32"}, {"name": "StatefulPartitionedCall/tfgp_t2lm_head_model/transformer/h_._1/attn/c_attn/strided_slice/stack_1", "shape": [1], "dtype": "int32"}, {"name": "StatefulPartitionedCall/tfgp_t2lm_head_model/transformer/h_._1/attn/c_attn/strided_slice/stack_2", "shape": [1], "dtype": "int32"}, {"name": "StatefulPartitionedCall/tfgp_t2lm_head_model/transformer/h_._1/attn/c_attn/Reshape_1/shape/1", "shape": [], "dtype": "int32"}, {"name": "StatefulPartitionedCall/tfgp_t2lm_head_model/transformer/h_._1/attn/c_attn/Reshape_1/shape/2", "shape": [], "dtype": "int32"}, {"name": "StatefulPartitionedCall/tfgp_t2lm_head_model/transformer/h_._1/attn/strided_slice_2/stack", "shape": [1], "dtype": "int32"}, {"name": "StatefulPartitionedCall/tfgp_t2lm_head_model/transformer/h_._1/attn/strided_slice_2/stack_1", "shape": [1], "dtype": "int32"}, {"name": "StatefulPartitionedCall/tfgp_t2lm_head_model/transformer/h_._1/attn/strided_slice_2/stack_2", "shape": [1], "dtype": "int32"}, {"name": "StatefulPartitionedCall/tfgp_t2lm_head_model/transformer/h_._1/attn/Reshape_2/shape/1", "shape": [], "dtype": "int32"}, {"name": "StatefulPartitionedCall/tfgp_t2lm_head_model/transformer/h_._1/attn/Reshape_2/shape/2", "shape": [], "dtype": "int32"}, {"name": "StatefulPartitionedCall/tfgp_t2lm_head_model/transformer/h_._1/attn/Reshape_2/shape/3", "shape": [], "dtype": "int32"}, {"name": "StatefulPartitionedCall/tfgp_t2lm_head_model/transformer/h_._1/attn/transpose_2/perm", "shape": [4], "dtype": "int32"}, {"name": "StatefulPartitionedCall/tfgp_t2lm_head_model/transformer/h_._1/attn/transpose_3/perm", "shape": [4], "dtype": "int32"}, {"name": "StatefulPartitionedCall/tfgp_t2lm_head_model/transformer/h_._1/attn/strided_slice_6/stack", "shape": [1], "dtype": "int32"}, {"name": "StatefulPartitionedCall/tfgp_t2lm_head_model/transformer/h_._1/attn/strided_slice_6/stack_1", "shape": [1], "dtype": "int32"}, {"name": "StatefulPartitionedCall/tfgp_t2lm_head_model/transformer/h_._1/attn/strided_slice_6/stack_2", "shape": [1], "dtype": "int32"}, {"name": "StatefulPartitionedCall/tfgp_t2lm_head_model/transformer/h_._1/attn/Reshape_4/shape/1", "shape": [], "dtype": "int32"}, {"name": "StatefulPartitionedCall/tfgp_t2lm_head_model/transformer/h_._1/attn/Reshape_4/shape/2", "shape": [], "dtype": "int32"}, {"name": "StatefulPartitionedCall/tfgp_t2lm_head_model/transformer/h_._1/attn/c_proj/strided_slice/stack", "shape": [1], "dtype": "int32"}, {"name": "StatefulPartitionedCall/tfgp_t2lm_head_model/transformer/h_._1/attn/c_proj/strided_slice/stack_1", "shape": [1], "dtype": "int32"}, {"name": "StatefulPartitionedCall/tfgp_t2lm_head_model/transformer/h_._1/attn/c_proj/strided_slice/stack_2", "shape": [1], "dtype": "int32"}, {"name": "StatefulPartitionedCall/tfgp_t2lm_head_model/transformer/h_._1/attn/c_proj/Reshape_1/shape/1", "shape": [], "dtype": "int32"}, {"name": "StatefulPartitionedCall/tfgp_t2lm_head_model/transformer/h_._1/attn/c_proj/Reshape_1/shape/2", "shape": [], "dtype": "int32"}, {"name": "StatefulPartitionedCall/tfgp_t2lm_head_model/transformer/h_._1/ln_2/moments/mean/reduction_indices", "shape": [1], "dtype": "int32"}, {"name": "StatefulPartitionedCall/tfgp_t2lm_head_model/transformer/h_._1/ln_2/moments/variance/reduction_indices", "shape": [1], "dtype": "int32"}, {"name": "StatefulPartitionedCall/tfgp_t2lm_head_model/transformer/h_._1/ln_2/batchnorm/add/y", "shape": [], "dtype": "float32"}, {"name": "unknown_19", "shape": [768], "dtype": "float32"}, {"name": "StatefulPartitionedCall/tfgp_t2lm_head_model/transformer/h_._1/mlp/c_fc/strided_slice/stack", "shape": [1], "dtype": "int32"}, {"name": "StatefulPartitionedCall/tfgp_t2lm_head_model/transformer/h_._1/mlp/c_fc/strided_slice/stack_1", "shape": [1], "dtype": "int32"}, {"name": "StatefulPartitionedCall/tfgp_t2lm_head_model/transformer/h_._1/mlp/c_fc/strided_slice/stack_2", "shape": [1], "dtype": "int32"}, {"name": "StatefulPartitionedCall/tfgp_t2lm_head_model/transformer/h_._1/mlp/c_fc/Reshape_1/shape/1", "shape": [], "dtype": "int32"}, {"name": "StatefulPartitionedCall/tfgp_t2lm_head_model/transformer/h_._1/mlp/c_fc/Reshape_1/shape/2", "shape": [], "dtype": "int32"}, {"name": "StatefulPartitionedCall/tfgp_t2lm_head_model/transformer/h_._1/mlp/Pow/y", "shape": [], "dtype": "float32"}, {"name": "StatefulPartitionedCall/tfgp_t2lm_head_model/transformer/h_._1/mlp/c_proj/strided_slice/stack", "shape": [1], "dtype": "int32"}, {"name": "StatefulPartitionedCall/tfgp_t2lm_head_model/transformer/h_._1/mlp/c_proj/strided_slice/stack_1", "shape": [1], "dtype": "int32"}, {"name": "StatefulPartitionedCall/tfgp_t2lm_head_model/transformer/h_._1/mlp/c_proj/strided_slice/stack_2", "shape": [1], "dtype": "int32"}, {"name": "StatefulPartitionedCall/tfgp_t2lm_head_model/transformer/h_._1/mlp/c_proj/Reshape_1/shape/1", "shape": [], "dtype": "int32"}, {"name": "StatefulPartitionedCall/tfgp_t2lm_head_model/transformer/h_._1/mlp/c_proj/Reshape_1/shape/2", "shape": [], "dtype": "int32"}, {"name": "StatefulPartitionedCall/tfgp_t2lm_head_model/transformer/h_._2/ln_1/moments/mean/reduction_indices", "shape": [1], "dtype": "int32"}, {"name": "StatefulPartitionedCall/tfgp_t2lm_head_model/transformer/h_._2/ln_1/moments/variance/reduction_indices", "shape": [1], "dtype": "int32"}, {"name": "StatefulPartitionedCall/tfgp_t2lm_head_model/transformer/h_._2/ln_1/batchnorm/add/y", "shape": [], "dtype": "float32"}, {"name": "unknown_25", "shape": [768], "dtype": "float32"}, {"name": "StatefulPartitionedCall/tfgp_t2lm_head_model/transformer/h_._2/attn/c_attn/strided_slice/stack", "shape": [1], "dtype": "int32"}, {"name": "StatefulPartitionedCall/tfgp_t2lm_head_model/transformer/h_._2/attn/c_attn/strided_slice/stack_1", "shape": [1], "dtype": "int32"}, {"name": "StatefulPartitionedCall/tfgp_t2lm_head_model/transformer/h_._2/attn/c_attn/strided_slice/stack_2", "shape": [1], "dtype": "int32"}, {"name": "StatefulPartitionedCall/tfgp_t2lm_head_model/transformer/h_._2/attn/c_attn/Reshape_1/shape/1", "shape": [], "dtype": "int32"}, {"name": "StatefulPartitionedCall/tfgp_t2lm_head_model/transformer/h_._2/attn/c_attn/Reshape_1/shape/2", "shape": [], "dtype": "int32"}, {"name": "StatefulPartitionedCall/tfgp_t2lm_head_model/transformer/h_._2/attn/strided_slice_2/stack", "shape": [1], "dtype": "int32"}, {"name": "StatefulPartitionedCall/tfgp_t2lm_head_model/transformer/h_._2/attn/strided_slice_2/stack_1", "shape": [1], "dtype": "int32"}, {"name": "StatefulPartitionedCall/tfgp_t2lm_head_model/transformer/h_._2/attn/strided_slice_2/stack_2", "shape": [1], "dtype": "int32"}, {"name": "StatefulPartitionedCall/tfgp_t2lm_head_model/transformer/h_._2/attn/Reshape_2/shape/1", "shape": [], "dtype": "int32"}, {"name": "StatefulPartitionedCall/tfgp_t2lm_head_model/transformer/h_._2/attn/Reshape_2/shape/2", "shape": [], "dtype": "int32"}, {"name": "StatefulPartitionedCall/tfgp_t2lm_head_model/transformer/h_._2/attn/Reshape_2/shape/3", "shape": [], "dtype": "int32"}, {"name": "StatefulPartitionedCall/tfgp_t2lm_head_model/transformer/h_._2/attn/transpose_2/perm", "shape": [4], "dtype": "int32"}, {"name": "StatefulPartitionedCall/tfgp_t2lm_head_model/transformer/h_._2/attn/transpose_3/perm", "shape": [4], "dtype": "int32"}, {"name": "StatefulPartitionedCall/tfgp_t2lm_head_model/transformer/h_._2/attn/strided_slice_6/stack", "shape": [1], "dtype": "int32"}, {"name": "StatefulPartitionedCall/tfgp_t2lm_head_model/transformer/h_._2/attn/strided_slice_6/stack_1", "shape": [1], "dtype": "int32"}, {"name": "StatefulPartitionedCall/tfgp_t2lm_head_model/transformer/h_._2/attn/strided_slice_6/stack_2", "shape": [1], "dtype": "int32"}, {"name": "StatefulPartitionedCall/tfgp_t2lm_head_model/transformer/h_._2/attn/Reshape_4/shape/1", "shape": [], "dtype": "int32"}, {"name": "StatefulPartitionedCall/tfgp_t2lm_head_model/transformer/h_._2/attn/Reshape_4/shape/2", "shape": [], "dtype": "int32"}, {"name": "StatefulPartitionedCall/tfgp_t2lm_head_model/transformer/h_._2/attn/c_proj/strided_slice/stack", "shape": [1], "dtype": "int32"}, {"name": "StatefulPartitionedCall/tfgp_t2lm_head_model/transformer/h_._2/attn/c_proj/strided_slice/stack_1", "shape": [1], "dtype": "int32"}, {"name": "StatefulPartitionedCall/tfgp_t2lm_head_model/transformer/h_._2/attn/c_proj/strided_slice/stack_2", "shape": [1], "dtype": "int32"}, {"name": "StatefulPartitionedCall/tfgp_t2lm_head_model/transformer/h_._2/attn/c_proj/Reshape_1/shape/1", "shape": [], "dtype": "int32"}, {"name": "StatefulPartitionedCall/tfgp_t2lm_head_model/transformer/h_._2/attn/c_proj/Reshape_1/shape/2", "shape": [], "dtype": "int32"}, {"name": "StatefulPartitionedCall/tfgp_t2lm_head_model/transformer/h_._2/ln_2/moments/mean/reduction_indices", "shape": [1], "dtype": "int32"}, {"name": "StatefulPartitionedCall/tfgp_t2lm_head_model/transformer/h_._2/ln_2/moments/variance/reduction_indices", "shape": [1], "dtype": "int32"}, {"name": "StatefulPartitionedCall/tfgp_t2lm_head_model/transformer/h_._2/ln_2/batchnorm/add/y", "shape": [], "dtype": "float32"}, {"name": "unknown_31", "shape": [768], "dtype": "float32"}, {"name": "StatefulPartitionedCall/tfgp_t2lm_head_model/transformer/h_._2/mlp/c_fc/strided_slice/stack", "shape": [1], "dtype": "int32"}, {"name": "StatefulPartitionedCall/tfgp_t2lm_head_model/transformer/h_._2/mlp/c_fc/strided_slice/stack_1", "shape": [1], "dtype": "int32"}, {"name": "StatefulPartitionedCall/tfgp_t2lm_head_model/transformer/h_._2/mlp/c_fc/strided_slice/stack_2", "shape": [1], "dtype": "int32"}, {"name": "StatefulPartitionedCall/tfgp_t2lm_head_model/transformer/h_._2/mlp/c_fc/Reshape_1/shape/1", "shape": [], "dtype": "int32"}, {"name": "StatefulPartitionedCall/tfgp_t2lm_head_model/transformer/h_._2/mlp/c_fc/Reshape_1/shape/2", "shape": [], "dtype": "int32"}, {"name": "StatefulPartitionedCall/tfgp_t2lm_head_model/transformer/h_._2/mlp/Pow/y", "shape": [], "dtype": "float32"}, {"name": "StatefulPartitionedCall/tfgp_t2lm_head_model/transformer/h_._2/mlp/c_proj/strided_slice/stack", "shape": [1], "dtype": "int32"}, {"name": "StatefulPartitionedCall/tfgp_t2lm_head_model/transformer/h_._2/mlp/c_proj/strided_slice/stack_1", "shape": [1], "dtype": "int32"}, {"name": "StatefulPartitionedCall/tfgp_t2lm_head_model/transformer/h_._2/mlp/c_proj/strided_slice/stack_2", "shape": [1], "dtype": "int32"}, {"name": "StatefulPartitionedCall/tfgp_t2lm_head_model/transformer/h_._2/mlp/c_proj/Reshape_1/shape/1", "shape": [], "dtype": "int32"}, {"name": "StatefulPartitionedCall/tfgp_t2lm_head_model/transformer/h_._2/mlp/c_proj/Reshape_1/shape/2", "shape": [], "dtype": "int32"}, {"name": "StatefulPartitionedCall/tfgp_t2lm_head_model/transformer/h_._3/ln_1/moments/mean/reduction_indices", "shape": [1], "dtype": "int32"}, {"name": "StatefulPartitionedCall/tfgp_t2lm_head_model/transformer/h_._3/ln_1/moments/variance/reduction_indices", "shape": [1], "dtype": "int32"}, {"name": "StatefulPartitionedCall/tfgp_t2lm_head_model/transformer/h_._3/ln_1/batchnorm/add/y", "shape": [], "dtype": "float32"}, {"name": "unknown_37", "shape": [768], "dtype": "float32"}, {"name": "StatefulPartitionedCall/tfgp_t2lm_head_model/transformer/h_._3/attn/c_attn/strided_slice/stack", "shape": [1], "dtype": "int32"}, {"name": "StatefulPartitionedCall/tfgp_t2lm_head_model/transformer/h_._3/attn/c_attn/strided_slice/stack_1", "shape": [1], "dtype": "int32"}, {"name": "StatefulPartitionedCall/tfgp_t2lm_head_model/transformer/h_._3/attn/c_attn/strided_slice/stack_2", "shape": [1], "dtype": "int32"}, {"name": "StatefulPartitionedCall/tfgp_t2lm_head_model/transformer/h_._3/attn/c_attn/Reshape_1/shape/1", "shape": [], "dtype": "int32"}, {"name": "StatefulPartitionedCall/tfgp_t2lm_head_model/transformer/h_._3/attn/c_attn/Reshape_1/shape/2", "shape": [], "dtype": "int32"}, {"name": "StatefulPartitionedCall/tfgp_t2lm_head_model/transformer/h_._3/attn/strided_slice_2/stack", "shape": [1], "dtype": "int32"}, {"name": "StatefulPartitionedCall/tfgp_t2lm_head_model/transformer/h_._3/attn/strided_slice_2/stack_1", "shape": [1], "dtype": "int32"}, {"name": "StatefulPartitionedCall/tfgp_t2lm_head_model/transformer/h_._3/attn/strided_slice_2/stack_2", "shape": [1], "dtype": "int32"}, {"name": "StatefulPartitionedCall/tfgp_t2lm_head_model/transformer/h_._3/attn/Reshape_2/shape/1", "shape": [], "dtype": "int32"}, {"name": "StatefulPartitionedCall/tfgp_t2lm_head_model/transformer/h_._3/attn/Reshape_2/shape/2", "shape": [], "dtype": "int32"}, {"name": "StatefulPartitionedCall/tfgp_t2lm_head_model/transformer/h_._3/attn/Reshape_2/shape/3", "shape": [], "dtype": "int32"}, {"name": "StatefulPartitionedCall/tfgp_t2lm_head_model/transformer/h_._3/attn/transpose_2/perm", "shape": [4], "dtype": "int32"}, {"name": "StatefulPartitionedCall/tfgp_t2lm_head_model/transformer/h_._3/attn/transpose_3/perm", "shape": [4], "dtype": "int32"}, {"name": "StatefulPartitionedCall/tfgp_t2lm_head_model/transformer/h_._3/attn/strided_slice_6/stack", "shape": [1], "dtype": "int32"}, {"name": "StatefulPartitionedCall/tfgp_t2lm_head_model/transformer/h_._3/attn/strided_slice_6/stack_1", "shape": [1], "dtype": "int32"}, {"name": "StatefulPartitionedCall/tfgp_t2lm_head_model/transformer/h_._3/attn/strided_slice_6/stack_2", "shape": [1], "dtype": "int32"}, {"name": "StatefulPartitionedCall/tfgp_t2lm_head_model/transformer/h_._3/attn/Reshape_4/shape/1", "shape": [], "dtype": "int32"}, {"name": "StatefulPartitionedCall/tfgp_t2lm_head_model/transformer/h_._3/attn/Reshape_4/shape/2", "shape": [], "dtype": "int32"}, {"name": "StatefulPartitionedCall/tfgp_t2lm_head_model/transformer/h_._3/attn/c_proj/strided_slice/stack", "shape": [1], "dtype": "int32"}, {"name": "StatefulPartitionedCall/tfgp_t2lm_head_model/transformer/h_._3/attn/c_proj/strided_slice/stack_1", "shape": [1], "dtype": "int32"}, {"name": "StatefulPartitionedCall/tfgp_t2lm_head_model/transformer/h_._3/attn/c_proj/strided_slice/stack_2", "shape": [1], "dtype": "int32"}, {"name": "StatefulPartitionedCall/tfgp_t2lm_head_model/transformer/h_._3/attn/c_proj/Reshape_1/shape/1", "shape": [], "dtype": "int32"}, {"name": "StatefulPartitionedCall/tfgp_t2lm_head_model/transformer/h_._3/attn/c_proj/Reshape_1/shape/2", "shape": [], "dtype": "int32"}, {"name": "StatefulPartitionedCall/tfgp_t2lm_head_model/transformer/h_._3/ln_2/moments/mean/reduction_indices", "shape": [1], "dtype": "int32"}, {"name": "StatefulPartitionedCall/tfgp_t2lm_head_model/transformer/h_._3/ln_2/moments/variance/reduction_indices", "shape": [1], "dtype": "int32"}, {"name": "StatefulPartitionedCall/tfgp_t2lm_head_model/transformer/h_._3/ln_2/batchnorm/add/y", "shape": [], "dtype": "float32"}, {"name": "unknown_43", "shape": [768], "dtype": "float32"}, {"name": "StatefulPartitionedCall/tfgp_t2lm_head_model/transformer/h_._3/mlp/c_fc/strided_slice/stack", "shape": [1], "dtype": "int32"}, {"name": "StatefulPartitionedCall/tfgp_t2lm_head_model/transformer/h_._3/mlp/c_fc/strided_slice/stack_1", "shape": [1], "dtype": "int32"}, {"name": "StatefulPartitionedCall/tfgp_t2lm_head_model/transformer/h_._3/mlp/c_fc/strided_slice/stack_2", "shape": [1], "dtype": "int32"}, {"name": "StatefulPartitionedCall/tfgp_t2lm_head_model/transformer/h_._3/mlp/c_fc/Reshape_1/shape/1", "shape": [], "dtype": "int32"}, {"name": "StatefulPartitionedCall/tfgp_t2lm_head_model/transformer/h_._3/mlp/c_fc/Reshape_1/shape/2", "shape": [], "dtype": "int32"}, {"name": "StatefulPartitionedCall/tfgp_t2lm_head_model/transformer/h_._3/mlp/Pow/y", "shape": [], "dtype": "float32"}, {"name": "StatefulPartitionedCall/tfgp_t2lm_head_model/transformer/h_._3/mlp/c_proj/strided_slice/stack", "shape": [1], "dtype": "int32"}, {"name": "StatefulPartitionedCall/tfgp_t2lm_head_model/transformer/h_._3/mlp/c_proj/strided_slice/stack_1", "shape": [1], "dtype": "int32"}, {"name": "StatefulPartitionedCall/tfgp_t2lm_head_model/transformer/h_._3/mlp/c_proj/strided_slice/stack_2", "shape": [1], "dtype": "int32"}, {"name": "StatefulPartitionedCall/tfgp_t2lm_head_model/transformer/h_._3/mlp/c_proj/Reshape_1/shape/1", "shape": [], "dtype": "int32"}, {"name": "StatefulPartitionedCall/tfgp_t2lm_head_model/transformer/h_._3/mlp/c_proj/Reshape_1/shape/2", "shape": [], "dtype": "int32"}, {"name": "StatefulPartitionedCall/tfgp_t2lm_head_model/transformer/h_._4/ln_1/moments/mean/reduction_indices", "shape": [1], "dtype": "int32"}, {"name": "StatefulPartitionedCall/tfgp_t2lm_head_model/transformer/h_._4/ln_1/moments/variance/reduction_indices", "shape": [1], "dtype": "int32"}, {"name": "StatefulPartitionedCall/tfgp_t2lm_head_model/transformer/h_._4/ln_1/batchnorm/add/y", "shape": [], "dtype": "float32"}, {"name": "unknown_49", "shape": [768], "dtype": "float32"}, {"name": "StatefulPartitionedCall/tfgp_t2lm_head_model/transformer/h_._4/attn/c_attn/strided_slice/stack", "shape": [1], "dtype": "int32"}, {"name": "StatefulPartitionedCall/tfgp_t2lm_head_model/transformer/h_._4/attn/c_attn/strided_slice/stack_1", "shape": [1], "dtype": "int32"}, {"name": "StatefulPartitionedCall/tfgp_t2lm_head_model/transformer/h_._4/attn/c_attn/strided_slice/stack_2", "shape": [1], "dtype": "int32"}, {"name": "StatefulPartitionedCall/tfgp_t2lm_head_model/transformer/h_._4/attn/c_attn/Reshape_1/shape/1", "shape": [], "dtype": "int32"}, {"name": "StatefulPartitionedCall/tfgp_t2lm_head_model/transformer/h_._4/attn/c_attn/Reshape_1/shape/2", "shape": [], "dtype": "int32"}, {"name": "StatefulPartitionedCall/tfgp_t2lm_head_model/transformer/h_._4/attn/strided_slice_2/stack", "shape": [1], "dtype": "int32"}, {"name": "StatefulPartitionedCall/tfgp_t2lm_head_model/transformer/h_._4/attn/strided_slice_2/stack_1", "shape": [1], "dtype": "int32"}, {"name": "StatefulPartitionedCall/tfgp_t2lm_head_model/transformer/h_._4/attn/strided_slice_2/stack_2", "shape": [1], "dtype": "int32"}, {"name": "StatefulPartitionedCall/tfgp_t2lm_head_model/transformer/h_._4/attn/Reshape_2/shape/1", "shape": [], "dtype": "int32"}, {"name": "StatefulPartitionedCall/tfgp_t2lm_head_model/transformer/h_._4/attn/Reshape_2/shape/2", "shape": [], "dtype": "int32"}, {"name": "StatefulPartitionedCall/tfgp_t2lm_head_model/transformer/h_._4/attn/Reshape_2/shape/3", "shape": [], "dtype": "int32"}, {"name": "StatefulPartitionedCall/tfgp_t2lm_head_model/transformer/h_._4/attn/transpose_2/perm", "shape": [4], "dtype": "int32"}, {"name": "StatefulPartitionedCall/tfgp_t2lm_head_model/transformer/h_._4/attn/transpose_3/perm", "shape": [4], "dtype": "int32"}, {"name": "StatefulPartitionedCall/tfgp_t2lm_head_model/transformer/h_._4/attn/strided_slice_6/stack", "shape": [1], "dtype": "int32"}, {"name": "StatefulPartitionedCall/tfgp_t2lm_head_model/transformer/h_._4/attn/strided_slice_6/stack_1", "shape": [1], "dtype": "int32"}, {"name": "StatefulPartitionedCall/tfgp_t2lm_head_model/transformer/h_._4/attn/strided_slice_6/stack_2", "shape": [1], "dtype": "int32"}, {"name": "StatefulPartitionedCall/tfgp_t2lm_head_model/transformer/h_._4/attn/Reshape_4/shape/1", "shape": [], "dtype": "int32"}, {"name": "StatefulPartitionedCall/tfgp_t2lm_head_model/transformer/h_._4/attn/Reshape_4/shape/2", "shape": [], "dtype": "int32"}, {"name": "StatefulPartitionedCall/tfgp_t2lm_head_model/transformer/h_._4/attn/c_proj/strided_slice/stack", "shape": [1], "dtype": "int32"}, {"name": "StatefulPartitionedCall/tfgp_t2lm_head_model/transformer/h_._4/attn/c_proj/strided_slice/stack_1", "shape": [1], "dtype": "int32"}, {"name": "StatefulPartitionedCall/tfgp_t2lm_head_model/transformer/h_._4/attn/c_proj/strided_slice/stack_2", "shape": [1], "dtype": "int32"}, {"name": "StatefulPartitionedCall/tfgp_t2lm_head_model/transformer/h_._4/attn/c_proj/Reshape_1/shape/1", "shape": [], "dtype": "int32"}, {"name": "StatefulPartitionedCall/tfgp_t2lm_head_model/transformer/h_._4/attn/c_proj/Reshape_1/shape/2", "shape": [], "dtype": "int32"}, {"name": "StatefulPartitionedCall/tfgp_t2lm_head_model/transformer/h_._4/ln_2/moments/mean/reduction_indices", "shape": [1], "dtype": "int32"}, {"name": "StatefulPartitionedCall/tfgp_t2lm_head_model/transformer/h_._4/ln_2/moments/variance/reduction_indices", "shape": [1], "dtype": "int32"}, {"name": "StatefulPartitionedCall/tfgp_t2lm_head_model/transformer/h_._4/ln_2/batchnorm/add/y", "shape": [], "dtype": "float32"}, {"name": "unknown_55", "shape": [768], "dtype": "float32"}, {"name": "StatefulPartitionedCall/tfgp_t2lm_head_model/transformer/h_._4/mlp/c_fc/strided_slice/stack", "shape": [1], "dtype": "int32"}, {"name": "StatefulPartitionedCall/tfgp_t2lm_head_model/transformer/h_._4/mlp/c_fc/strided_slice/stack_1", "shape": [1], "dtype": "int32"}, {"name": "StatefulPartitionedCall/tfgp_t2lm_head_model/transformer/h_._4/mlp/c_fc/strided_slice/stack_2", "shape": [1], "dtype": "int32"}, {"name": "StatefulPartitionedCall/tfgp_t2lm_head_model/transformer/h_._4/mlp/c_fc/Reshape_1/shape/1", "shape": [], "dtype": "int32"}, {"name": "StatefulPartitionedCall/tfgp_t2lm_head_model/transformer/h_._4/mlp/c_fc/Reshape_1/shape/2", "shape": [], "dtype": "int32"}, {"name": "StatefulPartitionedCall/tfgp_t2lm_head_model/transformer/h_._4/mlp/Pow/y", "shape": [], "dtype": "float32"}, {"name": "StatefulPartitionedCall/tfgp_t2lm_head_model/transformer/h_._4/mlp/c_proj/strided_slice/stack", "shape": [1], "dtype": "int32"}, {"name": "StatefulPartitionedCall/tfgp_t2lm_head_model/transformer/h_._4/mlp/c_proj/strided_slice/stack_1", "shape": [1], "dtype": "int32"}, {"name": "StatefulPartitionedCall/tfgp_t2lm_head_model/transformer/h_._4/mlp/c_proj/strided_slice/stack_2", "shape": [1], "dtype": "int32"}, {"name": "StatefulPartitionedCall/tfgp_t2lm_head_model/transformer/h_._4/mlp/c_proj/Reshape_1/shape/1", "shape": [], "dtype": "int32"}, {"name": "StatefulPartitionedCall/tfgp_t2lm_head_model/transformer/h_._4/mlp/c_proj/Reshape_1/shape/2", "shape": [], "dtype": "int32"}, {"name": "StatefulPartitionedCall/tfgp_t2lm_head_model/transformer/h_._5/ln_1/moments/mean/reduction_indices", "shape": [1], "dtype": "int32"}, {"name": "StatefulPartitionedCall/tfgp_t2lm_head_model/transformer/h_._5/ln_1/moments/variance/reduction_indices", "shape": [1], "dtype": "int32"}, {"name": "StatefulPartitionedCall/tfgp_t2lm_head_model/transformer/h_._5/ln_1/batchnorm/add/y", "shape": [], "dtype": "float32"}, {"name": "unknown_61", "shape": [768], "dtype": "float32"}, {"name": "StatefulPartitionedCall/tfgp_t2lm_head_model/transformer/h_._5/attn/c_attn/strided_slice/stack", "shape": [1], "dtype": "int32"}, {"name": "StatefulPartitionedCall/tfgp_t2lm_head_model/transformer/h_._5/attn/c_attn/strided_slice/stack_1", "shape": [1], "dtype": "int32"}, {"name": "StatefulPartitionedCall/tfgp_t2lm_head_model/transformer/h_._5/attn/c_attn/strided_slice/stack_2", "shape": [1], "dtype": "int32"}, {"name": "StatefulPartitionedCall/tfgp_t2lm_head_model/transformer/h_._5/attn/c_attn/Reshape_1/shape/1", "shape": [], "dtype": "int32"}, {"name": "StatefulPartitionedCall/tfgp_t2lm_head_model/transformer/h_._5/attn/c_attn/Reshape_1/shape/2", "shape": [], "dtype": "int32"}, {"name": "StatefulPartitionedCall/tfgp_t2lm_head_model/transformer/h_._5/attn/strided_slice_2/stack", "shape": [1], "dtype": "int32"}, {"name": "StatefulPartitionedCall/tfgp_t2lm_head_model/transformer/h_._5/attn/strided_slice_2/stack_1", "shape": [1], "dtype": "int32"}, {"name": "StatefulPartitionedCall/tfgp_t2lm_head_model/transformer/h_._5/attn/strided_slice_2/stack_2", "shape": [1], "dtype": "int32"}, {"name": "StatefulPartitionedCall/tfgp_t2lm_head_model/transformer/h_._5/attn/Reshape_2/shape/1", "shape": [], "dtype": "int32"}, {"name": "StatefulPartitionedCall/tfgp_t2lm_head_model/transformer/h_._5/attn/Reshape_2/shape/2", "shape": [], "dtype": "int32"}, {"name": "StatefulPartitionedCall/tfgp_t2lm_head_model/transformer/h_._5/attn/Reshape_2/shape/3", "shape": [], "dtype": "int32"}, {"name": "StatefulPartitionedCall/tfgp_t2lm_head_model/transformer/h_._5/attn/transpose_2/perm", "shape": [4], "dtype": "int32"}]}]}