{"format": "graph-model", "generatedBy": "2.11.0", "convertedBy": "TensorFlow.js Converter v4.1.0", "signature": {"inputs": {"input_ids:0": {"name": "input_ids:0", "dtype": "DT_INT64", "tensorShape": {"dim": [{"size": "-1"}, {"size": "-1"}]}}, "attention_mask:0": {"name": "attention_mask:0", "dtype": "DT_INT64", "tensorShape": {"dim": [{"size": "-1"}, {"size": "-1"}]}}}, "outputs": {"logits": {"name": "Identity:0", "dtype": "DT_FLOAT", "tensorShape": {"dim": [{"size": "-1"}, {"size": "-1"}, {"size": "50257"}]}}}}, "modelTopology": {"node": [{"name": "StatefulPartitionedCall/tfgpt2lm_head_model_1/wte/Reshape/shape", "op": "Const", "attr": {"dtype": {"type": "DT_INT32"}, "value": {"tensor": {"dtype": "DT_INT32", "tensorShape": {"dim": [{"size": "2"}]}}}}}, {"name": "StatefulPartitionedCall/tfgpt2lm_head_model_1/wte/MatMul/ReadVariableOp", "op": "Const", "attr": {"value": {"tensor": {"dtype": "DT_FLOAT", "tensorShape": {"dim": [{"size": "50257"}, {"size": "768"}]}}}, "dtype": {"type": "DT_FLOAT"}}}, {"name": "StatefulPartitionedCall/tfgpt2lm_head_model_1/wte/strided_slice/stack", "op": "Const", "attr": {"value": {"tensor": {"dtype": "DT_INT32", "tensorShape": {"dim": [{"size": "1"}]}}}, "dtype": {"type": "DT_INT32"}}}, {"name": "StatefulPartitionedCall/tfgpt2lm_head_model_1/wte/strided_slice/stack_1", "op": "Const", "attr": {"value": {"tensor": {"dtype": "DT_INT32", "tensorShape": {"dim": [{"size": "1"}]}}}, "dtype": {"type": "DT_INT32"}}}, {"name": "StatefulPartitionedCall/tfgpt2lm_head_model_1/wte/strided_slice/stack_2", "op": "Const", "attr": {"value": {"tensor": {"dtype": "DT_INT32", "tensorShape": {"dim": [{"size": "1"}]}}}, "dtype": {"type": "DT_INT32"}}}, {"name": "StatefulPartitionedCall/tfgpt2lm_head_model_1/transformer/ln_f/batchnorm/ReadVariableOp", "op": "Const", "attr": {"value": {"tensor": {"dtype": "DT_FLOAT", "tensorShape": {"dim": [{"size": "768"}]}}}, "dtype": {"type": "DT_FLOAT"}}}, {"name": "StatefulPartitionedCall/tfgpt2lm_head_model_1/transformer/h_._5/mlp/c_proj/Reshape/shape", "op": "Const", "attr": {"dtype": {"type": "DT_INT32"}, "value": {"tensor": {"dtype": "DT_INT32", "tensorShape": {"dim": [{"size": "2"}]}}}}}, {"name": "StatefulPartitionedCall/tfgpt2lm_head_model_1/transformer/h_._5/mlp/c_proj/MatMul/ReadVariableOp", "op": "Const", "attr": {"dtype": {"type": "DT_FLOAT"}, "value": {"tensor": {"dtype": "DT_FLOAT", "tensorShape": {"dim": [{"size": "3072"}, {"size": "768"}]}}}}}, {"name": "StatefulPartitionedCall/tfgpt2lm_head_model_1/transformer/h_._5/mlp/c_proj/add/ReadVariableOp", "op": "Const", "attr": {"value": {"tensor": {"dtype": "DT_FLOAT", "tensorShape": {"dim": [{"size": "1"}, {"size": "768"}]}}}, "dtype": {"type": "DT_FLOAT"}}}, {"name": "StatefulPartitionedCall/tfgpt2lm_head_model_1/transformer/h_._5/mlp/c_proj/strided_slice/stack", "op": "Const", "attr": {"value": {"tensor": {"dtype": "DT_INT32", "tensorShape": {"dim": [{"size": "1"}]}}}, "dtype": {"type": "DT_INT32"}}}, {"name": "StatefulPartitionedCall/tfgpt2lm_head_model_1/transformer/h_._5/mlp/c_proj/strided_slice/stack_1", "op": "Const", "attr": {"dtype": {"type": "DT_INT32"}, "value": {"tensor": {"dtype": "DT_INT32", "tensorShape": {"dim": [{"size": "1"}]}}}}}, {"name": "StatefulPartitionedCall/tfgpt2lm_head_model_1/transformer/h_._5/mlp/c_proj/strided_slice/stack_2", "op": "Const", "attr": {"value": {"tensor": {"dtype": "DT_INT32", "tensorShape": {"dim": [{"size": "1"}]}}}, "dtype": {"type": "DT_INT32"}}}, {"name": "StatefulPartitionedCall/tfgpt2lm_head_model_1/transformer/h_._5/mlp/Gelu/mul/x", "op": "Const", "attr": {"value": {"tensor": {"dtype": "DT_FLOAT", "tensorShape": {}}}, "dtype": {"type": "DT_FLOAT"}}}, {"name": "StatefulPartitionedCall/tfgpt2lm_head_model_1/transformer/h_._5/mlp/Gelu/add_1/x", "op": "Const", "attr": {"dtype": {"type": "DT_FLOAT"}, "value": {"tensor": {"dtype": "DT_FLOAT", "tensorShape": {}}}}}, {"name": "StatefulPartitionedCall/tfgpt2lm_head_model_1/transformer/h_._5/mlp/Gelu/mul_2/x", "op": "Const", "attr": {"value": {"tensor": {"dtype": "DT_FLOAT", "tensorShape": {}}}, "dtype": {"type": "DT_FLOAT"}}}, {"name": "StatefulPartitionedCall/tfgpt2lm_head_model_1/transformer/h_._5/mlp/Gelu/Cast/x", "op": "Const", "attr": {"dtype": {"type": "DT_FLOAT"}, "value": {"tensor": {"dtype": "DT_FLOAT", "tensorShape": {}}}}}, {"name": "StatefulPartitionedCall/tfgpt2lm_head_model_1/transformer/h_._5/mlp/c_fc/Reshape/shape", "op": "Const", "attr": {"value": {"tensor": {"dtype": "DT_INT32", "tensorShape": {"dim": [{"size": "2"}]}}}, "dtype": {"type": "DT_INT32"}}}, {"name": "StatefulPartitionedCall/tfgpt2lm_head_model_1/transformer/h_._5/mlp/c_fc/MatMul/ReadVariableOp", "op": "Const", "attr": {"value": {"tensor": {"dtype": "DT_FLOAT", "tensorShape": {"dim": [{"size": "768"}, {"size": "3072"}]}}}, "dtype": {"type": "DT_FLOAT"}}}, {"name": "StatefulPartitionedCall/tfgpt2lm_head_model_1/transformer/h_._5/mlp/c_fc/add/ReadVariableOp", "op": "Const", "attr": {"dtype": {"type": "DT_FLOAT"}, "value": {"tensor": {"dtype": "DT_FLOAT", "tensorShape": {"dim": [{"size": "1"}, {"size": "3072"}]}}}}}, {"name": "StatefulPartitionedCall/tfgpt2lm_head_model_1/transformer/h_._5/mlp/c_fc/strided_slice/stack", "op": "Const", "attr": {"dtype": {"type": "DT_INT32"}, "value": {"tensor": {"dtype": "DT_INT32", "tensorShape": {"dim": [{"size": "1"}]}}}}}, {"name": "StatefulPartitionedCall/tfgpt2lm_head_model_1/transformer/h_._5/mlp/c_fc/strided_slice/stack_1", "op": "Const", "attr": {"dtype": {"type": "DT_INT32"}, "value": {"tensor": {"dtype": "DT_INT32", "tensorShape": {"dim": [{"size": "1"}]}}}}}, {"name": "StatefulPartitionedCall/tfgpt2lm_head_model_1/transformer/h_._5/mlp/c_fc/strided_slice/stack_2", "op": "Const", "attr": {"value": {"tensor": {"dtype": "DT_INT32", "tensorShape": {"dim": [{"size": "1"}]}}}, "dtype": {"type": "DT_INT32"}}}, {"name": "StatefulPartitionedCall/tfgpt2lm_head_model_1/transformer/h_._5/ln_2/batchnorm/ReadVariableOp", "op": "Const", "attr": {"dtype": {"type": "DT_FLOAT"}, "value": {"tensor": {"dtype": "DT_FLOAT", "tensorShape": {"dim": [{"size": "768"}]}}}}}, {"name": "StatefulPartitionedCall/tfgpt2lm_head_model_1/transformer/h_._5/attn/c_proj/Reshape/shape", "op": "Const", "attr": {"value": {"tensor": {"dtype": "DT_INT32", "tensorShape": {"dim": [{"size": "2"}]}}}, "dtype": {"type": "DT_INT32"}}}, {"name": "StatefulPartitionedCall/tfgpt2lm_head_model_1/transformer/h_._5/attn/c_proj/MatMul/ReadVariableOp", "op": "Const", "attr": {"dtype": {"type": "DT_FLOAT"}, "value": {"tensor": {"dtype": "DT_FLOAT", "tensorShape": {"dim": [{"size": "768"}, {"size": "768"}]}}}}}, {"name": "StatefulPartitionedCall/tfgpt2lm_head_model_1/transformer/h_._5/attn/c_proj/add/ReadVariableOp", "op": "Const", "attr": {"value": {"tensor": {"dtype": "DT_FLOAT", "tensorShape": {"dim": [{"size": "1"}, {"size": "768"}]}}}, "dtype": {"type": "DT_FLOAT"}}}, {"name": "StatefulPartitionedCall/tfgpt2lm_head_model_1/transformer/h_._5/attn/c_proj/strided_slice/stack", "op": "Const", "attr": {"value": {"tensor": {"dtype": "DT_INT32", "tensorShape": {"dim": [{"size": "1"}]}}}, "dtype": {"type": "DT_INT32"}}}, {"name": "StatefulPartitionedCall/tfgpt2lm_head_model_1/transformer/h_._5/attn/c_proj/strided_slice/stack_1", "op": "Const", "attr": {"value": {"tensor": {"dtype": "DT_INT32", "tensorShape": {"dim": [{"size": "1"}]}}}, "dtype": {"type": "DT_INT32"}}}, {"name": "StatefulPartitionedCall/tfgpt2lm_head_model_1/transformer/h_._5/attn/c_proj/strided_slice/stack_2", "op": "Const", "attr": {"dtype": {"type": "DT_INT32"}, "value": {"tensor": {"dtype": "DT_INT32", "tensorShape": {"dim": [{"size": "1"}]}}}}}, {"name": "StatefulPartitionedCall/tfgpt2lm_head_model_1/transformer/h_._5/attn/strided_slice_12/stack", "op": "Const", "attr": {"dtype": {"type": "DT_INT32"}, "value": {"tensor": {"dtype": "DT_INT32", "tensorShape": {"dim": [{"size": "1"}]}}}}}, {"name": "StatefulPartitionedCall/tfgpt2lm_head_model_1/transformer/h_._5/attn/strided_slice_12/stack_1", "op": "Const", "attr": {"dtype": {"type": "DT_INT32"}, "value": {"tensor": {"dtype": "DT_INT32", "tensorShape": {"dim": [{"size": "1"}]}}}}}, {"name": "StatefulPartitionedCall/tfgpt2lm_head_model_1/transformer/h_._5/attn/strided_slice_12/stack_2", "op": "Const", "attr": {"dtype": {"type": "DT_INT32"}, "value": {"tensor": {"dtype": "DT_INT32", "tensorShape": {"dim": [{"size": "1"}]}}}}}, {"name": "StatefulPartitionedCall/tfgpt2lm_head_model_1/transformer/h_._5/attn/mul_1/x", "op": "Const", "attr": {"value": {"tensor": {"dtype": "DT_FLOAT", "tensorShape": {}}}, "dtype": {"type": "DT_FLOAT"}}}, {"name": "StatefulPartitionedCall/tfgpt2lm_head_model_1/transformer/h_._5/attn/sub_1/x", "op": "Const", "attr": {"dtype": {"type": "DT_FLOAT"}, "value": {"tensor": {"dtype": "DT_FLOAT", "tensorShape": {}}}}}, {"name": "StatefulPartitionedCall/tfgpt2lm_head_model_1/transformer/h_._5/attn/range/start", "op": "Const", "attr": {"value": {"tensor": {"dtype": "DT_INT32", "tensorShape": {}}}, "dtype": {"type": "DT_INT32"}}}, {"name": "StatefulPartitionedCall/tfgpt2lm_head_model_1/transformer/h_._5/attn/range/delta", "op": "Const", "attr": {"value": {"tensor": {"dtype": "DT_INT32", "tensorShape": {}}}, "dtype": {"type": "DT_INT32"}}}, {"name": "StatefulPartitionedCall/tfgpt2lm_head_model_1/transformer/h_._5/attn/strided_slice_11/stack", "op": "Const", "attr": {"value": {"tensor": {"dtype": "DT_INT32", "tensorShape": {"dim": [{"size": "2"}]}}}, "dtype": {"type": "DT_INT32"}}}, {"name": "StatefulPartitionedCall/tfgpt2lm_head_model_1/transformer/h_._5/attn/strided_slice_11/stack_1", "op": "Const", "attr": {"value": {"tensor": {"dtype": "DT_INT32", "tensorShape": {"dim": [{"size": "2"}]}}}, "dtype": {"type": "DT_INT32"}}}, {"name": "StatefulPartitionedCall/tfgpt2lm_head_model_1/transformer/h_._5/attn/strided_slice_11/stack_2", "op": "Const", "attr": {"value": {"tensor": {"dtype": "DT_INT32", "tensorShape": {"dim": [{"size": "2"}]}}}, "dtype": {"type": "DT_INT32"}}}, {"name": "StatefulPartitionedCall/tfgpt2lm_head_model_1/transformer/h_._5/attn/range_1/start", "op": "Const", "attr": {"dtype": {"type": "DT_INT32"}, "value": {"tensor": {"dtype": "DT_INT32", "tensorShape": {}}}}}, {"name": "StatefulPartitionedCall/tfgpt2lm_head_model_1/transformer/h_._5/attn/range_1/delta", "op": "Const", "attr": {"dtype": {"type": "DT_INT32"}, "value": {"tensor": {"dtype": "DT_INT32", "tensorShape": {}}}}}, {"name": "StatefulPartitionedCall/tfgpt2lm_head_model_1/transformer/h_._5/attn/Reshape_3/shape/0", "op": "Const", "attr": {"value": {"tensor": {"dtype": "DT_INT32", "tensorShape": {}}}, "dtype": {"type": "DT_INT32"}}}, {"name": "StatefulPartitionedCall/tfgpt2lm_head_model_1/transformer/h_._5/attn/Reshape_3/shape/1", "op": "Const", "attr": {"value": {"tensor": {"dtype": "DT_INT32", "tensorShape": {}}}, "dtype": {"type": "DT_INT32"}}}, {"name": "StatefulPartitionedCall/tfgpt2lm_head_model_1/transformer/h_._5/attn/strided_slice_9/stack", "op": "Const", "attr": {"value": {"tensor": {"dtype": "DT_INT32", "tensorShape": {"dim": [{"size": "1"}]}}}, "dtype": {"type": "DT_INT32"}}}, {"name": "StatefulPartitionedCall/tfgpt2lm_head_model_1/transformer/h_._5/attn/strided_slice_9/stack_1", "op": "Const", "attr": {"value": {"tensor": {"dtype": "DT_INT32", "tensorShape": {"dim": [{"size": "1"}]}}}, "dtype": {"type": "DT_INT32"}}}, {"name": "StatefulPartitionedCall/tfgpt2lm_head_model_1/transformer/h_._5/attn/strided_slice_9/stack_2", "op": "Const", "attr": {"value": {"tensor": {"dtype": "DT_INT32", "tensorShape": {"dim": [{"size": "1"}]}}}, "dtype": {"type": "DT_INT32"}}}, {"name": "StatefulPartitionedCall/tfgpt2lm_head_model_1/transformer/h_._5/attn/strided_slice/stack", "op": "Const", "attr": {"value": {"tensor": {"dtype": "DT_INT32", "tensorShape": {"dim": [{"size": "1"}]}}}, "dtype": {"type": "DT_INT32"}}}, {"name": "StatefulPartitionedCall/tfgpt2lm_head_model_1/transformer/h_._5/attn/strided_slice/stack_1", "op": "Const", "attr": {"dtype": {"type": "DT_INT32"}, "value": {"tensor": {"dtype": "DT_INT32", "tensorShape": {"dim": [{"size": "1"}]}}}}}, {"name": "StatefulPartitionedCall/tfgpt2lm_head_model_1/transformer/h_._5/attn/strided_slice/stack_2", "op": "Const", "attr": {"dtype": {"type": "DT_INT32"}, "value": {"tensor": {"dtype": "DT_INT32", "tensorShape": {"dim": [{"size": "1"}]}}}}}, {"name": "StatefulPartitionedCall/tfgpt2lm_head_model_1/transformer/h_._5/attn/strided_slice_1/stack", "op": "Const", "attr": {"value": {"tensor": {"dtype": "DT_INT32", "tensorShape": {"dim": [{"size": "1"}]}}}, "dtype": {"type": "DT_INT32"}}}, {"name": "StatefulPartitionedCall/tfgpt2lm_head_model_1/transformer/h_._5/attn/strided_slice_1/stack_1", "op": "Const", "attr": {"dtype": {"type": "DT_INT32"}, "value": {"tensor": {"dtype": "DT_INT32", "tensorShape": {"dim": [{"size": "1"}]}}}}}, {"name": "StatefulPartitionedCall/tfgpt2lm_head_model_1/transformer/h_._5/attn/strided_slice_1/stack_2", "op": "Const", "attr": {"dtype": {"type": "DT_INT32"}, "value": {"tensor": {"dtype": "DT_INT32", "tensorShape": {"dim": [{"size": "1"}]}}}}}, {"name": "StatefulPartitionedCall/tfgpt2lm_head_model_1/transformer/h_._5/attn/Reshape/shape/2", "op": "Const", "attr": {"value": {"tensor": {"dtype": "DT_INT32", "tensorShape": {}}}, "dtype": {"type": "DT_INT32"}}}, {"name": "StatefulPartitionedCall/tfgpt2lm_head_model_1/transformer/h_._5/attn/Reshape/shape/3", "op": "Const", "attr": {"dtype": {"type": "DT_INT32"}, "value": {"tensor": {"dtype": "DT_INT32", "tensorShape": {}}}}}, {"name": "StatefulPartitionedCall/tfgpt2lm_head_model_1/transformer/h_._5/attn/transpose/perm", "op": "Const", "attr": {"dtype": {"type": "DT_INT32"}, "value": {"tensor": {"dtype": "DT_INT32", "tensorShape": {"dim": [{"size": "4"}]}}}}}, {"name": "StatefulPartitionedCall/tfgpt2lm_head_model_1/transformer/h_._5/attn/strided_slice_2/stack", "op": "Const", "attr": {"dtype": {"type": "DT_INT32"}, "value": {"tensor": {"dtype": "DT_INT32", "tensorShape": {"dim": [{"size": "1"}]}}}}}, {"name": "StatefulPartitionedCall/tfgpt2lm_head_model_1/transformer/h_._5/attn/strided_slice_2/stack_1", "op": "Const", "attr": {"dtype": {"type": "DT_INT32"}, "value": {"tensor": {"dtype": "DT_INT32", "tensorShape": {"dim": [{"size": "1"}]}}}}}, {"name": "StatefulPartitionedCall/tfgpt2lm_head_model_1/transformer/h_._5/attn/strided_slice_2/stack_2", "op": "Const", "attr": {"dtype": {"type": "DT_INT32"}, "value": {"tensor": {"dtype": "DT_INT32", "tensorShape": {"dim": [{"size": "1"}]}}}}}, {"name": "StatefulPartitionedCall/tfgpt2lm_head_model_1/transformer/h_._5/attn/strided_slice_3/stack", "op": "Const", "attr": {"value": {"tensor": {"dtype": "DT_INT32", "tensorShape": {"dim": [{"size": "1"}]}}}, "dtype": {"type": "DT_INT32"}}}, {"name": "StatefulPartitionedCall/tfgpt2lm_head_model_1/transformer/h_._5/attn/strided_slice_3/stack_1", "op": "Const", "attr": {"value": {"tensor": {"dtype": "DT_INT32", "tensorShape": {"dim": [{"size": "1"}]}}}, "dtype": {"type": "DT_INT32"}}}, {"name": "StatefulPartitionedCall/tfgpt2lm_head_model_1/transformer/h_._5/attn/strided_slice_3/stack_2", "op": "Const", "attr": {"dtype": {"type": "DT_INT32"}, "value": {"tensor": {"dtype": "DT_INT32", "tensorShape": {"dim": [{"size": "1"}]}}}}}, {"name": "StatefulPartitionedCall/tfgpt2lm_head_model_1/transformer/h_._5/attn/Reshape_1/shape/2", "op": "Const", "attr": {"dtype": {"type": "DT_INT32"}, "value": {"tensor": {"dtype": "DT_INT32", "tensorShape": {}}}}}, {"name": "StatefulPartitionedCall/tfgpt2lm_head_model_1/transformer/h_._5/attn/Reshape_1/shape/3", "op": "Const", "attr": {"value": {"tensor": {"dtype": "DT_INT32", "tensorShape": {}}}, "dtype": {"type": "DT_INT32"}}}, {"name": "StatefulPartitionedCall/tfgpt2lm_head_model_1/transformer/h_._5/attn/transpose_1/perm", "op": "Const", "attr": {"value": {"tensor": {"dtype": "DT_INT32", "tensorShape": {"dim": [{"size": "4"}]}}}, "dtype": {"type": "DT_INT32"}}}, {"name": "ConstantFolding/StatefulPartitionedCall/tfgpt2lm_head_model_1/transformer/h_._5/attn/truediv_recip", "op": "Const", "attr": {"dtype": {"type": "DT_FLOAT"}, "value": {"tensor": {"dtype": "DT_FLOAT", "tensorShape": {}}}}}, {"name": "StatefulPartitionedCall/tfgpt2lm_head_model_1/transformer/h_._5/attn/strided_slice_10/stack", "op": "Const", "attr": {"value": {"tensor": {"dtype": "DT_INT32", "tensorShape": {"dim": [{"size": "1"}]}}}, "dtype": {"type": "DT_INT32"}}}, {"name": "StatefulPartitionedCall/tfgpt2lm_head_model_1/transformer/h_._5/attn/strided_slice_10/stack_1", "op": "Const", "attr": {"dtype": {"type": "DT_INT32"}, "value": {"tensor": {"dtype": "DT_INT32", "tensorShape": {"dim": [{"size": "1"}]}}}}}, {"name": "StatefulPartitionedCall/tfgpt2lm_head_model_1/transformer/h_._5/attn/strided_slice_10/stack_2", "op": "Const", "attr": {"value": {"tensor": {"dtype": "DT_INT32", "tensorShape": {"dim": [{"size": "1"}]}}}, "dtype": {"type": "DT_INT32"}}}, {"name": "StatefulPartitionedCall/tfgpt2lm_head_model_1/transformer/h_._5/attn/add_2/y", "op": "Const", "attr": {"dtype": {"type": "DT_FLOAT"}, "value": {"tensor": {"dtype": "DT_FLOAT", "tensorShape": {}}}}}, {"name": "StatefulPartitionedCall/tfgpt2lm_head_model_1/transformer/h_._5/attn/strided_slice_4/stack", "op": "Const", "attr": {"value": {"tensor": {"dtype": "DT_INT32", "tensorShape": {"dim": [{"size": "1"}]}}}, "dtype": {"type": "DT_INT32"}}}, {"name": "StatefulPartitionedCall/tfgpt2lm_head_model_1/transformer/h_._5/attn/strided_slice_4/stack_1", "op": "Const", "attr": {"value": {"tensor": {"dtype": "DT_INT32", "tensorShape": {"dim": [{"size": "1"}]}}}, "dtype": {"type": "DT_INT32"}}}, {"name": "StatefulPartitionedCall/tfgpt2lm_head_model_1/transformer/h_._5/attn/strided_slice_4/stack_2", "op": "Const", "attr": {"value": {"tensor": {"dtype": "DT_INT32", "tensorShape": {"dim": [{"size": "1"}]}}}, "dtype": {"type": "DT_INT32"}}}, {"name": "StatefulPartitionedCall/tfgpt2lm_head_model_1/transformer/h_._5/attn/split/split_dim", "op": "Const", "attr": {"value": {"tensor": {"dtype": "DT_INT32", "tensorShape": {}}}, "dtype": {"type": "DT_INT32"}}}, {"name": "StatefulPartitionedCall/tfgpt2lm_head_model_1/transformer/h_._5/attn/c_attn/Reshape/shape", "op": "Const", "attr": {"dtype": {"type": "DT_INT32"}, "value": {"tensor": {"dtype": "DT_INT32", "tensorShape": {"dim": [{"size": "2"}]}}}}}, {"name": "StatefulPartitionedCall/tfgpt2lm_head_model_1/transformer/h_._5/attn/c_attn/MatMul/ReadVariableOp", "op": "Const", "attr": {"value": {"tensor": {"dtype": "DT_FLOAT", "tensorShape": {"dim": [{"size": "768"}, {"size": "2304"}]}}}, "dtype": {"type": "DT_FLOAT"}}}, {"name": "StatefulPartitionedCall/tfgpt2lm_head_model_1/transformer/h_._5/attn/c_attn/add/ReadVariableOp", "op": "Const", "attr": {"value": {"tensor": {"dtype": "DT_FLOAT", "tensorShape": {"dim": [{"size": "1"}, {"size": "2304"}]}}}, "dtype": {"type": "DT_FLOAT"}}}, {"name": "StatefulPartitionedCall/tfgpt2lm_head_model_1/transformer/h_._5/attn/c_attn/strided_slice/stack", "op": "Const", "attr": {"dtype": {"type": "DT_INT32"}, "value": {"tensor": {"dtype": "DT_INT32", "tensorShape": {"dim": [{"size": "1"}]}}}}}, {"name": "StatefulPartitionedCall/tfgpt2lm_head_model_1/transformer/h_._5/attn/c_attn/strided_slice/stack_1", "op": "Const", "attr": {"dtype": {"type": "DT_INT32"}, "value": {"tensor": {"dtype": "DT_INT32", "tensorShape": {"dim": [{"size": "1"}]}}}}}, {"name": "StatefulPartitionedCall/tfgpt2lm_head_model_1/transformer/h_._5/attn/c_attn/strided_slice/stack_2", "op": "Const", "attr": {"dtype": {"type": "DT_INT32"}, "value": {"tensor": {"dtype": "DT_INT32", "tensorShape": {"dim": [{"size": "1"}]}}}}}, {"name": "StatefulPartitionedCall/tfgpt2lm_head_model_1/transformer/h_._5/ln_1/batchnorm/ReadVariableOp", "op": "Const", "attr": {"value": {"tensor": {"dtype": "DT_FLOAT", "tensorShape": {"dim": [{"size": "768"}]}}}, "dtype": {"type": "DT_FLOAT"}}}, {"name": "StatefulPartitionedCall/tfgpt2lm_head_model_1/transformer/h_._4/mlp/c_proj/Reshape/shape", "op": "Const", "attr": {"value": {"tensor": {"dtype": "DT_INT32", "tensorShape": {"dim": [{"size": "2"}]}}}, "dtype": {"type": "DT_INT32"}}}, {"name": "StatefulPartitionedCall/tfgpt2lm_head_model_1/transformer/h_._4/mlp/c_proj/MatMul/ReadVariableOp", "op": "Const", "attr": {"value": {"tensor": {"dtype": "DT_FLOAT", "tensorShape": {"dim": [{"size": "3072"}, {"size": "768"}]}}}, "dtype": {"type": "DT_FLOAT"}}}, {"name": "StatefulPartitionedCall/tfgpt2lm_head_model_1/transformer/h_._4/mlp/c_proj/add/ReadVariableOp", "op": "Const", "attr": {"value": {"tensor": {"dtype": "DT_FLOAT", "tensorShape": {"dim": [{"size": "1"}, {"size": "768"}]}}}, "dtype": {"type": "DT_FLOAT"}}}, {"name": "StatefulPartitionedCall/tfgpt2lm_head_model_1/transformer/h_._4/mlp/c_proj/strided_slice/stack", "op": "Const", "attr": {"dtype": {"type": "DT_INT32"}, "value": {"tensor": {"dtype": "DT_INT32", "tensorShape": {"dim": [{"size": "1"}]}}}}}, {"name": "StatefulPartitionedCall/tfgpt2lm_head_model_1/transformer/h_._4/mlp/c_proj/strided_slice/stack_1", "op": "Const", "attr": {"value": {"tensor": {"dtype": "DT_INT32", "tensorShape": {"dim": [{"size": "1"}]}}}, "dtype": {"type": "DT_INT32"}}}, {"name": "StatefulPartitionedCall/tfgpt2lm_head_model_1/transformer/h_._4/mlp/c_proj/strided_slice/stack_2", "op": "Const", "attr": {"value": {"tensor": {"dtype": "DT_INT32", "tensorShape": {"dim": [{"size": "1"}]}}}, "dtype": {"type": "DT_INT32"}}}, {"name": "StatefulPartitionedCall/tfgpt2lm_head_model_1/transformer/h_._4/mlp/Gelu/mul/x", "op": "Const", "attr": {"value": {"tensor": {"dtype": "DT_FLOAT", "tensorShape": {}}}, "dtype": {"type": "DT_FLOAT"}}}, {"name": "StatefulPartitionedCall/tfgpt2lm_head_model_1/transformer/h_._4/mlp/Gelu/add_1/x", "op": "Const", "attr": {"value": {"tensor": {"dtype": "DT_FLOAT", "tensorShape": {}}}, "dtype": {"type": "DT_FLOAT"}}}, {"name": "StatefulPartitionedCall/tfgpt2lm_head_model_1/transformer/h_._4/mlp/Gelu/mul_2/x", "op": "Const", "attr": {"value": {"tensor": {"dtype": "DT_FLOAT", "tensorShape": {}}}, "dtype": {"type": "DT_FLOAT"}}}, {"name": "StatefulPartitionedCall/tfgpt2lm_head_model_1/transformer/h_._4/mlp/Gelu/Cast/x", "op": "Const", "attr": {"dtype": {"type": "DT_FLOAT"}, "value": {"tensor": {"dtype": "DT_FLOAT", "tensorShape": {}}}}}, {"name": "StatefulPartitionedCall/tfgpt2lm_head_model_1/transformer/h_._4/mlp/c_fc/Reshape/shape", "op": "Const", "attr": {"dtype": {"type": "DT_INT32"}, "value": {"tensor": {"dtype": "DT_INT32", "tensorShape": {"dim": [{"size": "2"}]}}}}}, {"name": "StatefulPartitionedCall/tfgpt2lm_head_model_1/transformer/h_._4/mlp/c_fc/MatMul/ReadVariableOp", "op": "Const", "attr": {"value": {"tensor": {"dtype": "DT_FLOAT", "tensorShape": {"dim": [{"size": "768"}, {"size": "3072"}]}}}, "dtype": {"type": "DT_FLOAT"}}}, {"name": "StatefulPartitionedCall/tfgpt2lm_head_model_1/transformer/h_._4/mlp/c_fc/add/ReadVariableOp", "op": "Const", "attr": {"value": {"tensor": {"dtype": "DT_FLOAT", "tensorShape": {"dim": [{"size": "1"}, {"size": "3072"}]}}}, "dtype": {"type": "DT_FLOAT"}}}, {"name": "StatefulPartitionedCall/tfgpt2lm_head_model_1/transformer/h_._4/mlp/c_fc/strided_slice/stack", "op": "Const", "attr": {"dtype": {"type": "DT_INT32"}, "value": {"tensor": {"dtype": "DT_INT32", "tensorShape": {"dim": [{"size": "1"}]}}}}}, {"name": "StatefulPartitionedCall/tfgpt2lm_head_model_1/transformer/h_._4/mlp/c_fc/strided_slice/stack_1", "op": "Const", "attr": {"dtype": {"type": "DT_INT32"}, "value": {"tensor": {"dtype": "DT_INT32", "tensorShape": {"dim": [{"size": "1"}]}}}}}, {"name": "StatefulPartitionedCall/tfgpt2lm_head_model_1/transformer/h_._4/mlp/c_fc/strided_slice/stack_2", "op": "Const", "attr": {"value": {"tensor": {"dtype": "DT_INT32", "tensorShape": {"dim": [{"size": "1"}]}}}, "dtype": {"type": "DT_INT32"}}}, {"name": "StatefulPartitionedCall/tfgpt2lm_head_model_1/transformer/h_._4/ln_2/batchnorm/ReadVariableOp", "op": "Const", "attr": {"dtype": {"type": "DT_FLOAT"}, "value": {"tensor": {"dtype": "DT_FLOAT", "tensorShape": {"dim": [{"size": "768"}]}}}}}, {"name": "StatefulPartitionedCall/tfgpt2lm_head_model_1/transformer/h_._4/attn/c_proj/Reshape/shape", "op": "Const", "attr": {"value": {"tensor": {"dtype": "DT_INT32", "tensorShape": {"dim": [{"size": "2"}]}}}, "dtype": {"type": "DT_INT32"}}}, {"name": "StatefulPartitionedCall/tfgpt2lm_head_model_1/transformer/h_._4/attn/c_proj/MatMul/ReadVariableOp", "op": "Const", "attr": {"dtype": {"type": "DT_FLOAT"}, "value": {"tensor": {"dtype": "DT_FLOAT", "tensorShape": {"dim": [{"size": "768"}, {"size": "768"}]}}}}}, {"name": "StatefulPartitionedCall/tfgpt2lm_head_model_1/transformer/h_._4/attn/c_proj/add/ReadVariableOp", "op": "Const", "attr": {"dtype": {"type": "DT_FLOAT"}, "value": {"tensor": {"dtype": "DT_FLOAT", "tensorShape": {"dim": [{"size": "1"}, {"size": "768"}]}}}}}, {"name": "StatefulPartitionedCall/tfgpt2lm_head_model_1/transformer/h_._4/attn/c_proj/strided_slice/stack", "op": "Const", "attr": {"dtype": {"type": "DT_INT32"}, "value": {"tensor": {"dtype": "DT_INT32", "tensorShape": {"dim": [{"size": "1"}]}}}}}, {"name": "StatefulPartitionedCall/tfgpt2lm_head_model_1/transformer/h_._4/attn/c_proj/strided_slice/stack_1", "op": "Const", "attr": {"dtype": {"type": "DT_INT32"}, "value": {"tensor": {"dtype": "DT_INT32", "tensorShape": {"dim": [{"size": "1"}]}}}}}, {"name": "StatefulPartitionedCall/tfgpt2lm_head_model_1/transformer/h_._4/attn/c_proj/strided_slice/stack_2", "op": "Const", "attr": {"value": {"tensor": {"dtype": "DT_INT32", "tensorShape": {"dim": [{"size": "1"}]}}}, "dtype": {"type": "DT_INT32"}}}, {"name": "StatefulPartitionedCall/tfgpt2lm_head_model_1/transformer/h_._4/attn/strided_slice_12/stack", "op": "Const", "attr": {"dtype": {"type": "DT_INT32"}, "value": {"tensor": {"dtype": "DT_INT32", "tensorShape": {"dim": [{"size": "1"}]}}}}}, {"name": "StatefulPartitionedCall/tfgpt2lm_head_model_1/transformer/h_._4/attn/strided_slice_12/stack_1", "op": "Const", "attr": {"dtype": {"type": "DT_INT32"}, "value": {"tensor": {"dtype": "DT_INT32", "tensorShape": {"dim": [{"size": "1"}]}}}}}, {"name": "StatefulPartitionedCall/tfgpt2lm_head_model_1/transformer/h_._4/attn/strided_slice_12/stack_2", "op": "Const", "attr": {"dtype": {"type": "DT_INT32"}, "value": {"tensor": {"dtype": "DT_INT32", "tensorShape": {"dim": [{"size": "1"}]}}}}}, {"name": "StatefulPartitionedCall/tfgpt2lm_head_model_1/transformer/h_._4/attn/mul_1/x", "op": "Const", "attr": {"dtype": {"type": "DT_FLOAT"}, "value": {"tensor": {"dtype": "DT_FLOAT", "tensorShape": {}}}}}, {"name": "StatefulPartitionedCall/tfgpt2lm_head_model_1/transformer/h_._4/attn/sub_1/x", "op": "Const", "attr": {"value": {"tensor": {"dtype": "DT_FLOAT", "tensorShape": {}}}, "dtype": {"type": "DT_FLOAT"}}}, {"name": "StatefulPartitionedCall/tfgpt2lm_head_model_1/transformer/h_._4/attn/range/start", "op": "Const", "attr": {"dtype": {"type": "DT_INT32"}, "value": {"tensor": {"dtype": "DT_INT32", "tensorShape": {}}}}}, {"name": "StatefulPartitionedCall/tfgpt2lm_head_model_1/transformer/h_._4/attn/range/delta", "op": "Const", "attr": {"value": {"tensor": {"dtype": "DT_INT32", "tensorShape": {}}}, "dtype": {"type": "DT_INT32"}}}, {"name": "StatefulPartitionedCall/tfgpt2lm_head_model_1/transformer/h_._4/attn/strided_slice_11/stack", "op": "Const", "attr": {"value": {"tensor": {"dtype": "DT_INT32", "tensorShape": {"dim": [{"size": "2"}]}}}, "dtype": {"type": "DT_INT32"}}}, {"name": "StatefulPartitionedCall/tfgpt2lm_head_model_1/transformer/h_._4/attn/strided_slice_11/stack_1", "op": "Const", "attr": {"value": {"tensor": {"dtype": "DT_INT32", "tensorShape": {"dim": [{"size": "2"}]}}}, "dtype": {"type": "DT_INT32"}}}, {"name": "StatefulPartitionedCall/tfgpt2lm_head_model_1/transformer/h_._4/attn/strided_slice_11/stack_2", "op": "Const", "attr": {"value": {"tensor": {"dtype": "DT_INT32", "tensorShape": {"dim": [{"size": "2"}]}}}, "dtype": {"type": "DT_INT32"}}}, {"name": "StatefulPartitionedCall/tfgpt2lm_head_model_1/transformer/h_._4/attn/range_1/start", "op": "Const", "attr": {"value": {"tensor": {"dtype": "DT_INT32", "tensorShape": {}}}, "dtype": {"type": "DT_INT32"}}}, {"name": "StatefulPartitionedCall/tfgpt2lm_head_model_1/transformer/h_._4/attn/range_1/delta", "op": "Const", "attr": {"dtype": {"type": "DT_INT32"}, "value": {"tensor": {"dtype": "DT_INT32", "tensorShape": {}}}}}, {"name": "StatefulPartitionedCall/tfgpt2lm_head_model_1/transformer/h_._4/attn/Reshape_3/shape/0", "op": "Const", "attr": {"dtype": {"type": "DT_INT32"}, "value": {"tensor": {"dtype": "DT_INT32", "tensorShape": {}}}}}, {"name": "StatefulPartitionedCall/tfgpt2lm_head_model_1/transformer/h_._4/attn/Reshape_3/shape/1", "op": "Const", "attr": {"value": {"tensor": {"dtype": "DT_INT32", "tensorShape": {}}}, "dtype": {"type": "DT_INT32"}}}, {"name": "StatefulPartitionedCall/tfgpt2lm_head_model_1/transformer/h_._4/attn/strided_slice_9/stack", "op": "Const", "attr": {"value": {"tensor": {"dtype": "DT_INT32", "tensorShape": {"dim": [{"size": "1"}]}}}, "dtype": {"type": "DT_INT32"}}}, {"name": "StatefulPartitionedCall/tfgpt2lm_head_model_1/transformer/h_._4/attn/strided_slice_9/stack_1", "op": "Const", "attr": {"value": {"tensor": {"dtype": "DT_INT32", "tensorShape": {"dim": [{"size": "1"}]}}}, "dtype": {"type": "DT_INT32"}}}, {"name": "StatefulPartitionedCall/tfgpt2lm_head_model_1/transformer/h_._4/attn/strided_slice_9/stack_2", "op": "Const", "attr": {"dtype": {"type": "DT_INT32"}, "value": {"tensor": {"dtype": "DT_INT32", "tensorShape": {"dim": [{"size": "1"}]}}}}}, {"name": "StatefulPartitionedCall/tfgpt2lm_head_model_1/transformer/h_._4/attn/strided_slice/stack", "op": "Const", "attr": {"value": {"tensor": {"dtype": "DT_INT32", "tensorShape": {"dim": [{"size": "1"}]}}}, "dtype": {"type": "DT_INT32"}}}, {"name": "StatefulPartitionedCall/tfgpt2lm_head_model_1/transformer/h_._4/attn/strided_slice/stack_1", "op": "Const", "attr": {"value": {"tensor": {"dtype": "DT_INT32", "tensorShape": {"dim": [{"size": "1"}]}}}, "dtype": {"type": "DT_INT32"}}}, {"name": "StatefulPartitionedCall/tfgpt2lm_head_model_1/transformer/h_._4/attn/strided_slice/stack_2", "op": "Const", "attr": {"dtype": {"type": "DT_INT32"}, "value": {"tensor": {"dtype": "DT_INT32", "tensorShape": {"dim": [{"size": "1"}]}}}}}, {"name": "StatefulPartitionedCall/tfgpt2lm_head_model_1/transformer/h_._4/attn/strided_slice_1/stack", "op": "Const", "attr": {"dtype": {"type": "DT_INT32"}, "value": {"tensor": {"dtype": "DT_INT32", "tensorShape": {"dim": [{"size": "1"}]}}}}}, {"name": "StatefulPartitionedCall/tfgpt2lm_head_model_1/transformer/h_._4/attn/strided_slice_1/stack_1", "op": "Const", "attr": {"value": {"tensor": {"dtype": "DT_INT32", "tensorShape": {"dim": [{"size": "1"}]}}}, "dtype": {"type": "DT_INT32"}}}, {"name": "StatefulPartitionedCall/tfgpt2lm_head_model_1/transformer/h_._4/attn/strided_slice_1/stack_2", "op": "Const", "attr": {"value": {"tensor": {"dtype": "DT_INT32", "tensorShape": {"dim": [{"size": "1"}]}}}, "dtype": {"type": "DT_INT32"}}}, {"name": "StatefulPartitionedCall/tfgpt2lm_head_model_1/transformer/h_._4/attn/Reshape/shape/2", "op": "Const", "attr": {"dtype": {"type": "DT_INT32"}, "value": {"tensor": {"dtype": "DT_INT32", "tensorShape": {}}}}}, {"name": "StatefulPartitionedCall/tfgpt2lm_head_model_1/transformer/h_._4/attn/Reshape/shape/3", "op": "Const", "attr": {"value": {"tensor": {"dtype": "DT_INT32", "tensorShape": {}}}, "dtype": {"type": "DT_INT32"}}}, {"name": "StatefulPartitionedCall/tfgpt2lm_head_model_1/transformer/h_._4/attn/transpose/perm", "op": "Const", "attr": {"dtype": {"type": "DT_INT32"}, "value": {"tensor": {"dtype": "DT_INT32", "tensorShape": {"dim": [{"size": "4"}]}}}}}, {"name": "StatefulPartitionedCall/tfgpt2lm_head_model_1/transformer/h_._4/attn/strided_slice_2/stack", "op": "Const", "attr": {"value": {"tensor": {"dtype": "DT_INT32", "tensorShape": {"dim": [{"size": "1"}]}}}, "dtype": {"type": "DT_INT32"}}}, {"name": "StatefulPartitionedCall/tfgpt2lm_head_model_1/transformer/h_._4/attn/strided_slice_2/stack_1", "op": "Const", "attr": {"dtype": {"type": "DT_INT32"}, "value": {"tensor": {"dtype": "DT_INT32", "tensorShape": {"dim": [{"size": "1"}]}}}}}, {"name": "StatefulPartitionedCall/tfgpt2lm_head_model_1/transformer/h_._4/attn/strided_slice_2/stack_2", "op": "Const", "attr": {"dtype": {"type": "DT_INT32"}, "value": {"tensor": {"dtype": "DT_INT32", "tensorShape": {"dim": [{"size": "1"}]}}}}}, {"name": "StatefulPartitionedCall/tfgpt2lm_head_model_1/transformer/h_._4/attn/strided_slice_3/stack", "op": "Const", "attr": {"dtype": {"type": "DT_INT32"}, "value": {"tensor": {"dtype": "DT_INT32", "tensorShape": {"dim": [{"size": "1"}]}}}}}, {"name": "StatefulPartitionedCall/tfgpt2lm_head_model_1/transformer/h_._4/attn/strided_slice_3/stack_1", "op": "Const", "attr": {"value": {"tensor": {"dtype": "DT_INT32", "tensorShape": {"dim": [{"size": "1"}]}}}, "dtype": {"type": "DT_INT32"}}}, {"name": "StatefulPartitionedCall/tfgpt2lm_head_model_1/transformer/h_._4/attn/strided_slice_3/stack_2", "op": "Const", "attr": {"value": {"tensor": {"dtype": "DT_INT32", "tensorShape": {"dim": [{"size": "1"}]}}}, "dtype": {"type": "DT_INT32"}}}, {"name": "StatefulPartitionedCall/tfgpt2lm_head_model_1/transformer/h_._4/attn/Reshape_1/shape/2", "op": "Const", "attr": {"value": {"tensor": {"dtype": "DT_INT32", "tensorShape": {}}}, "dtype": {"type": "DT_INT32"}}}, {"name": "StatefulPartitionedCall/tfgpt2lm_head_model_1/transformer/h_._4/attn/Reshape_1/shape/3", "op": "Const", "attr": {"dtype": {"type": "DT_INT32"}, "value": {"tensor": {"dtype": "DT_INT32", "tensorShape": {}}}}}, {"name": "StatefulPartitionedCall/tfgpt2lm_head_model_1/transformer/h_._4/attn/transpose_1/perm", "op": "Const", "attr": {"value": {"tensor": {"dtype": "DT_INT32", "tensorShape": {"dim": [{"size": "4"}]}}}, "dtype": {"type": "DT_INT32"}}}, {"name": "ConstantFolding/StatefulPartitionedCall/tfgpt2lm_head_model_1/transformer/h_._4/attn/truediv_recip", "op": "Const", "attr": {"dtype": {"type": "DT_FLOAT"}, "value": {"tensor": {"dtype": "DT_FLOAT", "tensorShape": {}}}}}, {"name": "StatefulPartitionedCall/tfgpt2lm_head_model_1/transformer/h_._4/attn/strided_slice_10/stack", "op": "Const", "attr": {"dtype": {"type": "DT_INT32"}, "value": {"tensor": {"dtype": "DT_INT32", "tensorShape": {"dim": [{"size": "1"}]}}}}}, {"name": "StatefulPartitionedCall/tfgpt2lm_head_model_1/transformer/h_._4/attn/strided_slice_10/stack_1", "op": "Const", "attr": {"value": {"tensor": {"dtype": "DT_INT32", "tensorShape": {"dim": [{"size": "1"}]}}}, "dtype": {"type": "DT_INT32"}}}, {"name": "StatefulPartitionedCall/tfgpt2lm_head_model_1/transformer/h_._4/attn/strided_slice_10/stack_2", "op": "Const", "attr": {"dtype": {"type": "DT_INT32"}, "value": {"tensor": {"dtype": "DT_INT32", "tensorShape": {"dim": [{"size": "1"}]}}}}}, {"name": "StatefulPartitionedCall/tfgpt2lm_head_model_1/transformer/h_._4/attn/add_2/y", "op": "Const", "attr": {"dtype": {"type": "DT_FLOAT"}, "value": {"tensor": {"dtype": "DT_FLOAT", "tensorShape": {}}}}}, {"name": "StatefulPartitionedCall/tfgpt2lm_head_model_1/transformer/h_._4/attn/strided_slice_4/stack", "op": "Const", "attr": {"value": {"tensor": {"dtype": "DT_INT32", "tensorShape": {"dim": [{"size": "1"}]}}}, "dtype": {"type": "DT_INT32"}}}, {"name": "StatefulPartitionedCall/tfgpt2lm_head_model_1/transformer/h_._4/attn/strided_slice_4/stack_1", "op": "Const", "attr": {"value": {"tensor": {"dtype": "DT_INT32", "tensorShape": {"dim": [{"size": "1"}]}}}, "dtype": {"type": "DT_INT32"}}}, {"name": "StatefulPartitionedCall/tfgpt2lm_head_model_1/transformer/h_._4/attn/strided_slice_4/stack_2", "op": "Const", "attr": {"dtype": {"type": "DT_INT32"}, "value": {"tensor": {"dtype": "DT_INT32", "tensorShape": {"dim": [{"size": "1"}]}}}}}, {"name": "StatefulPartitionedCall/tfgpt2lm_head_model_1/transformer/h_._4/attn/split/split_dim", "op": "Const", "attr": {"value": {"tensor": {"dtype": "DT_INT32", "tensorShape": {}}}, "dtype": {"type": "DT_INT32"}}}, {"name": "StatefulPartitionedCall/tfgpt2lm_head_model_1/transformer/h_._4/attn/c_attn/Reshape/shape", "op": "Const", "attr": {"dtype": {"type": "DT_INT32"}, "value": {"tensor": {"dtype": "DT_INT32", "tensorShape": {"dim": [{"size": "2"}]}}}}}, {"name": "StatefulPartitionedCall/tfgpt2lm_head_model_1/transformer/h_._4/attn/c_attn/MatMul/ReadVariableOp", "op": "Const", "attr": {"dtype": {"type": "DT_FLOAT"}, "value": {"tensor": {"dtype": "DT_FLOAT", "tensorShape": {"dim": [{"size": "768"}, {"size": "2304"}]}}}}}, {"name": "StatefulPartitionedCall/tfgpt2lm_head_model_1/transformer/h_._4/attn/c_attn/add/ReadVariableOp", "op": "Const", "attr": {"dtype": {"type": "DT_FLOAT"}, "value": {"tensor": {"dtype": "DT_FLOAT", "tensorShape": {"dim": [{"size": "1"}, {"size": "2304"}]}}}}}, {"name": "StatefulPartitionedCall/tfgpt2lm_head_model_1/transformer/h_._4/attn/c_attn/strided_slice/stack", "op": "Const", "attr": {"value": {"tensor": {"dtype": "DT_INT32", "tensorShape": {"dim": [{"size": "1"}]}}}, "dtype": {"type": "DT_INT32"}}}, {"name": "StatefulPartitionedCall/tfgpt2lm_head_model_1/transformer/h_._4/attn/c_attn/strided_slice/stack_1", "op": "Const", "attr": {"value": {"tensor": {"dtype": "DT_INT32", "tensorShape": {"dim": [{"size": "1"}]}}}, "dtype": {"type": "DT_INT32"}}}, {"name": "StatefulPartitionedCall/tfgpt2lm_head_model_1/transformer/h_._4/attn/c_attn/strided_slice/stack_2", "op": "Const", "attr": {"dtype": {"type": "DT_INT32"}, "value": {"tensor": {"dtype": "DT_INT32", "tensorShape": {"dim": [{"size": "1"}]}}}}}, {"name": "StatefulPartitionedCall/tfgpt2lm_head_model_1/transformer/h_._4/ln_1/batchnorm/ReadVariableOp", "op": "Const", "attr": {"dtype": {"type": "DT_FLOAT"}, "value": {"tensor": {"dtype": "DT_FLOAT", "tensorShape": {"dim": [{"size": "768"}]}}}}}, {"name": "StatefulPartitionedCall/tfgpt2lm_head_model_1/transformer/h_._3/mlp/c_proj/Reshape/shape", "op": "Const", "attr": {"dtype": {"type": "DT_INT32"}, "value": {"tensor": {"dtype": "DT_INT32", "tensorShape": {"dim": [{"size": "2"}]}}}}}, {"name": "StatefulPartitionedCall/tfgpt2lm_head_model_1/transformer/h_._3/mlp/c_proj/MatMul/ReadVariableOp", "op": "Const", "attr": {"dtype": {"type": "DT_FLOAT"}, "value": {"tensor": {"dtype": "DT_FLOAT", "tensorShape": {"dim": [{"size": "3072"}, {"size": "768"}]}}}}}, {"name": "StatefulPartitionedCall/tfgpt2lm_head_model_1/transformer/h_._3/mlp/c_proj/add/ReadVariableOp", "op": "Const", "attr": {"dtype": {"type": "DT_FLOAT"}, "value": {"tensor": {"dtype": "DT_FLOAT", "tensorShape": {"dim": [{"size": "1"}, {"size": "768"}]}}}}}, {"name": "StatefulPartitionedCall/tfgpt2lm_head_model_1/transformer/h_._3/mlp/c_proj/strided_slice/stack", "op": "Const", "attr": {"dtype": {"type": "DT_INT32"}, "value": {"tensor": {"dtype": "DT_INT32", "tensorShape": {"dim": [{"size": "1"}]}}}}}, {"name": "StatefulPartitionedCall/tfgpt2lm_head_model_1/transformer/h_._3/mlp/c_proj/strided_slice/stack_1", "op": "Const", "attr": {"dtype": {"type": "DT_INT32"}, "value": {"tensor": {"dtype": "DT_INT32", "tensorShape": {"dim": [{"size": "1"}]}}}}}, {"name": "StatefulPartitionedCall/tfgpt2lm_head_model_1/transformer/h_._3/mlp/c_proj/strided_slice/stack_2", "op": "Const", "attr": {"dtype": {"type": "DT_INT32"}, "value": {"tensor": {"dtype": "DT_INT32", "tensorShape": {"dim": [{"size": "1"}]}}}}}, {"name": "StatefulPartitionedCall/tfgpt2lm_head_model_1/transformer/h_._3/mlp/Gelu/mul/x", "op": "Const", "attr": {"value": {"tensor": {"dtype": "DT_FLOAT", "tensorShape": {}}}, "dtype": {"type": "DT_FLOAT"}}}, {"name": "StatefulPartitionedCall/tfgpt2lm_head_model_1/transformer/h_._3/mlp/Gelu/add_1/x", "op": "Const", "attr": {"value": {"tensor": {"dtype": "DT_FLOAT", "tensorShape": {}}}, "dtype": {"type": "DT_FLOAT"}}}, {"name": "StatefulPartitionedCall/tfgpt2lm_head_model_1/transformer/h_._3/mlp/Gelu/mul_2/x", "op": "Const", "attr": {"dtype": {"type": "DT_FLOAT"}, "value": {"tensor": {"dtype": "DT_FLOAT", "tensorShape": {}}}}}, {"name": "StatefulPartitionedCall/tfgpt2lm_head_model_1/transformer/h_._3/mlp/Gelu/Cast/x", "op": "Const", "attr": {"value": {"tensor": {"dtype": "DT_FLOAT", "tensorShape": {}}}, "dtype": {"type": "DT_FLOAT"}}}, {"name": "StatefulPartitionedCall/tfgpt2lm_head_model_1/transformer/h_._3/mlp/c_fc/Reshape/shape", "op": "Const", "attr": {"value": {"tensor": {"dtype": "DT_INT32", "tensorShape": {"dim": [{"size": "2"}]}}}, "dtype": {"type": "DT_INT32"}}}, {"name": "StatefulPartitionedCall/tfgpt2lm_head_model_1/transformer/h_._3/mlp/c_fc/MatMul/ReadVariableOp", "op": "Const", "attr": {"dtype": {"type": "DT_FLOAT"}, "value": {"tensor": {"dtype": "DT_FLOAT", "tensorShape": {"dim": [{"size": "768"}, {"size": "3072"}]}}}}}, {"name": "StatefulPartitionedCall/tfgpt2lm_head_model_1/transformer/h_._3/mlp/c_fc/add/ReadVariableOp", "op": "Const", "attr": {"value": {"tensor": {"dtype": "DT_FLOAT", "tensorShape": {"dim": [{"size": "1"}, {"size": "3072"}]}}}, "dtype": {"type": "DT_FLOAT"}}}, {"name": "StatefulPartitionedCall/tfgpt2lm_head_model_1/transformer/h_._3/mlp/c_fc/strided_slice/stack", "op": "Const", "attr": {"dtype": {"type": "DT_INT32"}, "value": {"tensor": {"dtype": "DT_INT32", "tensorShape": {"dim": [{"size": "1"}]}}}}}, {"name": "StatefulPartitionedCall/tfgpt2lm_head_model_1/transformer/h_._3/mlp/c_fc/strided_slice/stack_1", "op": "Const", "attr": {"dtype": {"type": "DT_INT32"}, "value": {"tensor": {"dtype": "DT_INT32", "tensorShape": {"dim": [{"size": "1"}]}}}}}, {"name": "StatefulPartitionedCall/tfgpt2lm_head_model_1/transformer/h_._3/mlp/c_fc/strided_slice/stack_2", "op": "Const", "attr": {"dtype": {"type": "DT_INT32"}, "value": {"tensor": {"dtype": "DT_INT32", "tensorShape": {"dim": [{"size": "1"}]}}}}}, {"name": "StatefulPartitionedCall/tfgpt2lm_head_model_1/transformer/h_._3/ln_2/batchnorm/ReadVariableOp", "op": "Const", "attr": {"value": {"tensor": {"dtype": "DT_FLOAT", "tensorShape": {"dim": [{"size": "768"}]}}}, "dtype": {"type": "DT_FLOAT"}}}, {"name": "StatefulPartitionedCall/tfgpt2lm_head_model_1/transformer/h_._3/attn/c_proj/Reshape/shape", "op": "Const", "attr": {"dtype": {"type": "DT_INT32"}, "value": {"tensor": {"dtype": "DT_INT32", "tensorShape": {"dim": [{"size": "2"}]}}}}}, {"name": "StatefulPartitionedCall/tfgpt2lm_head_model_1/transformer/h_._3/attn/c_proj/MatMul/ReadVariableOp", "op": "Const", "attr": {"value": {"tensor": {"dtype": "DT_FLOAT", "tensorShape": {"dim": [{"size": "768"}, {"size": "768"}]}}}, "dtype": {"type": "DT_FLOAT"}}}, {"name": "StatefulPartitionedCall/tfgpt2lm_head_model_1/transformer/h_._3/attn/c_proj/add/ReadVariableOp", "op": "Const", "attr": {"value": {"tensor": {"dtype": "DT_FLOAT", "tensorShape": {"dim": [{"size": "1"}, {"size": "768"}]}}}, "dtype": {"type": "DT_FLOAT"}}}, {"name": "StatefulPartitionedCall/tfgpt2lm_head_model_1/transformer/h_._3/attn/c_proj/strided_slice/stack", "op": "Const", "attr": {"dtype": {"type": "DT_INT32"}, "value": {"tensor": {"dtype": "DT_INT32", "tensorShape": {"dim": [{"size": "1"}]}}}}}, {"name": "StatefulPartitionedCall/tfgpt2lm_head_model_1/transformer/h_._3/attn/c_proj/strided_slice/stack_1", "op": "Const", "attr": {"value": {"tensor": {"dtype": "DT_INT32", "tensorShape": {"dim": [{"size": "1"}]}}}, "dtype": {"type": "DT_INT32"}}}, {"name": "StatefulPartitionedCall/tfgpt2lm_head_model_1/transformer/h_._3/attn/c_proj/strided_slice/stack_2", "op": "Const", "attr": {"dtype": {"type": "DT_INT32"}, "value": {"tensor": {"dtype": "DT_INT32", "tensorShape": {"dim": [{"size": "1"}]}}}}}, {"name": "StatefulPartitionedCall/tfgpt2lm_head_model_1/transformer/h_._3/attn/strided_slice_12/stack", "op": "Const", "attr": {"dtype": {"type": "DT_INT32"}, "value": {"tensor": {"dtype": "DT_INT32", "tensorShape": {"dim": [{"size": "1"}]}}}}}, {"name": "StatefulPartitionedCall/tfgpt2lm_head_model_1/transformer/h_._3/attn/strided_slice_12/stack_1", "op": "Const", "attr": {"value": {"tensor": {"dtype": "DT_INT32", "tensorShape": {"dim": [{"size": "1"}]}}}, "dtype": {"type": "DT_INT32"}}}, {"name": "StatefulPartitionedCall/tfgpt2lm_head_model_1/transformer/h_._3/attn/strided_slice_12/stack_2", "op": "Const", "attr": {"value": {"tensor": {"dtype": "DT_INT32", "tensorShape": {"dim": [{"size": "1"}]}}}, "dtype": {"type": "DT_INT32"}}}, {"name": "StatefulPartitionedCall/tfgpt2lm_head_model_1/transformer/h_._3/attn/mul_1/x", "op": "Const", "attr": {"value": {"tensor": {"dtype": "DT_FLOAT", "tensorShape": {}}}, "dtype": {"type": "DT_FLOAT"}}}, {"name": "StatefulPartitionedCall/tfgpt2lm_head_model_1/transformer/h_._3/attn/sub_1/x", "op": "Const", "attr": {"value": {"tensor": {"dtype": "DT_FLOAT", "tensorShape": {}}}, "dtype": {"type": "DT_FLOAT"}}}, {"name": "StatefulPartitionedCall/tfgpt2lm_head_model_1/transformer/h_._3/attn/range/start", "op": "Const", "attr": {"dtype": {"type": "DT_INT32"}, "value": {"tensor": {"dtype": "DT_INT32", "tensorShape": {}}}}}, {"name": "StatefulPartitionedCall/tfgpt2lm_head_model_1/transformer/h_._3/attn/range/delta", "op": "Const", "attr": {"dtype": {"type": "DT_INT32"}, "value": {"tensor": {"dtype": "DT_INT32", "tensorShape": {}}}}}, {"name": "StatefulPartitionedCall/tfgpt2lm_head_model_1/transformer/h_._3/attn/strided_slice_11/stack", "op": "Const", "attr": {"value": {"tensor": {"dtype": "DT_INT32", "tensorShape": {"dim": [{"size": "2"}]}}}, "dtype": {"type": "DT_INT32"}}}, {"name": "StatefulPartitionedCall/tfgpt2lm_head_model_1/transformer/h_._3/attn/strided_slice_11/stack_1", "op": "Const", "attr": {"dtype": {"type": "DT_INT32"}, "value": {"tensor": {"dtype": "DT_INT32", "tensorShape": {"dim": [{"size": "2"}]}}}}}, {"name": "StatefulPartitionedCall/tfgpt2lm_head_model_1/transformer/h_._3/attn/strided_slice_11/stack_2", "op": "Const", "attr": {"dtype": {"type": "DT_INT32"}, "value": {"tensor": {"dtype": "DT_INT32", "tensorShape": {"dim": [{"size": "2"}]}}}}}, {"name": "StatefulPartitionedCall/tfgpt2lm_head_model_1/transformer/h_._3/attn/range_1/start", "op": "Const", "attr": {"dtype": {"type": "DT_INT32"}, "value": {"tensor": {"dtype": "DT_INT32", "tensorShape": {}}}}}, {"name": "StatefulPartitionedCall/tfgpt2lm_head_model_1/transformer/h_._3/attn/range_1/delta", "op": "Const", "attr": {"dtype": {"type": "DT_INT32"}, "value": {"tensor": {"dtype": "DT_INT32", "tensorShape": {}}}}}, {"name": "StatefulPartitionedCall/tfgpt2lm_head_model_1/transformer/h_._3/attn/Reshape_3/shape/0", "op": "Const", "attr": {"dtype": {"type": "DT_INT32"}, "value": {"tensor": {"dtype": "DT_INT32", "tensorShape": {}}}}}, {"name": "StatefulPartitionedCall/tfgpt2lm_head_model_1/transformer/h_._3/attn/Reshape_3/shape/1", "op": "Const", "attr": {"value": {"tensor": {"dtype": "DT_INT32", "tensorShape": {}}}, "dtype": {"type": "DT_INT32"}}}, {"name": "StatefulPartitionedCall/tfgpt2lm_head_model_1/transformer/h_._3/attn/strided_slice_9/stack", "op": "Const", "attr": {"value": {"tensor": {"dtype": "DT_INT32", "tensorShape": {"dim": [{"size": "1"}]}}}, "dtype": {"type": "DT_INT32"}}}, {"name": "StatefulPartitionedCall/tfgpt2lm_head_model_1/transformer/h_._3/attn/strided_slice_9/stack_1", "op": "Const", "attr": {"dtype": {"type": "DT_INT32"}, "value": {"tensor": {"dtype": "DT_INT32", "tensorShape": {"dim": [{"size": "1"}]}}}}}, {"name": "StatefulPartitionedCall/tfgpt2lm_head_model_1/transformer/h_._3/attn/strided_slice_9/stack_2", "op": "Const", "attr": {"value": {"tensor": {"dtype": "DT_INT32", "tensorShape": {"dim": [{"size": "1"}]}}}, "dtype": {"type": "DT_INT32"}}}, {"name": "StatefulPartitionedCall/tfgpt2lm_head_model_1/transformer/h_._3/attn/strided_slice/stack", "op": "Const", "attr": {"value": {"tensor": {"dtype": "DT_INT32", "tensorShape": {"dim": [{"size": "1"}]}}}, "dtype": {"type": "DT_INT32"}}}, {"name": "StatefulPartitionedCall/tfgpt2lm_head_model_1/transformer/h_._3/attn/strided_slice/stack_1", "op": "Const", "attr": {"value": {"tensor": {"dtype": "DT_INT32", "tensorShape": {"dim": [{"size": "1"}]}}}, "dtype": {"type": "DT_INT32"}}}, {"name": "StatefulPartitionedCall/tfgpt2lm_head_model_1/transformer/h_._3/attn/strided_slice/stack_2", "op": "Const", "attr": {"value": {"tensor": {"dtype": "DT_INT32", "tensorShape": {"dim": [{"size": "1"}]}}}, "dtype": {"type": "DT_INT32"}}}, {"name": "StatefulPartitionedCall/tfgpt2lm_head_model_1/transformer/h_._3/attn/strided_slice_1/stack", "op": "Const", "attr": {"dtype": {"type": "DT_INT32"}, "value": {"tensor": {"dtype": "DT_INT32", "tensorShape": {"dim": [{"size": "1"}]}}}}}, {"name": "StatefulPartitionedCall/tfgpt2lm_head_model_1/transformer/h_._3/attn/strided_slice_1/stack_1", "op": "Const", "attr": {"dtype": {"type": "DT_INT32"}, "value": {"tensor": {"dtype": "DT_INT32", "tensorShape": {"dim": [{"size": "1"}]}}}}}, {"name": "StatefulPartitionedCall/tfgpt2lm_head_model_1/transformer/h_._3/attn/strided_slice_1/stack_2", "op": "Const", "attr": {"dtype": {"type": "DT_INT32"}, "value": {"tensor": {"dtype": "DT_INT32", "tensorShape": {"dim": [{"size": "1"}]}}}}}, {"name": "StatefulPartitionedCall/tfgpt2lm_head_model_1/transformer/h_._3/attn/Reshape/shape/2", "op": "Const", "attr": {"value": {"tensor": {"dtype": "DT_INT32", "tensorShape": {}}}, "dtype": {"type": "DT_INT32"}}}, {"name": "StatefulPartitionedCall/tfgpt2lm_head_model_1/transformer/h_._3/attn/Reshape/shape/3", "op": "Const", "attr": {"value": {"tensor": {"dtype": "DT_INT32", "tensorShape": {}}}, "dtype": {"type": "DT_INT32"}}}, {"name": "StatefulPartitionedCall/tfgpt2lm_head_model_1/transformer/h_._3/attn/transpose/perm", "op": "Const", "attr": {"value": {"tensor": {"dtype": "DT_INT32", "tensorShape": {"dim": [{"size": "4"}]}}}, "dtype": {"type": "DT_INT32"}}}, {"name": "StatefulPartitionedCall/tfgpt2lm_head_model_1/transformer/h_._3/attn/strided_slice_2/stack", "op": "Const", "attr": {"value": {"tensor": {"dtype": "DT_INT32", "tensorShape": {"dim": [{"size": "1"}]}}}, "dtype": {"type": "DT_INT32"}}}, {"name": "StatefulPartitionedCall/tfgpt2lm_head_model_1/transformer/h_._3/attn/strided_slice_2/stack_1", "op": "Const", "attr": {"value": {"tensor": {"dtype": "DT_INT32", "tensorShape": {"dim": [{"size": "1"}]}}}, "dtype": {"type": "DT_INT32"}}}, {"name": "StatefulPartitionedCall/tfgpt2lm_head_model_1/transformer/h_._3/attn/strided_slice_2/stack_2", "op": "Const", "attr": {"value": {"tensor": {"dtype": "DT_INT32", "tensorShape": {"dim": [{"size": "1"}]}}}, "dtype": {"type": "DT_INT32"}}}, {"name": "StatefulPartitionedCall/tfgpt2lm_head_model_1/transformer/h_._3/attn/strided_slice_3/stack", "op": "Const", "attr": {"dtype": {"type": "DT_INT32"}, "value": {"tensor": {"dtype": "DT_INT32", "tensorShape": {"dim": [{"size": "1"}]}}}}}, {"name": "StatefulPartitionedCall/tfgpt2lm_head_model_1/transformer/h_._3/attn/strided_slice_3/stack_1", "op": "Const", "attr": {"value": {"tensor": {"dtype": "DT_INT32", "tensorShape": {"dim": [{"size": "1"}]}}}, "dtype": {"type": "DT_INT32"}}}, {"name": "StatefulPartitionedCall/tfgpt2lm_head_model_1/transformer/h_._3/attn/strided_slice_3/stack_2", "op": "Const", "attr": {"value": {"tensor": {"dtype": "DT_INT32", "tensorShape": {"dim": [{"size": "1"}]}}}, "dtype": {"type": "DT_INT32"}}}, {"name": "StatefulPartitionedCall/tfgpt2lm_head_model_1/transformer/h_._3/attn/Reshape_1/shape/2", "op": "Const", "attr": {"dtype": {"type": "DT_INT32"}, "value": {"tensor": {"dtype": "DT_INT32", "tensorShape": {}}}}}, {"name": "StatefulPartitionedCall/tfgpt2lm_head_model_1/transformer/h_._3/attn/Reshape_1/shape/3", "op": "Const", "attr": {"dtype": {"type": "DT_INT32"}, "value": {"tensor": {"dtype": "DT_INT32", "tensorShape": {}}}}}, {"name": "StatefulPartitionedCall/tfgpt2lm_head_model_1/transformer/h_._3/attn/transpose_1/perm", "op": "Const", "attr": {"value": {"tensor": {"dtype": "DT_INT32", "tensorShape": {"dim": [{"size": "4"}]}}}, "dtype": {"type": "DT_INT32"}}}, {"name": "ConstantFolding/StatefulPartitionedCall/tfgpt2lm_head_model_1/transformer/h_._3/attn/truediv_recip", "op": "Const", "attr": {"value": {"tensor": {"dtype": "DT_FLOAT", "tensorShape": {}}}, "dtype": {"type": "DT_FLOAT"}}}, {"name": "StatefulPartitionedCall/tfgpt2lm_head_model_1/transformer/h_._3/attn/strided_slice_10/stack", "op": "Const", "attr": {"value": {"tensor": {"dtype": "DT_INT32", "tensorShape": {"dim": [{"size": "1"}]}}}, "dtype": {"type": "DT_INT32"}}}, {"name": "StatefulPartitionedCall/tfgpt2lm_head_model_1/transformer/h_._3/attn/strided_slice_10/stack_1", "op": "Const", "attr": {"value": {"tensor": {"dtype": "DT_INT32", "tensorShape": {"dim": [{"size": "1"}]}}}, "dtype": {"type": "DT_INT32"}}}, {"name": "StatefulPartitionedCall/tfgpt2lm_head_model_1/transformer/h_._3/attn/strided_slice_10/stack_2", "op": "Const", "attr": {"value": {"tensor": {"dtype": "DT_INT32", "tensorShape": {"dim": [{"size": "1"}]}}}, "dtype": {"type": "DT_INT32"}}}, {"name": "StatefulPartitionedCall/tfgpt2lm_head_model_1/transformer/h_._3/attn/add_2/y", "op": "Const", "attr": {"dtype": {"type": "DT_FLOAT"}, "value": {"tensor": {"dtype": "DT_FLOAT", "tensorShape": {}}}}}, {"name": "StatefulPartitionedCall/tfgpt2lm_head_model_1/transformer/h_._3/attn/strided_slice_4/stack", "op": "Const", "attr": {"dtype": {"type": "DT_INT32"}, "value": {"tensor": {"dtype": "DT_INT32", "tensorShape": {"dim": [{"size": "1"}]}}}}}, {"name": "StatefulPartitionedCall/tfgpt2lm_head_model_1/transformer/h_._3/attn/strided_slice_4/stack_1", "op": "Const", "attr": {"dtype": {"type": "DT_INT32"}, "value": {"tensor": {"dtype": "DT_INT32", "tensorShape": {"dim": [{"size": "1"}]}}}}}, {"name": "StatefulPartitionedCall/tfgpt2lm_head_model_1/transformer/h_._3/attn/strided_slice_4/stack_2", "op": "Const", "attr": {"value": {"tensor": {"dtype": "DT_INT32", "tensorShape": {"dim": [{"size": "1"}]}}}, "dtype": {"type": "DT_INT32"}}}, {"name": "StatefulPartitionedCall/tfgpt2lm_head_model_1/transformer/h_._3/attn/split/split_dim", "op": "Const", "attr": {"dtype": {"type": "DT_INT32"}, "value": {"tensor": {"dtype": "DT_INT32", "tensorShape": {}}}}}, {"name": "StatefulPartitionedCall/tfgpt2lm_head_model_1/transformer/h_._3/attn/c_attn/Reshape/shape", "op": "Const", "attr": {"value": {"tensor": {"dtype": "DT_INT32", "tensorShape": {"dim": [{"size": "2"}]}}}, "dtype": {"type": "DT_INT32"}}}, {"name": "StatefulPartitionedCall/tfgpt2lm_head_model_1/transformer/h_._3/attn/c_attn/MatMul/ReadVariableOp", "op": "Const", "attr": {"dtype": {"type": "DT_FLOAT"}, "value": {"tensor": {"dtype": "DT_FLOAT", "tensorShape": {"dim": [{"size": "768"}, {"size": "2304"}]}}}}}, {"name": "StatefulPartitionedCall/tfgpt2lm_head_model_1/transformer/h_._3/attn/c_attn/add/ReadVariableOp", "op": "Const", "attr": {"dtype": {"type": "DT_FLOAT"}, "value": {"tensor": {"dtype": "DT_FLOAT", "tensorShape": {"dim": [{"size": "1"}, {"size": "2304"}]}}}}}, {"name": "StatefulPartitionedCall/tfgpt2lm_head_model_1/transformer/h_._3/attn/c_attn/strided_slice/stack", "op": "Const", "attr": {"value": {"tensor": {"dtype": "DT_INT32", "tensorShape": {"dim": [{"size": "1"}]}}}, "dtype": {"type": "DT_INT32"}}}, {"name": "StatefulPartitionedCall/tfgpt2lm_head_model_1/transformer/h_._3/attn/c_attn/strided_slice/stack_1", "op": "Const", "attr": {"dtype": {"type": "DT_INT32"}, "value": {"tensor": {"dtype": "DT_INT32", "tensorShape": {"dim": [{"size": "1"}]}}}}}, {"name": "StatefulPartitionedCall/tfgpt2lm_head_model_1/transformer/h_._3/attn/c_attn/strided_slice/stack_2", "op": "Const", "attr": {"dtype": {"type": "DT_INT32"}, "value": {"tensor": {"dtype": "DT_INT32", "tensorShape": {"dim": [{"size": "1"}]}}}}}, {"name": "StatefulPartitionedCall/tfgpt2lm_head_model_1/transformer/h_._3/ln_1/batchnorm/ReadVariableOp", "op": "Const", "attr": {"dtype": {"type": "DT_FLOAT"}, "value": {"tensor": {"dtype": "DT_FLOAT", "tensorShape": {"dim": [{"size": "768"}]}}}}}, {"name": "StatefulPartitionedCall/tfgpt2lm_head_model_1/transformer/h_._2/mlp/c_proj/Reshape/shape", "op": "Const", "attr": {"value": {"tensor": {"dtype": "DT_INT32", "tensorShape": {"dim": [{"size": "2"}]}}}, "dtype": {"type": "DT_INT32"}}}, {"name": "StatefulPartitionedCall/tfgpt2lm_head_model_1/transformer/h_._2/mlp/c_proj/MatMul/ReadVariableOp", "op": "Const", "attr": {"dtype": {"type": "DT_FLOAT"}, "value": {"tensor": {"dtype": "DT_FLOAT", "tensorShape": {"dim": [{"size": "3072"}, {"size": "768"}]}}}}}, {"name": "StatefulPartitionedCall/tfgpt2lm_head_model_1/transformer/h_._2/mlp/c_proj/add/ReadVariableOp", "op": "Const", "attr": {"dtype": {"type": "DT_FLOAT"}, "value": {"tensor": {"dtype": "DT_FLOAT", "tensorShape": {"dim": [{"size": "1"}, {"size": "768"}]}}}}}, {"name": "StatefulPartitionedCall/tfgpt2lm_head_model_1/transformer/h_._2/mlp/c_proj/strided_slice/stack", "op": "Const", "attr": {"dtype": {"type": "DT_INT32"}, "value": {"tensor": {"dtype": "DT_INT32", "tensorShape": {"dim": [{"size": "1"}]}}}}}, {"name": "StatefulPartitionedCall/tfgpt2lm_head_model_1/transformer/h_._2/mlp/c_proj/strided_slice/stack_1", "op": "Const", "attr": {"dtype": {"type": "DT_INT32"}, "value": {"tensor": {"dtype": "DT_INT32", "tensorShape": {"dim": [{"size": "1"}]}}}}}, {"name": "StatefulPartitionedCall/tfgpt2lm_head_model_1/transformer/h_._2/mlp/c_proj/strided_slice/stack_2", "op": "Const", "attr": {"dtype": {"type": "DT_INT32"}, "value": {"tensor": {"dtype": "DT_INT32", "tensorShape": {"dim": [{"size": "1"}]}}}}}, {"name": "StatefulPartitionedCall/tfgpt2lm_head_model_1/transformer/h_._2/mlp/Gelu/mul/x", "op": "Const", "attr": {"dtype": {"type": "DT_FLOAT"}, "value": {"tensor": {"dtype": "DT_FLOAT", "tensorShape": {}}}}}, {"name": "StatefulPartitionedCall/tfgpt2lm_head_model_1/transformer/h_._2/mlp/Gelu/add_1/x", "op": "Const", "attr": {"value": {"tensor": {"dtype": "DT_FLOAT", "tensorShape": {}}}, "dtype": {"type": "DT_FLOAT"}}}, {"name": "StatefulPartitionedCall/tfgpt2lm_head_model_1/transformer/h_._2/mlp/Gelu/mul_2/x", "op": "Const", "attr": {"value": {"tensor": {"dtype": "DT_FLOAT", "tensorShape": {}}}, "dtype": {"type": "DT_FLOAT"}}}, {"name": "StatefulPartitionedCall/tfgpt2lm_head_model_1/transformer/h_._2/mlp/Gelu/Cast/x", "op": "Const", "attr": {"value": {"tensor": {"dtype": "DT_FLOAT", "tensorShape": {}}}, "dtype": {"type": "DT_FLOAT"}}}, {"name": "StatefulPartitionedCall/tfgpt2lm_head_model_1/transformer/h_._2/mlp/c_fc/Reshape/shape", "op": "Const", "attr": {"dtype": {"type": "DT_INT32"}, "value": {"tensor": {"dtype": "DT_INT32", "tensorShape": {"dim": [{"size": "2"}]}}}}}, {"name": "StatefulPartitionedCall/tfgpt2lm_head_model_1/transformer/h_._2/mlp/c_fc/MatMul/ReadVariableOp", "op": "Const", "attr": {"value": {"tensor": {"dtype": "DT_FLOAT", "tensorShape": {"dim": [{"size": "768"}, {"size": "3072"}]}}}, "dtype": {"type": "DT_FLOAT"}}}, {"name": "StatefulPartitionedCall/tfgpt2lm_head_model_1/transformer/h_._2/mlp/c_fc/add/ReadVariableOp", "op": "Const", "attr": {"value": {"tensor": {"dtype": "DT_FLOAT", "tensorShape": {"dim": [{"size": "1"}, {"size": "3072"}]}}}, "dtype": {"type": "DT_FLOAT"}}}, {"name": "StatefulPartitionedCall/tfgpt2lm_head_model_1/transformer/h_._2/mlp/c_fc/strided_slice/stack", "op": "Const", "attr": {"dtype": {"type": "DT_INT32"}, "value": {"tensor": {"dtype": "DT_INT32", "tensorShape": {"dim": [{"size": "1"}]}}}}}, {"name": "StatefulPartitionedCall/tfgpt2lm_head_model_1/transformer/h_._2/mlp/c_fc/strided_slice/stack_1", "op": "Const", "attr": {"value": {"tensor": {"dtype": "DT_INT32", "tensorShape": {"dim": [{"size": "1"}]}}}, "dtype": {"type": "DT_INT32"}}}, {"name": "StatefulPartitionedCall/tfgpt2lm_head_model_1/transformer/h_._2/mlp/c_fc/strided_slice/stack_2", "op": "Const", "attr": {"value": {"tensor": {"dtype": "DT_INT32", "tensorShape": {"dim": [{"size": "1"}]}}}, "dtype": {"type": "DT_INT32"}}}, {"name": "StatefulPartitionedCall/tfgpt2lm_head_model_1/transformer/h_._2/ln_2/batchnorm/ReadVariableOp", "op": "Const", "attr": {"dtype": {"type": "DT_FLOAT"}, "value": {"tensor": {"dtype": "DT_FLOAT", "tensorShape": {"dim": [{"size": "768"}]}}}}}, {"name": "StatefulPartitionedCall/tfgpt2lm_head_model_1/transformer/h_._2/attn/c_proj/Reshape/shape", "op": "Const", "attr": {"dtype": {"type": "DT_INT32"}, "value": {"tensor": {"dtype": "DT_INT32", "tensorShape": {"dim": [{"size": "2"}]}}}}}, {"name": "StatefulPartitionedCall/tfgpt2lm_head_model_1/transformer/h_._2/attn/c_proj/MatMul/ReadVariableOp", "op": "Const", "attr": {"dtype": {"type": "DT_FLOAT"}, "value": {"tensor": {"dtype": "DT_FLOAT", "tensorShape": {"dim": [{"size": "768"}, {"size": "768"}]}}}}}, {"name": "StatefulPartitionedCall/tfgpt2lm_head_model_1/transformer/h_._2/attn/c_proj/add/ReadVariableOp", "op": "Const", "attr": {"dtype": {"type": "DT_FLOAT"}, "value": {"tensor": {"dtype": "DT_FLOAT", "tensorShape": {"dim": [{"size": "1"}, {"size": "768"}]}}}}}, {"name": "StatefulPartitionedCall/tfgpt2lm_head_model_1/transformer/h_._2/attn/c_proj/strided_slice/stack", "op": "Const", "attr": {"value": {"tensor": {"dtype": "DT_INT32", "tensorShape": {"dim": [{"size": "1"}]}}}, "dtype": {"type": "DT_INT32"}}}, {"name": "StatefulPartitionedCall/tfgpt2lm_head_model_1/transformer/h_._2/attn/c_proj/strided_slice/stack_1", "op": "Const", "attr": {"value": {"tensor": {"dtype": "DT_INT32", "tensorShape": {"dim": [{"size": "1"}]}}}, "dtype": {"type": "DT_INT32"}}}, {"name": "StatefulPartitionedCall/tfgpt2lm_head_model_1/transformer/h_._2/attn/c_proj/strided_slice/stack_2", "op": "Const", "attr": {"dtype": {"type": "DT_INT32"}, "value": {"tensor": {"dtype": "DT_INT32", "tensorShape": {"dim": [{"size": "1"}]}}}}}, {"name": "StatefulPartitionedCall/tfgpt2lm_head_model_1/transformer/h_._2/attn/strided_slice_12/stack", "op": "Const", "attr": {"value": {"tensor": {"dtype": "DT_INT32", "tensorShape": {"dim": [{"size": "1"}]}}}, "dtype": {"type": "DT_INT32"}}}, {"name": "StatefulPartitionedCall/tfgpt2lm_head_model_1/transformer/h_._2/attn/strided_slice_12/stack_1", "op": "Const", "attr": {"value": {"tensor": {"dtype": "DT_INT32", "tensorShape": {"dim": [{"size": "1"}]}}}, "dtype": {"type": "DT_INT32"}}}, {"name": "StatefulPartitionedCall/tfgpt2lm_head_model_1/transformer/h_._2/attn/strided_slice_12/stack_2", "op": "Const", "attr": {"value": {"tensor": {"dtype": "DT_INT32", "tensorShape": {"dim": [{"size": "1"}]}}}, "dtype": {"type": "DT_INT32"}}}, {"name": "StatefulPartitionedCall/tfgpt2lm_head_model_1/transformer/h_._2/attn/mul_1/x", "op": "Const", "attr": {"value": {"tensor": {"dtype": "DT_FLOAT", "tensorShape": {}}}, "dtype": {"type": "DT_FLOAT"}}}, {"name": "StatefulPartitionedCall/tfgpt2lm_head_model_1/transformer/h_._2/attn/sub_1/x", "op": "Const", "attr": {"value": {"tensor": {"dtype": "DT_FLOAT", "tensorShape": {}}}, "dtype": {"type": "DT_FLOAT"}}}, {"name": "StatefulPartitionedCall/tfgpt2lm_head_model_1/transformer/h_._2/attn/range/start", "op": "Const", "attr": {"value": {"tensor": {"dtype": "DT_INT32", "tensorShape": {}}}, "dtype": {"type": "DT_INT32"}}}, {"name": "StatefulPartitionedCall/tfgpt2lm_head_model_1/transformer/h_._2/attn/range/delta", "op": "Const", "attr": {"value": {"tensor": {"dtype": "DT_INT32", "tensorShape": {}}}, "dtype": {"type": "DT_INT32"}}}, {"name": "StatefulPartitionedCall/tfgpt2lm_head_model_1/transformer/h_._2/attn/strided_slice_11/stack", "op": "Const", "attr": {"value": {"tensor": {"dtype": "DT_INT32", "tensorShape": {"dim": [{"size": "2"}]}}}, "dtype": {"type": "DT_INT32"}}}, {"name": "StatefulPartitionedCall/tfgpt2lm_head_model_1/transformer/h_._2/attn/strided_slice_11/stack_1", "op": "Const", "attr": {"dtype": {"type": "DT_INT32"}, "value": {"tensor": {"dtype": "DT_INT32", "tensorShape": {"dim": [{"size": "2"}]}}}}}, {"name": "StatefulPartitionedCall/tfgpt2lm_head_model_1/transformer/h_._2/attn/strided_slice_11/stack_2", "op": "Const", "attr": {"dtype": {"type": "DT_INT32"}, "value": {"tensor": {"dtype": "DT_INT32", "tensorShape": {"dim": [{"size": "2"}]}}}}}, {"name": "StatefulPartitionedCall/tfgpt2lm_head_model_1/transformer/h_._2/attn/range_1/start", "op": "Const", "attr": {"value": {"tensor": {"dtype": "DT_INT32", "tensorShape": {}}}, "dtype": {"type": "DT_INT32"}}}, {"name": "StatefulPartitionedCall/tfgpt2lm_head_model_1/transformer/h_._2/attn/range_1/delta", "op": "Const", "attr": {"value": {"tensor": {"dtype": "DT_INT32", "tensorShape": {}}}, "dtype": {"type": "DT_INT32"}}}, {"name": "StatefulPartitionedCall/tfgpt2lm_head_model_1/transformer/h_._2/attn/Reshape_3/shape/0", "op": "Const", "attr": {"value": {"tensor": {"dtype": "DT_INT32", "tensorShape": {}}}, "dtype": {"type": "DT_INT32"}}}, {"name": "StatefulPartitionedCall/tfgpt2lm_head_model_1/transformer/h_._2/attn/Reshape_3/shape/1", "op": "Const", "attr": {"dtype": {"type": "DT_INT32"}, "value": {"tensor": {"dtype": "DT_INT32", "tensorShape": {}}}}}, {"name": "StatefulPartitionedCall/tfgpt2lm_head_model_1/transformer/h_._2/attn/strided_slice_9/stack", "op": "Const", "attr": {"value": {"tensor": {"dtype": "DT_INT32", "tensorShape": {"dim": [{"size": "1"}]}}}, "dtype": {"type": "DT_INT32"}}}, {"name": "StatefulPartitionedCall/tfgpt2lm_head_model_1/transformer/h_._2/attn/strided_slice_9/stack_1", "op": "Const", "attr": {"dtype": {"type": "DT_INT32"}, "value": {"tensor": {"dtype": "DT_INT32", "tensorShape": {"dim": [{"size": "1"}]}}}}}, {"name": "StatefulPartitionedCall/tfgpt2lm_head_model_1/transformer/h_._2/attn/strided_slice_9/stack_2", "op": "Const", "attr": {"value": {"tensor": {"dtype": "DT_INT32", "tensorShape": {"dim": [{"size": "1"}]}}}, "dtype": {"type": "DT_INT32"}}}, {"name": "StatefulPartitionedCall/tfgpt2lm_head_model_1/transformer/h_._2/attn/strided_slice/stack", "op": "Const", "attr": {"dtype": {"type": "DT_INT32"}, "value": {"tensor": {"dtype": "DT_INT32", "tensorShape": {"dim": [{"size": "1"}]}}}}}, {"name": "StatefulPartitionedCall/tfgpt2lm_head_model_1/transformer/h_._2/attn/strided_slice/stack_1", "op": "Const", "attr": {"dtype": {"type": "DT_INT32"}, "value": {"tensor": {"dtype": "DT_INT32", "tensorShape": {"dim": [{"size": "1"}]}}}}}, {"name": "StatefulPartitionedCall/tfgpt2lm_head_model_1/transformer/h_._2/attn/strided_slice/stack_2", "op": "Const", "attr": {"dtype": {"type": "DT_INT32"}, "value": {"tensor": {"dtype": "DT_INT32", "tensorShape": {"dim": [{"size": "1"}]}}}}}, {"name": "StatefulPartitionedCall/tfgpt2lm_head_model_1/transformer/h_._2/attn/strided_slice_1/stack", "op": "Const", "attr": {"value": {"tensor": {"dtype": "DT_INT32", "tensorShape": {"dim": [{"size": "1"}]}}}, "dtype": {"type": "DT_INT32"}}}, {"name": "StatefulPartitionedCall/tfgpt2lm_head_model_1/transformer/h_._2/attn/strided_slice_1/stack_1", "op": "Const", "attr": {"dtype": {"type": "DT_INT32"}, "value": {"tensor": {"dtype": "DT_INT32", "tensorShape": {"dim": [{"size": "1"}]}}}}}, {"name": "StatefulPartitionedCall/tfgpt2lm_head_model_1/transformer/h_._2/attn/strided_slice_1/stack_2", "op": "Const", "attr": {"dtype": {"type": "DT_INT32"}, "value": {"tensor": {"dtype": "DT_INT32", "tensorShape": {"dim": [{"size": "1"}]}}}}}, {"name": "StatefulPartitionedCall/tfgpt2lm_head_model_1/transformer/h_._2/attn/Reshape/shape/2", "op": "Const", "attr": {"dtype": {"type": "DT_INT32"}, "value": {"tensor": {"dtype": "DT_INT32", "tensorShape": {}}}}}, {"name": "StatefulPartitionedCall/tfgpt2lm_head_model_1/transformer/h_._2/attn/Reshape/shape/3", "op": "Const", "attr": {"value": {"tensor": {"dtype": "DT_INT32", "tensorShape": {}}}, "dtype": {"type": "DT_INT32"}}}, {"name": "StatefulPartitionedCall/tfgpt2lm_head_model_1/transformer/h_._2/attn/transpose/perm", "op": "Const", "attr": {"dtype": {"type": "DT_INT32"}, "value": {"tensor": {"dtype": "DT_INT32", "tensorShape": {"dim": [{"size": "4"}]}}}}}, {"name": "StatefulPartitionedCall/tfgpt2lm_head_model_1/transformer/h_._2/attn/strided_slice_2/stack", "op": "Const", "attr": {"dtype": {"type": "DT_INT32"}, "value": {"tensor": {"dtype": "DT_INT32", "tensorShape": {"dim": [{"size": "1"}]}}}}}, {"name": "StatefulPartitionedCall/tfgpt2lm_head_model_1/transformer/h_._2/attn/strided_slice_2/stack_1", "op": "Const", "attr": {"dtype": {"type": "DT_INT32"}, "value": {"tensor": {"dtype": "DT_INT32", "tensorShape": {"dim": [{"size": "1"}]}}}}}, {"name": "StatefulPartitionedCall/tfgpt2lm_head_model_1/transformer/h_._2/attn/strided_slice_2/stack_2", "op": "Const", "attr": {"value": {"tensor": {"dtype": "DT_INT32", "tensorShape": {"dim": [{"size": "1"}]}}}, "dtype": {"type": "DT_INT32"}}}, {"name": "StatefulPartitionedCall/tfgpt2lm_head_model_1/transformer/h_._2/attn/strided_slice_3/stack", "op": "Const", "attr": {"dtype": {"type": "DT_INT32"}, "value": {"tensor": {"dtype": "DT_INT32", "tensorShape": {"dim": [{"size": "1"}]}}}}}, {"name": "StatefulPartitionedCall/tfgpt2lm_head_model_1/transformer/h_._2/attn/strided_slice_3/stack_1", "op": "Const", "attr": {"value": {"tensor": {"dtype": "DT_INT32", "tensorShape": {"dim": [{"size": "1"}]}}}, "dtype": {"type": "DT_INT32"}}}, {"name": "StatefulPartitionedCall/tfgpt2lm_head_model_1/transformer/h_._2/attn/strided_slice_3/stack_2", "op": "Const", "attr": {"dtype": {"type": "DT_INT32"}, "value": {"tensor": {"dtype": "DT_INT32", "tensorShape": {"dim": [{"size": "1"}]}}}}}, {"name": "StatefulPartitionedCall/tfgpt2lm_head_model_1/transformer/h_._2/attn/Reshape_1/shape/2", "op": "Const", "attr": {"dtype": {"type": "DT_INT32"}, "value": {"tensor": {"dtype": "DT_INT32", "tensorShape": {}}}}}, {"name": "StatefulPartitionedCall/tfgpt2lm_head_model_1/transformer/h_._2/attn/Reshape_1/shape/3", "op": "Const", "attr": {"dtype": {"type": "DT_INT32"}, "value": {"tensor": {"dtype": "DT_INT32", "tensorShape": {}}}}}, {"name": "StatefulPartitionedCall/tfgpt2lm_head_model_1/transformer/h_._2/attn/transpose_1/perm", "op": "Const", "attr": {"value": {"tensor": {"dtype": "DT_INT32", "tensorShape": {"dim": [{"size": "4"}]}}}, "dtype": {"type": "DT_INT32"}}}, {"name": "ConstantFolding/StatefulPartitionedCall/tfgpt2lm_head_model_1/transformer/h_._2/attn/truediv_recip", "op": "Const", "attr": {"value": {"tensor": {"dtype": "DT_FLOAT", "tensorShape": {}}}, "dtype": {"type": "DT_FLOAT"}}}, {"name": "StatefulPartitionedCall/tfgpt2lm_head_model_1/transformer/h_._2/attn/strided_slice_10/stack", "op": "Const", "attr": {"dtype": {"type": "DT_INT32"}, "value": {"tensor": {"dtype": "DT_INT32", "tensorShape": {"dim": [{"size": "1"}]}}}}}, {"name": "StatefulPartitionedCall/tfgpt2lm_head_model_1/transformer/h_._2/attn/strided_slice_10/stack_1", "op": "Const", "attr": {"value": {"tensor": {"dtype": "DT_INT32", "tensorShape": {"dim": [{"size": "1"}]}}}, "dtype": {"type": "DT_INT32"}}}, {"name": "StatefulPartitionedCall/tfgpt2lm_head_model_1/transformer/h_._2/attn/strided_slice_10/stack_2", "op": "Const", "attr": {"value": {"tensor": {"dtype": "DT_INT32", "tensorShape": {"dim": [{"size": "1"}]}}}, "dtype": {"type": "DT_INT32"}}}, {"name": "StatefulPartitionedCall/tfgpt2lm_head_model_1/transformer/h_._2/attn/add_2/y", "op": "Const", "attr": {"value": {"tensor": {"dtype": "DT_FLOAT", "tensorShape": {}}}, "dtype": {"type": "DT_FLOAT"}}}, {"name": "StatefulPartitionedCall/tfgpt2lm_head_model_1/transformer/h_._2/attn/strided_slice_4/stack", "op": "Const", "attr": {"value": {"tensor": {"dtype": "DT_INT32", "tensorShape": {"dim": [{"size": "1"}]}}}, "dtype": {"type": "DT_INT32"}}}, {"name": "StatefulPartitionedCall/tfgpt2lm_head_model_1/transformer/h_._2/attn/strided_slice_4/stack_1", "op": "Const", "attr": {"value": {"tensor": {"dtype": "DT_INT32", "tensorShape": {"dim": [{"size": "1"}]}}}, "dtype": {"type": "DT_INT32"}}}, {"name": "StatefulPartitionedCall/tfgpt2lm_head_model_1/transformer/h_._2/attn/strided_slice_4/stack_2", "op": "Const", "attr": {"value": {"tensor": {"dtype": "DT_INT32", "tensorShape": {"dim": [{"size": "1"}]}}}, "dtype": {"type": "DT_INT32"}}}, {"name": "StatefulPartitionedCall/tfgpt2lm_head_model_1/transformer/h_._2/attn/split/split_dim", "op": "Const", "attr": {"dtype": {"type": "DT_INT32"}, "value": {"tensor": {"dtype": "DT_INT32", "tensorShape": {}}}}}, {"name": "StatefulPartitionedCall/tfgpt2lm_head_model_1/transformer/h_._2/attn/c_attn/Reshape/shape", "op": "Const", "attr": {"value": {"tensor": {"dtype": "DT_INT32", "tensorShape": {"dim": [{"size": "2"}]}}}, "dtype": {"type": "DT_INT32"}}}, {"name": "StatefulPartitionedCall/tfgpt2lm_head_model_1/transformer/h_._2/attn/c_attn/MatMul/ReadVariableOp", "op": "Const", "attr": {"dtype": {"type": "DT_FLOAT"}, "value": {"tensor": {"dtype": "DT_FLOAT", "tensorShape": {"dim": [{"size": "768"}, {"size": "2304"}]}}}}}, {"name": "StatefulPartitionedCall/tfgpt2lm_head_model_1/transformer/h_._2/attn/c_attn/add/ReadVariableOp", "op": "Const", "attr": {"dtype": {"type": "DT_FLOAT"}, "value": {"tensor": {"dtype": "DT_FLOAT", "tensorShape": {"dim": [{"size": "1"}, {"size": "2304"}]}}}}}, {"name": "StatefulPartitionedCall/tfgpt2lm_head_model_1/transformer/h_._2/attn/c_attn/strided_slice/stack", "op": "Const", "attr": {"value": {"tensor": {"dtype": "DT_INT32", "tensorShape": {"dim": [{"size": "1"}]}}}, "dtype": {"type": "DT_INT32"}}}, {"name": "StatefulPartitionedCall/tfgpt2lm_head_model_1/transformer/h_._2/attn/c_attn/strided_slice/stack_1", "op": "Const", "attr": {"value": {"tensor": {"dtype": "DT_INT32", "tensorShape": {"dim": [{"size": "1"}]}}}, "dtype": {"type": "DT_INT32"}}}, {"name": "StatefulPartitionedCall/tfgpt2lm_head_model_1/transformer/h_._2/attn/c_attn/strided_slice/stack_2", "op": "Const", "attr": {"dtype": {"type": "DT_INT32"}, "value": {"tensor": {"dtype": "DT_INT32", "tensorShape": {"dim": [{"size": "1"}]}}}}}, {"name": "StatefulPartitionedCall/tfgpt2lm_head_model_1/transformer/h_._2/ln_1/batchnorm/ReadVariableOp", "op": "Const", "attr": {"dtype": {"type": "DT_FLOAT"}, "value": {"tensor": {"dtype": "DT_FLOAT", "tensorShape": {"dim": [{"size": "768"}]}}}}}, {"name": "StatefulPartitionedCall/tfgpt2lm_head_model_1/transformer/h_._1/mlp/c_proj/Reshape/shape", "op": "Const", "attr": {"dtype": {"type": "DT_INT32"}, "value": {"tensor": {"dtype": "DT_INT32", "tensorShape": {"dim": [{"size": "2"}]}}}}}, {"name": "StatefulPartitionedCall/tfgpt2lm_head_model_1/transformer/h_._1/mlp/c_proj/MatMul/ReadVariableOp", "op": "Const", "attr": {"value": {"tensor": {"dtype": "DT_FLOAT", "tensorShape": {"dim": [{"size": "3072"}, {"size": "768"}]}}}, "dtype": {"type": "DT_FLOAT"}}}, {"name": "StatefulPartitionedCall/tfgpt2lm_head_model_1/transformer/h_._1/mlp/c_proj/add/ReadVariableOp", "op": "Const", "attr": {"value": {"tensor": {"dtype": "DT_FLOAT", "tensorShape": {"dim": [{"size": "1"}, {"size": "768"}]}}}, "dtype": {"type": "DT_FLOAT"}}}, {"name": "StatefulPartitionedCall/tfgpt2lm_head_model_1/transformer/h_._1/mlp/c_proj/strided_slice/stack", "op": "Const", "attr": {"value": {"tensor": {"dtype": "DT_INT32", "tensorShape": {"dim": [{"size": "1"}]}}}, "dtype": {"type": "DT_INT32"}}}, {"name": "StatefulPartitionedCall/tfgpt2lm_head_model_1/transformer/h_._1/mlp/c_proj/strided_slice/stack_1", "op": "Const", "attr": {"dtype": {"type": "DT_INT32"}, "value": {"tensor": {"dtype": "DT_INT32", "tensorShape": {"dim": [{"size": "1"}]}}}}}, {"name": "StatefulPartitionedCall/tfgpt2lm_head_model_1/transformer/h_._1/mlp/c_proj/strided_slice/stack_2", "op": "Const", "attr": {"value": {"tensor": {"dtype": "DT_INT32", "tensorShape": {"dim": [{"size": "1"}]}}}, "dtype": {"type": "DT_INT32"}}}, {"name": "StatefulPartitionedCall/tfgpt2lm_head_model_1/transformer/h_._1/mlp/Gelu/mul/x", "op": "Const", "attr": {"value": {"tensor": {"dtype": "DT_FLOAT", "tensorShape": {}}}, "dtype": {"type": "DT_FLOAT"}}}, {"name": "StatefulPartitionedCall/tfgpt2lm_head_model_1/transformer/h_._1/mlp/Gelu/add_1/x", "op": "Const", "attr": {"value": {"tensor": {"dtype": "DT_FLOAT", "tensorShape": {}}}, "dtype": {"type": "DT_FLOAT"}}}, {"name": "StatefulPartitionedCall/tfgpt2lm_head_model_1/transformer/h_._1/mlp/Gelu/mul_2/x", "op": "Const", "attr": {"dtype": {"type": "DT_FLOAT"}, "value": {"tensor": {"dtype": "DT_FLOAT", "tensorShape": {}}}}}, {"name": "StatefulPartitionedCall/tfgpt2lm_head_model_1/transformer/h_._1/mlp/Gelu/Cast/x", "op": "Const", "attr": {"dtype": {"type": "DT_FLOAT"}, "value": {"tensor": {"dtype": "DT_FLOAT", "tensorShape": {}}}}}, {"name": "StatefulPartitionedCall/tfgpt2lm_head_model_1/transformer/h_._1/mlp/c_fc/Reshape/shape", "op": "Const", "attr": {"dtype": {"type": "DT_INT32"}, "value": {"tensor": {"dtype": "DT_INT32", "tensorShape": {"dim": [{"size": "2"}]}}}}}, {"name": "StatefulPartitionedCall/tfgpt2lm_head_model_1/transformer/h_._1/mlp/c_fc/MatMul/ReadVariableOp", "op": "Const", "attr": {"dtype": {"type": "DT_FLOAT"}, "value": {"tensor": {"dtype": "DT_FLOAT", "tensorShape": {"dim": [{"size": "768"}, {"size": "3072"}]}}}}}, {"name": "StatefulPartitionedCall/tfgpt2lm_head_model_1/transformer/h_._1/mlp/c_fc/add/ReadVariableOp", "op": "Const", "attr": {"dtype": {"type": "DT_FLOAT"}, "value": {"tensor": {"dtype": "DT_FLOAT", "tensorShape": {"dim": [{"size": "1"}, {"size": "3072"}]}}}}}, {"name": "StatefulPartitionedCall/tfgpt2lm_head_model_1/transformer/h_._1/mlp/c_fc/strided_slice/stack", "op": "Const", "attr": {"dtype": {"type": "DT_INT32"}, "value": {"tensor": {"dtype": "DT_INT32", "tensorShape": {"dim": [{"size": "1"}]}}}}}, {"name": "StatefulPartitionedCall/tfgpt2lm_head_model_1/transformer/h_._1/mlp/c_fc/strided_slice/stack_1", "op": "Const", "attr": {"dtype": {"type": "DT_INT32"}, "value": {"tensor": {"dtype": "DT_INT32", "tensorShape": {"dim": [{"size": "1"}]}}}}}, {"name": "StatefulPartitionedCall/tfgpt2lm_head_model_1/transformer/h_._1/mlp/c_fc/strided_slice/stack_2", "op": "Const", "attr": {"value": {"tensor": {"dtype": "DT_INT32", "tensorShape": {"dim": [{"size": "1"}]}}}, "dtype": {"type": "DT_INT32"}}}, {"name": "StatefulPartitionedCall/tfgpt2lm_head_model_1/transformer/h_._1/ln_2/batchnorm/ReadVariableOp", "op": "Const", "attr": {"value": {"tensor": {"dtype": "DT_FLOAT", "tensorShape": {"dim": [{"size": "768"}]}}}, "dtype": {"type": "DT_FLOAT"}}}, {"name": "StatefulPartitionedCall/tfgpt2lm_head_model_1/transformer/h_._1/attn/c_proj/Reshape/shape", "op": "Const", "attr": {"value": {"tensor": {"dtype": "DT_INT32", "tensorShape": {"dim": [{"size": "2"}]}}}, "dtype": {"type": "DT_INT32"}}}, {"name": "StatefulPartitionedCall/tfgpt2lm_head_model_1/transformer/h_._1/attn/c_proj/MatMul/ReadVariableOp", "op": "Const", "attr": {"value": {"tensor": {"dtype": "DT_FLOAT", "tensorShape": {"dim": [{"size": "768"}, {"size": "768"}]}}}, "dtype": {"type": "DT_FLOAT"}}}, {"name": "StatefulPartitionedCall/tfgpt2lm_head_model_1/transformer/h_._1/attn/c_proj/add/ReadVariableOp", "op": "Const", "attr": {"value": {"tensor": {"dtype": "DT_FLOAT", "tensorShape": {"dim": [{"size": "1"}, {"size": "768"}]}}}, "dtype": {"type": "DT_FLOAT"}}}, {"name": "StatefulPartitionedCall/tfgpt2lm_head_model_1/transformer/h_._1/attn/c_proj/strided_slice/stack", "op": "Const", "attr": {"dtype": {"type": "DT_INT32"}, "value": {"tensor": {"dtype": "DT_INT32", "tensorShape": {"dim": [{"size": "1"}]}}}}}, {"name": "StatefulPartitionedCall/tfgpt2lm_head_model_1/transformer/h_._1/attn/c_proj/strided_slice/stack_1", "op": "Const", "attr": {"dtype": {"type": "DT_INT32"}, "value": {"tensor": {"dtype": "DT_INT32", "tensorShape": {"dim": [{"size": "1"}]}}}}}, {"name": "StatefulPartitionedCall/tfgpt2lm_head_model_1/transformer/h_._1/attn/c_proj/strided_slice/stack_2", "op": "Const", "attr": {"dtype": {"type": "DT_INT32"}, "value": {"tensor": {"dtype": "DT_INT32", "tensorShape": {"dim": [{"size": "1"}]}}}}}, {"name": "StatefulPartitionedCall/tfgpt2lm_head_model_1/transformer/h_._1/attn/strided_slice_12/stack", "op": "Const", "attr": {"dtype": {"type": "DT_INT32"}, "value": {"tensor": {"dtype": "DT_INT32", "tensorShape": {"dim": [{"size": "1"}]}}}}}, {"name": "StatefulPartitionedCall/tfgpt2lm_head_model_1/transformer/h_._1/attn/strided_slice_12/stack_1", "op": "Const", "attr": {"value": {"tensor": {"dtype": "DT_INT32", "tensorShape": {"dim": [{"size": "1"}]}}}, "dtype": {"type": "DT_INT32"}}}, {"name": "StatefulPartitionedCall/tfgpt2lm_head_model_1/transformer/h_._1/attn/strided_slice_12/stack_2", "op": "Const", "attr": {"dtype": {"type": "DT_INT32"}, "value": {"tensor": {"dtype": "DT_INT32", "tensorShape": {"dim": [{"size": "1"}]}}}}}, {"name": "StatefulPartitionedCall/tfgpt2lm_head_model_1/transformer/h_._1/attn/mul_1/x", "op": "Const", "attr": {"value": {"tensor": {"dtype": "DT_FLOAT", "tensorShape": {}}}, "dtype": {"type": "DT_FLOAT"}}}, {"name": "StatefulPartitionedCall/tfgpt2lm_head_model_1/transformer/h_._1/attn/sub_1/x", "op": "Const", "attr": {"dtype": {"type": "DT_FLOAT"}, "value": {"tensor": {"dtype": "DT_FLOAT", "tensorShape": {}}}}}, {"name": "StatefulPartitionedCall/tfgpt2lm_head_model_1/transformer/h_._1/attn/range/start", "op": "Const", "attr": {"dtype": {"type": "DT_INT32"}, "value": {"tensor": {"dtype": "DT_INT32", "tensorShape": {}}}}}, {"name": "StatefulPartitionedCall/tfgpt2lm_head_model_1/transformer/h_._1/attn/range/delta", "op": "Const", "attr": {"dtype": {"type": "DT_INT32"}, "value": {"tensor": {"dtype": "DT_INT32", "tensorShape": {}}}}}, {"name": "StatefulPartitionedCall/tfgpt2lm_head_model_1/transformer/h_._1/attn/strided_slice_11/stack", "op": "Const", "attr": {"dtype": {"type": "DT_INT32"}, "value": {"tensor": {"dtype": "DT_INT32", "tensorShape": {"dim": [{"size": "2"}]}}}}}, {"name": "StatefulPartitionedCall/tfgpt2lm_head_model_1/transformer/h_._1/attn/strided_slice_11/stack_1", "op": "Const", "attr": {"value": {"tensor": {"dtype": "DT_INT32", "tensorShape": {"dim": [{"size": "2"}]}}}, "dtype": {"type": "DT_INT32"}}}, {"name": "StatefulPartitionedCall/tfgpt2lm_head_model_1/transformer/h_._1/attn/strided_slice_11/stack_2", "op": "Const", "attr": {"dtype": {"type": "DT_INT32"}, "value": {"tensor": {"dtype": "DT_INT32", "tensorShape": {"dim": [{"size": "2"}]}}}}}, {"name": "StatefulPartitionedCall/tfgpt2lm_head_model_1/transformer/h_._1/attn/range_1/start", "op": "Const", "attr": {"value": {"tensor": {"dtype": "DT_INT32", "tensorShape": {}}}, "dtype": {"type": "DT_INT32"}}}, {"name": "StatefulPartitionedCall/tfgpt2lm_head_model_1/transformer/h_._1/attn/range_1/delta", "op": "Const", "attr": {"value": {"tensor": {"dtype": "DT_INT32", "tensorShape": {}}}, "dtype": {"type": "DT_INT32"}}}, {"name": "StatefulPartitionedCall/tfgpt2lm_head_model_1/transformer/h_._1/attn/Reshape_3/shape/0", "op": "Const", "attr": {"value": {"tensor": {"dtype": "DT_INT32", "tensorShape": {}}}, "dtype": {"type": "DT_INT32"}}}, {"name": "StatefulPartitionedCall/tfgpt2lm_head_model_1/transformer/h_._1/attn/Reshape_3/shape/1", "op": "Const", "attr": {"dtype": {"type": "DT_INT32"}, "value": {"tensor": {"dtype": "DT_INT32", "tensorShape": {}}}}}, {"name": "StatefulPartitionedCall/tfgpt2lm_head_model_1/transformer/h_._1/attn/strided_slice_9/stack", "op": "Const", "attr": {"dtype": {"type": "DT_INT32"}, "value": {"tensor": {"dtype": "DT_INT32", "tensorShape": {"dim": [{"size": "1"}]}}}}}, {"name": "StatefulPartitionedCall/tfgpt2lm_head_model_1/transformer/h_._1/attn/strided_slice_9/stack_1", "op": "Const", "attr": {"dtype": {"type": "DT_INT32"}, "value": {"tensor": {"dtype": "DT_INT32", "tensorShape": {"dim": [{"size": "1"}]}}}}}, {"name": "StatefulPartitionedCall/tfgpt2lm_head_model_1/transformer/h_._1/attn/strided_slice_9/stack_2", "op": "Const", "attr": {"value": {"tensor": {"dtype": "DT_INT32", "tensorShape": {"dim": [{"size": "1"}]}}}, "dtype": {"type": "DT_INT32"}}}, {"name": "StatefulPartitionedCall/tfgpt2lm_head_model_1/transformer/h_._1/attn/strided_slice/stack", "op": "Const", "attr": {"value": {"tensor": {"dtype": "DT_INT32", "tensorShape": {"dim": [{"size": "1"}]}}}, "dtype": {"type": "DT_INT32"}}}, {"name": "StatefulPartitionedCall/tfgpt2lm_head_model_1/transformer/h_._1/attn/strided_slice/stack_1", "op": "Const", "attr": {"dtype": {"type": "DT_INT32"}, "value": {"tensor": {"dtype": "DT_INT32", "tensorShape": {"dim": [{"size": "1"}]}}}}}, {"name": "StatefulPartitionedCall/tfgpt2lm_head_model_1/transformer/h_._1/attn/strided_slice/stack_2", "op": "Const", "attr": {"value": {"tensor": {"dtype": "DT_INT32", "tensorShape": {"dim": [{"size": "1"}]}}}, "dtype": {"type": "DT_INT32"}}}, {"name": "StatefulPartitionedCall/tfgpt2lm_head_model_1/transformer/h_._1/attn/strided_slice_1/stack", "op": "Const", "attr": {"value": {"tensor": {"dtype": "DT_INT32", "tensorShape": {"dim": [{"size": "1"}]}}}, "dtype": {"type": "DT_INT32"}}}, {"name": "StatefulPartitionedCall/tfgpt2lm_head_model_1/transformer/h_._1/attn/strided_slice_1/stack_1", "op": "Const", "attr": {"value": {"tensor": {"dtype": "DT_INT32", "tensorShape": {"dim": [{"size": "1"}]}}}, "dtype": {"type": "DT_INT32"}}}, {"name": "StatefulPartitionedCall/tfgpt2lm_head_model_1/transformer/h_._1/attn/strided_slice_1/stack_2", "op": "Const", "attr": {"value": {"tensor": {"dtype": "DT_INT32", "tensorShape": {"dim": [{"size": "1"}]}}}, "dtype": {"type": "DT_INT32"}}}, {"name": "StatefulPartitionedCall/tfgpt2lm_head_model_1/transformer/h_._1/attn/Reshape/shape/2", "op": "Const", "attr": {"value": {"tensor": {"dtype": "DT_INT32", "tensorShape": {}}}, "dtype": {"type": "DT_INT32"}}}, {"name": "StatefulPartitionedCall/tfgpt2lm_head_model_1/transformer/h_._1/attn/Reshape/shape/3", "op": "Const", "attr": {"value": {"tensor": {"dtype": "DT_INT32", "tensorShape": {}}}, "dtype": {"type": "DT_INT32"}}}, {"name": "StatefulPartitionedCall/tfgpt2lm_head_model_1/transformer/h_._1/attn/transpose/perm", "op": "Const", "attr": {"dtype": {"type": "DT_INT32"}, "value": {"tensor": {"dtype": "DT_INT32", "tensorShape": {"dim": [{"size": "4"}]}}}}}, {"name": "StatefulPartitionedCall/tfgpt2lm_head_model_1/transformer/h_._1/attn/strided_slice_2/stack", "op": "Const", "attr": {"dtype": {"type": "DT_INT32"}, "value": {"tensor": {"dtype": "DT_INT32", "tensorShape": {"dim": [{"size": "1"}]}}}}}, {"name": "StatefulPartitionedCall/tfgpt2lm_head_model_1/transformer/h_._1/attn/strided_slice_2/stack_1", "op": "Const", "attr": {"value": {"tensor": {"dtype": "DT_INT32", "tensorShape": {"dim": [{"size": "1"}]}}}, "dtype": {"type": "DT_INT32"}}}, {"name": "StatefulPartitionedCall/tfgpt2lm_head_model_1/transformer/h_._1/attn/strided_slice_2/stack_2", "op": "Const", "attr": {"value": {"tensor": {"dtype": "DT_INT32", "tensorShape": {"dim": [{"size": "1"}]}}}, "dtype": {"type": "DT_INT32"}}}, {"name": "StatefulPartitionedCall/tfgpt2lm_head_model_1/transformer/h_._1/attn/strided_slice_3/stack", "op": "Const", "attr": {"value": {"tensor": {"dtype": "DT_INT32", "tensorShape": {"dim": [{"size": "1"}]}}}, "dtype": {"type": "DT_INT32"}}}, {"name": "StatefulPartitionedCall/tfgpt2lm_head_model_1/transformer/h_._1/attn/strided_slice_3/stack_1", "op": "Const", "attr": {"value": {"tensor": {"dtype": "DT_INT32", "tensorShape": {"dim": [{"size": "1"}]}}}, "dtype": {"type": "DT_INT32"}}}, {"name": "StatefulPartitionedCall/tfgpt2lm_head_model_1/transformer/h_._1/attn/strided_slice_3/stack_2", "op": "Const", "attr": {"dtype": {"type": "DT_INT32"}, "value": {"tensor": {"dtype": "DT_INT32", "tensorShape": {"dim": [{"size": "1"}]}}}}}, {"name": "StatefulPartitionedCall/tfgpt2lm_head_model_1/transformer/h_._1/attn/Reshape_1/shape/2", "op": "Const", "attr": {"dtype": {"type": "DT_INT32"}, "value": {"tensor": {"dtype": "DT_INT32", "tensorShape": {}}}}}, {"name": "StatefulPartitionedCall/tfgpt2lm_head_model_1/transformer/h_._1/attn/Reshape_1/shape/3", "op": "Const", "attr": {"value": {"tensor": {"dtype": "DT_INT32", "tensorShape": {}}}, "dtype": {"type": "DT_INT32"}}}, {"name": "StatefulPartitionedCall/tfgpt2lm_head_model_1/transformer/h_._1/attn/transpose_1/perm", "op": "Const", "attr": {"value": {"tensor": {"dtype": "DT_INT32", "tensorShape": {"dim": [{"size": "4"}]}}}, "dtype": {"type": "DT_INT32"}}}, {"name": "ConstantFolding/StatefulPartitionedCall/tfgpt2lm_head_model_1/transformer/h_._1/attn/truediv_recip", "op": "Const", "attr": {"value": {"tensor": {"dtype": "DT_FLOAT", "tensorShape": {}}}, "dtype": {"type": "DT_FLOAT"}}}, {"name": "StatefulPartitionedCall/tfgpt2lm_head_model_1/transformer/h_._1/attn/strided_slice_10/stack", "op": "Const", "attr": {"dtype": {"type": "DT_INT32"}, "value": {"tensor": {"dtype": "DT_INT32", "tensorShape": {"dim": [{"size": "1"}]}}}}}, {"name": "StatefulPartitionedCall/tfgpt2lm_head_model_1/transformer/h_._1/attn/strided_slice_10/stack_1", "op": "Const", "attr": {"dtype": {"type": "DT_INT32"}, "value": {"tensor": {"dtype": "DT_INT32", "tensorShape": {"dim": [{"size": "1"}]}}}}}, {"name": "StatefulPartitionedCall/tfgpt2lm_head_model_1/transformer/h_._1/attn/strided_slice_10/stack_2", "op": "Const", "attr": {"value": {"tensor": {"dtype": "DT_INT32", "tensorShape": {"dim": [{"size": "1"}]}}}, "dtype": {"type": "DT_INT32"}}}, {"name": "StatefulPartitionedCall/tfgpt2lm_head_model_1/transformer/h_._1/attn/add_2/y", "op": "Const", "attr": {"value": {"tensor": {"dtype": "DT_FLOAT", "tensorShape": {}}}, "dtype": {"type": "DT_FLOAT"}}}, {"name": "StatefulPartitionedCall/tfgpt2lm_head_model_1/transformer/h_._1/attn/strided_slice_4/stack", "op": "Const", "attr": {"value": {"tensor": {"dtype": "DT_INT32", "tensorShape": {"dim": [{"size": "1"}]}}}, "dtype": {"type": "DT_INT32"}}}, {"name": "StatefulPartitionedCall/tfgpt2lm_head_model_1/transformer/h_._1/attn/strided_slice_4/stack_1", "op": "Const", "attr": {"value": {"tensor": {"dtype": "DT_INT32", "tensorShape": {"dim": [{"size": "1"}]}}}, "dtype": {"type": "DT_INT32"}}}, {"name": "StatefulPartitionedCall/tfgpt2lm_head_model_1/transformer/h_._1/attn/strided_slice_4/stack_2", "op": "Const", "attr": {"dtype": {"type": "DT_INT32"}, "value": {"tensor": {"dtype": "DT_INT32", "tensorShape": {"dim": [{"size": "1"}]}}}}}, {"name": "StatefulPartitionedCall/tfgpt2lm_head_model_1/transformer/h_._1/attn/split/split_dim", "op": "Const", "attr": {"dtype": {"type": "DT_INT32"}, "value": {"tensor": {"dtype": "DT_INT32", "tensorShape": {}}}}}, {"name": "StatefulPartitionedCall/tfgpt2lm_head_model_1/transformer/h_._1/attn/c_attn/Reshape/shape", "op": "Const", "attr": {"dtype": {"type": "DT_INT32"}, "value": {"tensor": {"dtype": "DT_INT32", "tensorShape": {"dim": [{"size": "2"}]}}}}}, {"name": "StatefulPartitionedCall/tfgpt2lm_head_model_1/transformer/h_._1/attn/c_attn/MatMul/ReadVariableOp", "op": "Const", "attr": {"value": {"tensor": {"dtype": "DT_FLOAT", "tensorShape": {"dim": [{"size": "768"}, {"size": "2304"}]}}}, "dtype": {"type": "DT_FLOAT"}}}, {"name": "StatefulPartitionedCall/tfgpt2lm_head_model_1/transformer/h_._1/attn/c_attn/add/ReadVariableOp", "op": "Const", "attr": {"dtype": {"type": "DT_FLOAT"}, "value": {"tensor": {"dtype": "DT_FLOAT", "tensorShape": {"dim": [{"size": "1"}, {"size": "2304"}]}}}}}, {"name": "StatefulPartitionedCall/tfgpt2lm_head_model_1/transformer/h_._1/attn/c_attn/strided_slice/stack", "op": "Const", "attr": {"dtype": {"type": "DT_INT32"}, "value": {"tensor": {"dtype": "DT_INT32", "tensorShape": {"dim": [{"size": "1"}]}}}}}, {"name": "StatefulPartitionedCall/tfgpt2lm_head_model_1/transformer/h_._1/attn/c_attn/strided_slice/stack_1", "op": "Const", "attr": {"dtype": {"type": "DT_INT32"}, "value": {"tensor": {"dtype": "DT_INT32", "tensorShape": {"dim": [{"size": "1"}]}}}}}, {"name": "StatefulPartitionedCall/tfgpt2lm_head_model_1/transformer/h_._1/attn/c_attn/strided_slice/stack_2", "op": "Const", "attr": {"value": {"tensor": {"dtype": "DT_INT32", "tensorShape": {"dim": [{"size": "1"}]}}}, "dtype": {"type": "DT_INT32"}}}, {"name": "StatefulPartitionedCall/tfgpt2lm_head_model_1/transformer/h_._1/ln_1/batchnorm/ReadVariableOp", "op": "Const", "attr": {"value": {"tensor": {"dtype": "DT_FLOAT", "tensorShape": {"dim": [{"size": "768"}]}}}, "dtype": {"type": "DT_FLOAT"}}}, {"name": "StatefulPartitionedCall/tfgpt2lm_head_model_1/transformer/h_._0/mlp/c_proj/Reshape/shape", "op": "Const", "attr": {"dtype": {"type": "DT_INT32"}, "value": {"tensor": {"dtype": "DT_INT32", "tensorShape": {"dim": [{"size": "2"}]}}}}}, {"name": "StatefulPartitionedCall/tfgpt2lm_head_model_1/transformer/h_._0/mlp/c_proj/MatMul/ReadVariableOp", "op": "Const", "attr": {"value": {"tensor": {"dtype": "DT_FLOAT", "tensorShape": {"dim": [{"size": "3072"}, {"size": "768"}]}}}, "dtype": {"type": "DT_FLOAT"}}}, {"name": "StatefulPartitionedCall/tfgpt2lm_head_model_1/transformer/h_._0/mlp/c_proj/add/ReadVariableOp", "op": "Const", "attr": {"value": {"tensor": {"dtype": "DT_FLOAT", "tensorShape": {"dim": [{"size": "1"}, {"size": "768"}]}}}, "dtype": {"type": "DT_FLOAT"}}}, {"name": "StatefulPartitionedCall/tfgpt2lm_head_model_1/transformer/h_._0/mlp/c_proj/strided_slice/stack", "op": "Const", "attr": {"dtype": {"type": "DT_INT32"}, "value": {"tensor": {"dtype": "DT_INT32", "tensorShape": {"dim": [{"size": "1"}]}}}}}, {"name": "StatefulPartitionedCall/tfgpt2lm_head_model_1/transformer/h_._0/mlp/c_proj/strided_slice/stack_1", "op": "Const", "attr": {"value": {"tensor": {"dtype": "DT_INT32", "tensorShape": {"dim": [{"size": "1"}]}}}, "dtype": {"type": "DT_INT32"}}}, {"name": "StatefulPartitionedCall/tfgpt2lm_head_model_1/transformer/h_._0/mlp/c_proj/strided_slice/stack_2", "op": "Const", "attr": {"dtype": {"type": "DT_INT32"}, "value": {"tensor": {"dtype": "DT_INT32", "tensorShape": {"dim": [{"size": "1"}]}}}}}, {"name": "StatefulPartitionedCall/tfgpt2lm_head_model_1/transformer/h_._0/mlp/Gelu/mul/x", "op": "Const", "attr": {"dtype": {"type": "DT_FLOAT"}, "value": {"tensor": {"dtype": "DT_FLOAT", "tensorShape": {}}}}}, {"name": "StatefulPartitionedCall/tfgpt2lm_head_model_1/transformer/h_._0/mlp/Gelu/add_1/x", "op": "Const", "attr": {"dtype": {"type": "DT_FLOAT"}, "value": {"tensor": {"dtype": "DT_FLOAT", "tensorShape": {}}}}}, {"name": "StatefulPartitionedCall/tfgpt2lm_head_model_1/transformer/h_._0/mlp/Gelu/mul_2/x", "op": "Const", "attr": {"value": {"tensor": {"dtype": "DT_FLOAT", "tensorShape": {}}}, "dtype": {"type": "DT_FLOAT"}}}, {"name": "StatefulPartitionedCall/tfgpt2lm_head_model_1/transformer/h_._0/mlp/Gelu/Cast/x", "op": "Const", "attr": {"dtype": {"type": "DT_FLOAT"}, "value": {"tensor": {"dtype": "DT_FLOAT", "tensorShape": {}}}}}, {"name": "StatefulPartitionedCall/tfgpt2lm_head_model_1/transformer/h_._0/mlp/c_fc/Reshape/shape", "op": "Const", "attr": {"value": {"tensor": {"dtype": "DT_INT32", "tensorShape": {"dim": [{"size": "2"}]}}}, "dtype": {"type": "DT_INT32"}}}, {"name": "StatefulPartitionedCall/tfgpt2lm_head_model_1/transformer/h_._0/mlp/c_fc/MatMul/ReadVariableOp", "op": "Const", "attr": {"dtype": {"type": "DT_FLOAT"}, "value": {"tensor": {"dtype": "DT_FLOAT", "tensorShape": {"dim": [{"size": "768"}, {"size": "3072"}]}}}}}, {"name": "StatefulPartitionedCall/tfgpt2lm_head_model_1/transformer/h_._0/mlp/c_fc/add/ReadVariableOp", "op": "Const", "attr": {"value": {"tensor": {"dtype": "DT_FLOAT", "tensorShape": {"dim": [{"size": "1"}, {"size": "3072"}]}}}, "dtype": {"type": "DT_FLOAT"}}}, {"name": "StatefulPartitionedCall/tfgpt2lm_head_model_1/transformer/h_._0/mlp/c_fc/strided_slice/stack", "op": "Const", "attr": {"dtype": {"type": "DT_INT32"}, "value": {"tensor": {"dtype": "DT_INT32", "tensorShape": {"dim": [{"size": "1"}]}}}}}, {"name": "StatefulPartitionedCall/tfgpt2lm_head_model_1/transformer/h_._0/mlp/c_fc/strided_slice/stack_1", "op": "Const", "attr": {"value": {"tensor": {"dtype": "DT_INT32", "tensorShape": {"dim": [{"size": "1"}]}}}, "dtype": {"type": "DT_INT32"}}}, {"name": "StatefulPartitionedCall/tfgpt2lm_head_model_1/transformer/h_._0/mlp/c_fc/strided_slice/stack_2", "op": "Const", "attr": {"value": {"tensor": {"dtype": "DT_INT32", "tensorShape": {"dim": [{"size": "1"}]}}}, "dtype": {"type": "DT_INT32"}}}, {"name": "StatefulPartitionedCall/tfgpt2lm_head_model_1/transformer/h_._0/ln_2/batchnorm/ReadVariableOp", "op": "Const", "attr": {"value": {"tensor": {"dtype": "DT_FLOAT", "tensorShape": {"dim": [{"size": "768"}]}}}, "dtype": {"type": "DT_FLOAT"}}}, {"name": "StatefulPartitionedCall/tfgpt2lm_head_model_1/transformer/h_._0/attn/c_proj/Reshape/shape", "op": "Const", "attr": {"dtype": {"type": "DT_INT32"}, "value": {"tensor": {"dtype": "DT_INT32", "tensorShape": {"dim": [{"size": "2"}]}}}}}, {"name": "StatefulPartitionedCall/tfgpt2lm_head_model_1/transformer/h_._0/attn/c_proj/MatMul/ReadVariableOp", "op": "Const", "attr": {"value": {"tensor": {"dtype": "DT_FLOAT", "tensorShape": {"dim": [{"size": "768"}, {"size": "768"}]}}}, "dtype": {"type": "DT_FLOAT"}}}, {"name": "StatefulPartitionedCall/tfgpt2lm_head_model_1/transformer/h_._0/attn/c_proj/add/ReadVariableOp", "op": "Const", "attr": {"value": {"tensor": {"dtype": "DT_FLOAT", "tensorShape": {"dim": [{"size": "1"}, {"size": "768"}]}}}, "dtype": {"type": "DT_FLOAT"}}}, {"name": "StatefulPartitionedCall/tfgpt2lm_head_model_1/transformer/h_._0/attn/c_proj/strided_slice/stack", "op": "Const", "attr": {"dtype": {"type": "DT_INT32"}, "value": {"tensor": {"dtype": "DT_INT32", "tensorShape": {"dim": [{"size": "1"}]}}}}}, {"name": "StatefulPartitionedCall/tfgpt2lm_head_model_1/transformer/h_._0/attn/c_proj/strided_slice/stack_1", "op": "Const", "attr": {"value": {"tensor": {"dtype": "DT_INT32", "tensorShape": {"dim": [{"size": "1"}]}}}, "dtype": {"type": "DT_INT32"}}}, {"name": "StatefulPartitionedCall/tfgpt2lm_head_model_1/transformer/h_._0/attn/c_proj/strided_slice/stack_2", "op": "Const", "attr": {"dtype": {"type": "DT_INT32"}, "value": {"tensor": {"dtype": "DT_INT32", "tensorShape": {"dim": [{"size": "1"}]}}}}}, {"name": "StatefulPartitionedCall/tfgpt2lm_head_model_1/transformer/h_._0/attn/strided_slice_12/stack", "op": "Const", "attr": {"value": {"tensor": {"dtype": "DT_INT32", "tensorShape": {"dim": [{"size": "1"}]}}}, "dtype": {"type": "DT_INT32"}}}, {"name": "StatefulPartitionedCall/tfgpt2lm_head_model_1/transformer/h_._0/attn/strided_slice_12/stack_1", "op": "Const", "attr": {"dtype": {"type": "DT_INT32"}, "value": {"tensor": {"dtype": "DT_INT32", "tensorShape": {"dim": [{"size": "1"}]}}}}}, {"name": "StatefulPartitionedCall/tfgpt2lm_head_model_1/transformer/h_._0/attn/strided_slice_12/stack_2", "op": "Const", "attr": {"value": {"tensor": {"dtype": "DT_INT32", "tensorShape": {"dim": [{"size": "1"}]}}}, "dtype": {"type": "DT_INT32"}}}, {"name": "StatefulPartitionedCall/tfgpt2lm_head_model_1/transformer/h_._0/attn/mul_1/x", "op": "Const", "attr": {"value": {"tensor": {"dtype": "DT_FLOAT", "tensorShape": {}}}, "dtype": {"type": "DT_FLOAT"}}}, {"name": "StatefulPartitionedCall/tfgpt2lm_head_model_1/transformer/h_._0/attn/sub_1/x", "op": "Const", "attr": {"value": {"tensor": {"dtype": "DT_FLOAT", "tensorShape": {}}}, "dtype": {"type": "DT_FLOAT"}}}, {"name": "StatefulPartitionedCall/tfgpt2lm_head_model_1/transformer/h_._0/attn/range/start", "op": "Const", "attr": {"value": {"tensor": {"dtype": "DT_INT32", "tensorShape": {}}}, "dtype": {"type": "DT_INT32"}}}, {"name": "StatefulPartitionedCall/tfgpt2lm_head_model_1/transformer/h_._0/attn/range/delta", "op": "Const", "attr": {"dtype": {"type": "DT_INT32"}, "value": {"tensor": {"dtype": "DT_INT32", "tensorShape": {}}}}}, {"name": "StatefulPartitionedCall/tfgpt2lm_head_model_1/transformer/h_._0/attn/strided_slice_11/stack", "op": "Const", "attr": {"dtype": {"type": "DT_INT32"}, "value": {"tensor": {"dtype": "DT_INT32", "tensorShape": {"dim": [{"size": "2"}]}}}}}, {"name": "StatefulPartitionedCall/tfgpt2lm_head_model_1/transformer/h_._0/attn/strided_slice_11/stack_1", "op": "Const", "attr": {"dtype": {"type": "DT_INT32"}, "value": {"tensor": {"dtype": "DT_INT32", "tensorShape": {"dim": [{"size": "2"}]}}}}}, {"name": "StatefulPartitionedCall/tfgpt2lm_head_model_1/transformer/h_._0/attn/strided_slice_11/stack_2", "op": "Const", "attr": {"dtype": {"type": "DT_INT32"}, "value": {"tensor": {"dtype": "DT_INT32", "tensorShape": {"dim": [{"size": "2"}]}}}}}, {"name": "StatefulPartitionedCall/tfgpt2lm_head_model_1/transformer/h_._0/attn/range_1/start", "op": "Const", "attr": {"dtype": {"type": "DT_INT32"}, "value": {"tensor": {"dtype": "DT_INT32", "tensorShape": {}}}}}, {"name": "StatefulPartitionedCall/tfgpt2lm_head_model_1/transformer/h_._0/attn/range_1/delta", "op": "Const", "attr": {"value": {"tensor": {"dtype": "DT_INT32", "tensorShape": {}}}, "dtype": {"type": "DT_INT32"}}}, {"name": "StatefulPartitionedCall/tfgpt2lm_head_model_1/transformer/h_._0/attn/Reshape_3/shape/0", "op": "Const", "attr": {"dtype": {"type": "DT_INT32"}, "value": {"tensor": {"dtype": "DT_INT32", "tensorShape": {}}}}}, {"name": "StatefulPartitionedCall/tfgpt2lm_head_model_1/transformer/h_._0/attn/Reshape_3/shape/1", "op": "Const", "attr": {"value": {"tensor": {"dtype": "DT_INT32", "tensorShape": {}}}, "dtype": {"type": "DT_INT32"}}}, {"name": "StatefulPartitionedCall/tfgpt2lm_head_model_1/transformer/h_._0/attn/strided_slice_9/stack", "op": "Const", "attr": {"dtype": {"type": "DT_INT32"}, "value": {"tensor": {"dtype": "DT_INT32", "tensorShape": {"dim": [{"size": "1"}]}}}}}, {"name": "StatefulPartitionedCall/tfgpt2lm_head_model_1/transformer/h_._0/attn/strided_slice_9/stack_1", "op": "Const", "attr": {"dtype": {"type": "DT_INT32"}, "value": {"tensor": {"dtype": "DT_INT32", "tensorShape": {"dim": [{"size": "1"}]}}}}}, {"name": "StatefulPartitionedCall/tfgpt2lm_head_model_1/transformer/h_._0/attn/strided_slice_9/stack_2", "op": "Const", "attr": {"dtype": {"type": "DT_INT32"}, "value": {"tensor": {"dtype": "DT_INT32", "tensorShape": {"dim": [{"size": "1"}]}}}}}, {"name": "StatefulPartitionedCall/tfgpt2lm_head_model_1/transformer/h_._0/attn/strided_slice/stack", "op": "Const", "attr": {"dtype": {"type": "DT_INT32"}, "value": {"tensor": {"dtype": "DT_INT32", "tensorShape": {"dim": [{"size": "1"}]}}}}}, {"name": "StatefulPartitionedCall/tfgpt2lm_head_model_1/transformer/h_._0/attn/strided_slice/stack_1", "op": "Const", "attr": {"value": {"tensor": {"dtype": "DT_INT32", "tensorShape": {"dim": [{"size": "1"}]}}}, "dtype": {"type": "DT_INT32"}}}, {"name": "StatefulPartitionedCall/tfgpt2lm_head_model_1/transformer/h_._0/attn/strided_slice/stack_2", "op": "Const", "attr": {"value": {"tensor": {"dtype": "DT_INT32", "tensorShape": {"dim": [{"size": "1"}]}}}, "dtype": {"type": "DT_INT32"}}}, {"name": "StatefulPartitionedCall/tfgpt2lm_head_model_1/transformer/h_._0/attn/strided_slice_1/stack", "op": "Const", "attr": {"value": {"tensor": {"dtype": "DT_INT32", "tensorShape": {"dim": [{"size": "1"}]}}}, "dtype": {"type": "DT_INT32"}}}, {"name": "StatefulPartitionedCall/tfgpt2lm_head_model_1/transformer/h_._0/attn/strided_slice_1/stack_1", "op": "Const", "attr": {"value": {"tensor": {"dtype": "DT_INT32", "tensorShape": {"dim": [{"size": "1"}]}}}, "dtype": {"type": "DT_INT32"}}}, {"name": "StatefulPartitionedCall/tfgpt2lm_head_model_1/transformer/h_._0/attn/strided_slice_1/stack_2", "op": "Const", "attr": {"value": {"tensor": {"dtype": "DT_INT32", "tensorShape": {"dim": [{"size": "1"}]}}}, "dtype": {"type": "DT_INT32"}}}, {"name": "StatefulPartitionedCall/tfgpt2lm_head_model_1/transformer/h_._0/attn/Reshape/shape/2", "op": "Const", "attr": {"value": {"tensor": {"dtype": "DT_INT32", "tensorShape": {}}}, "dtype": {"type": "DT_INT32"}}}, {"name": "StatefulPartitionedCall/tfgpt2lm_head_model_1/transformer/h_._0/attn/Reshape/shape/3", "op": "Const", "attr": {"dtype": {"type": "DT_INT32"}, "value": {"tensor": {"dtype": "DT_INT32", "tensorShape": {}}}}}, {"name": "StatefulPartitionedCall/tfgpt2lm_head_model_1/transformer/h_._0/attn/transpose/perm", "op": "Const", "attr": {"dtype": {"type": "DT_INT32"}, "value": {"tensor": {"dtype": "DT_INT32", "tensorShape": {"dim": [{"size": "4"}]}}}}}, {"name": "StatefulPartitionedCall/tfgpt2lm_head_model_1/transformer/h_._0/attn/strided_slice_2/stack", "op": "Const", "attr": {"dtype": {"type": "DT_INT32"}, "value": {"tensor": {"dtype": "DT_INT32", "tensorShape": {"dim": [{"size": "1"}]}}}}}, {"name": "StatefulPartitionedCall/tfgpt2lm_head_model_1/transformer/h_._0/attn/strided_slice_2/stack_1", "op": "Const", "attr": {"value": {"tensor": {"dtype": "DT_INT32", "tensorShape": {"dim": [{"size": "1"}]}}}, "dtype": {"type": "DT_INT32"}}}, {"name": "StatefulPartitionedCall/tfgpt2lm_head_model_1/transformer/h_._0/attn/strided_slice_2/stack_2", "op": "Const", "attr": {"dtype": {"type": "DT_INT32"}, "value": {"tensor": {"dtype": "DT_INT32", "tensorShape": {"dim": [{"size": "1"}]}}}}}, {"name": "StatefulPartitionedCall/tfgpt2lm_head_model_1/transformer/h_._0/attn/strided_slice_3/stack", "op": "Const", "attr": {"value": {"tensor": {"dtype": "DT_INT32", "tensorShape": {"dim": [{"size": "1"}]}}}, "dtype": {"type": "DT_INT32"}}}, {"name": "StatefulPartitionedCall/tfgpt2lm_head_model_1/transformer/h_._0/attn/strided_slice_3/stack_1", "op": "Const", "attr": {"value": {"tensor": {"dtype": "DT_INT32", "tensorShape": {"dim": [{"size": "1"}]}}}, "dtype": {"type": "DT_INT32"}}}, {"name": "StatefulPartitionedCall/tfgpt2lm_head_model_1/transformer/h_._0/attn/strided_slice_3/stack_2", "op": "Const", "attr": {"dtype": {"type": "DT_INT32"}, "value": {"tensor": {"dtype": "DT_INT32", "tensorShape": {"dim": [{"size": "1"}]}}}}}, {"name": "StatefulPartitionedCall/tfgpt2lm_head_model_1/transformer/h_._0/attn/Reshape_1/shape/2", "op": "Const", "attr": {"value": {"tensor": {"dtype": "DT_INT32", "tensorShape": {}}}, "dtype": {"type": "DT_INT32"}}}, {"name": "StatefulPartitionedCall/tfgpt2lm_head_model_1/transformer/h_._0/attn/Reshape_1/shape/3", "op": "Const", "attr": {"value": {"tensor": {"dtype": "DT_INT32", "tensorShape": {}}}, "dtype": {"type": "DT_INT32"}}}, {"name": "StatefulPartitionedCall/tfgpt2lm_head_model_1/transformer/h_._0/attn/transpose_1/perm", "op": "Const", "attr": {"dtype": {"type": "DT_INT32"}, "value": {"tensor": {"dtype": "DT_INT32", "tensorShape": {"dim": [{"size": "4"}]}}}}}, {"name": "ConstantFolding/StatefulPartitionedCall/tfgpt2lm_head_model_1/transformer/h_._0/attn/truediv_recip", "op": "Const", "attr": {"value": {"tensor": {"dtype": "DT_FLOAT", "tensorShape": {}}}, "dtype": {"type": "DT_FLOAT"}}}, {"name": "StatefulPartitionedCall/tfgpt2lm_head_model_1/transformer/h_._0/attn/strided_slice_10/stack", "op": "Const", "attr": {"dtype": {"type": "DT_INT32"}, "value": {"tensor": {"dtype": "DT_INT32", "tensorShape": {"dim": [{"size": "1"}]}}}}}, {"name": "StatefulPartitionedCall/tfgpt2lm_head_model_1/transformer/h_._0/attn/strided_slice_10/stack_1", "op": "Const", "attr": {"value": {"tensor": {"dtype": "DT_INT32", "tensorShape": {"dim": [{"size": "1"}]}}}, "dtype": {"type": "DT_INT32"}}}, {"name": "StatefulPartitionedCall/tfgpt2lm_head_model_1/transformer/h_._0/attn/strided_slice_10/stack_2", "op": "Const", "attr": {"dtype": {"type": "DT_INT32"}, "value": {"tensor": {"dtype": "DT_INT32", "tensorShape": {"dim": [{"size": "1"}]}}}}}, {"name": "StatefulPartitionedCall/tfgpt2lm_head_model_1/transformer/h_._0/attn/add_2/y", "op": "Const", "attr": {"value": {"tensor": {"dtype": "DT_FLOAT", "tensorShape": {}}}, "dtype": {"type": "DT_FLOAT"}}}, {"name": "StatefulPartitionedCall/tfgpt2lm_head_model_1/transformer/Const", "op": "Const", "attr": {"value": {"tensor": {"dtype": "DT_FLOAT", "tensorShape": {}}}, "dtype": {"type": "DT_FLOAT"}}}, {"name": "StatefulPartitionedCall/tfgpt2lm_head_model_1/transformer/strided_slice_2/stack", "op": "Const", "attr": {"dtype": {"type": "DT_INT32"}, "value": {"tensor": {"dtype": "DT_INT32", "tensorShape": {"dim": [{"size": "1"}]}}}}}, {"name": "StatefulPartitionedCall/tfgpt2lm_head_model_1/transformer/strided_slice_2/stack_1", "op": "Const", "attr": {"dtype": {"type": "DT_INT32"}, "value": {"tensor": {"dtype": "DT_INT32", "tensorShape": {"dim": [{"size": "1"}]}}}}}, {"name": "StatefulPartitionedCall/tfgpt2lm_head_model_1/transformer/strided_slice_2/stack_2", "op": "Const", "attr": {"value": {"tensor": {"dtype": "DT_INT32", "tensorShape": {"dim": [{"size": "1"}]}}}, "dtype": {"type": "DT_INT32"}}}, {"name": "StatefulPartitionedCall/tfgpt2lm_head_model_1/transformer/Reshape_1/shape/1", "op": "Const", "attr": {"value": {"tensor": {"dtype": "DT_INT32", "tensorShape": {}}}, "dtype": {"type": "DT_INT32"}}}, {"name": "StatefulPartitionedCall/tfgpt2lm_head_model_1/transformer/Reshape_1/shape/2", "op": "Const", "attr": {"value": {"tensor": {"dtype": "DT_INT32", "tensorShape": {}}}, "dtype": {"type": "DT_INT32"}}}, {"name": "StatefulPartitionedCall/tfgpt2lm_head_model_1/transformer/strided_slice_3/stack", "op": "Const", "attr": {"dtype": {"type": "DT_INT32"}, "value": {"tensor": {"dtype": "DT_INT32", "tensorShape": {"dim": [{"size": "1"}]}}}}}, {"name": "StatefulPartitionedCall/tfgpt2lm_head_model_1/transformer/strided_slice_3/stack_1", "op": "Const", "attr": {"dtype": {"type": "DT_INT32"}, "value": {"tensor": {"dtype": "DT_INT32", "tensorShape": {"dim": [{"size": "1"}]}}}}}, {"name": "StatefulPartitionedCall/tfgpt2lm_head_model_1/transformer/strided_slice_3/stack_2", "op": "Const", "attr": {"dtype": {"type": "DT_INT32"}, "value": {"tensor": {"dtype": "DT_INT32", "tensorShape": {"dim": [{"size": "1"}]}}}}}, {"name": "StatefulPartitionedCall/tfgpt2lm_head_model_1/transformer/Const_1", "op": "Const", "attr": {"value": {"tensor": {"dtype": "DT_FLOAT", "tensorShape": {}}}, "dtype": {"type": "DT_FLOAT"}}}, {"name": "StatefulPartitionedCall/tfgpt2lm_head_model_1/transformer/h_._0/attn/strided_slice_4/stack", "op": "Const", "attr": {"dtype": {"type": "DT_INT32"}, "value": {"tensor": {"dtype": "DT_INT32", "tensorShape": {"dim": [{"size": "1"}]}}}}}, {"name": "StatefulPartitionedCall/tfgpt2lm_head_model_1/transformer/h_._0/attn/strided_slice_4/stack_1", "op": "Const", "attr": {"dtype": {"type": "DT_INT32"}, "value": {"tensor": {"dtype": "DT_INT32", "tensorShape": {"dim": [{"size": "1"}]}}}}}, {"name": "StatefulPartitionedCall/tfgpt2lm_head_model_1/transformer/h_._0/attn/strided_slice_4/stack_2", "op": "Const", "attr": {"value": {"tensor": {"dtype": "DT_INT32", "tensorShape": {"dim": [{"size": "1"}]}}}, "dtype": {"type": "DT_INT32"}}}, {"name": "StatefulPartitionedCall/tfgpt2lm_head_model_1/transformer/h_._0/attn/split/split_dim", "op": "Const", "attr": {"value": {"tensor": {"dtype": "DT_INT32", "tensorShape": {}}}, "dtype": {"type": "DT_INT32"}}}, {"name": "StatefulPartitionedCall/tfgpt2lm_head_model_1/transformer/h_._0/attn/c_attn/Reshape/shape", "op": "Const", "attr": {"value": {"tensor": {"dtype": "DT_INT32", "tensorShape": {"dim": [{"size": "2"}]}}}, "dtype": {"type": "DT_INT32"}}}, {"name": "StatefulPartitionedCall/tfgpt2lm_head_model_1/transformer/h_._0/attn/c_attn/MatMul/ReadVariableOp", "op": "Const", "attr": {"dtype": {"type": "DT_FLOAT"}, "value": {"tensor": {"dtype": "DT_FLOAT", "tensorShape": {"dim": [{"size": "768"}, {"size": "2304"}]}}}}}, {"name": "StatefulPartitionedCall/tfgpt2lm_head_model_1/transformer/h_._0/attn/c_attn/add/ReadVariableOp", "op": "Const", "attr": {"dtype": {"type": "DT_FLOAT"}, "value": {"tensor": {"dtype": "DT_FLOAT", "tensorShape": {"dim": [{"size": "1"}, {"size": "2304"}]}}}}}, {"name": "StatefulPartitionedCall/tfgpt2lm_head_model_1/transformer/h_._0/attn/c_attn/strided_slice/stack", "op": "Const", "attr": {"value": {"tensor": {"dtype": "DT_INT32", "tensorShape": {"dim": [{"size": "1"}]}}}, "dtype": {"type": "DT_INT32"}}}, {"name": "StatefulPartitionedCall/tfgpt2lm_head_model_1/transformer/h_._0/attn/c_attn/strided_slice/stack_1", "op": "Const", "attr": {"dtype": {"type": "DT_INT32"}, "value": {"tensor": {"dtype": "DT_INT32", "tensorShape": {"dim": [{"size": "1"}]}}}}}, {"name": "StatefulPartitionedCall/tfgpt2lm_head_model_1/transformer/h_._0/attn/c_attn/strided_slice/stack_2", "op": "Const", "attr": {"value": {"tensor": {"dtype": "DT_INT32", "tensorShape": {"dim": [{"size": "1"}]}}}, "dtype": {"type": "DT_INT32"}}}, {"name": "StatefulPartitionedCall/tfgpt2lm_head_model_1/transformer/h_._0/ln_1/batchnorm/ReadVariableOp", "op": "Const", "attr": {"value": {"tensor": {"dtype": "DT_FLOAT", "tensorShape": {"dim": [{"size": "768"}]}}}, "dtype": {"type": "DT_FLOAT"}}}, {"name": "unknown", "op": "Const", "attr": {"dtype": {"type": "DT_FLOAT"}, "value": {"tensor": {"dtype": "DT_FLOAT", "tensorShape": {"dim": [{"size": "50257"}, {"size": "768"}]}}}}}, {"name": "StatefulPartitionedCall/tfgpt2lm_head_model_1/transformer/wte/Gather/axis", "op": "Const", "attr": {"value": {"tensor": {"dtype": "DT_INT64", "tensorShape": {}}}, "dtype": {"type": "DT_INT64"}}}, {"name": "unknown_0", "op": "Const", "attr": {"value": {"tensor": {"dtype": "DT_FLOAT", "tensorShape": {"dim": [{"size": "1024"}, {"size": "768"}]}}}, "dtype": {"type": "DT_FLOAT"}}}, {"name": "StatefulPartitionedCall/tfgpt2lm_head_model_1/transformer/Reshape_2/shape/0", "op": "Const", "attr": {"dtype": {"type": "DT_INT32"}, "value": {"tensor": {"dtype": "DT_INT32", "tensorShape": {}}}}}, {"name": "StatefulPartitionedCall/tfgpt2lm_head_model_1/transformer/range/start", "op": "Const", "attr": {"dtype": {"type": "DT_INT32"}, "value": {"tensor": {"dtype": "DT_INT32", "tensorShape": {}}}}}, {"name": "StatefulPartitionedCall/tfgpt2lm_head_model_1/transformer/range/delta", "op": "Const", "attr": {"dtype": {"type": "DT_INT32"}, "value": {"tensor": {"dtype": "DT_INT32", "tensorShape": {}}}}}, {"name": "StatefulPartitionedCall/tfgpt2lm_head_model_1/transformer/ExpandDims/dim", "op": "Const", "attr": {"value": {"tensor": {"dtype": "DT_INT32", "tensorShape": {}}}, "dtype": {"type": "DT_INT32"}}}, {"name": "StatefulPartitionedCall/tfgpt2lm_head_model_1/transformer/strided_slice_4/stack", "op": "Const", "attr": {"value": {"tensor": {"dtype": "DT_INT32", "tensorShape": {"dim": [{"size": "1"}]}}}, "dtype": {"type": "DT_INT32"}}}, {"name": "StatefulPartitionedCall/tfgpt2lm_head_model_1/transformer/strided_slice_4/stack_1", "op": "Const", "attr": {"dtype": {"type": "DT_INT32"}, "value": {"tensor": {"dtype": "DT_INT32", "tensorShape": {"dim": [{"size": "1"}]}}}}}, {"name": "StatefulPartitionedCall/tfgpt2lm_head_model_1/transformer/strided_slice_4/stack_2", "op": "Const", "attr": {"dtype": {"type": "DT_INT32"}, "value": {"tensor": {"dtype": "DT_INT32", "tensorShape": {"dim": [{"size": "1"}]}}}}}, {"name": "StatefulPartitionedCall/tfgpt2lm_head_model_1/transformer/Gather/axis", "op": "Const", "attr": {"dtype": {"type": "DT_INT32"}, "value": {"tensor": {"dtype": "DT_INT32", "tensorShape": {}}}}}, {"name": "StatefulPartitionedCall/tfgpt2lm_head_model_1/transformer/h_._0/ln_1/moments/mean/reduction_indices", "op": "Const", "attr": {"value": {"tensor": {"dtype": "DT_INT32", "tensorShape": {"dim": [{"size": "1"}]}}}, "dtype": {"type": "DT_INT32"}}}, {"name": "StatefulPartitionedCall/tfgpt2lm_head_model_1/transformer/h_._0/ln_1/moments/variance/reduction_indices", "op": "Const", "attr": {"value": {"tensor": {"dtype": "DT_INT32", "tensorShape": {"dim": [{"size": "1"}]}}}, "dtype": {"type": "DT_INT32"}}}, {"name": "StatefulPartitionedCall/tfgpt2lm_head_model_1/transformer/h_._0/ln_1/batchnorm/add/y", "op": "Const", "attr": {"value": {"tensor": {"dtype": "DT_FLOAT", "tensorShape": {}}}, "dtype": {"type": "DT_FLOAT"}}}, {"name": "StatefulPartitionedCall/tfgpt2lm_head_model_1/transformer/h_._0/ln_1/batchnorm/mul/ReadVariableOp", "op": "Const", "attr": {"dtype": {"type": "DT_FLOAT"}, "value": {"tensor": {"dtype": "DT_FLOAT", "tensorShape": {"dim": [{"size": "768"}]}}}}}, {"name": "StatefulPartitionedCall/tfgpt2lm_head_model_1/transformer/h_._0/attn/c_attn/strided_slice_1/stack", "op": "Const", "attr": {"dtype": {"type": "DT_INT32"}, "value": {"tensor": {"dtype": "DT_INT32", "tensorShape": {"dim": [{"size": "1"}]}}}}}, {"name": "StatefulPartitionedCall/tfgpt2lm_head_model_1/transformer/h_._0/attn/c_attn/strided_slice_1/stack_1", "op": "Const", "attr": {"dtype": {"type": "DT_INT32"}, "value": {"tensor": {"dtype": "DT_INT32", "tensorShape": {"dim": [{"size": "1"}]}}}}}, {"name": "StatefulPartitionedCall/tfgpt2lm_head_model_1/transformer/h_._0/attn/c_attn/strided_slice_1/stack_2", "op": "Const", "attr": {"value": {"tensor": {"dtype": "DT_INT32", "tensorShape": {"dim": [{"size": "1"}]}}}, "dtype": {"type": "DT_INT32"}}}, {"name": "StatefulPartitionedCall/tfgpt2lm_head_model_1/transformer/h_._0/attn/c_attn/Reshape_1/shape/2", "op": "Const", "attr": {"value": {"tensor": {"dtype": "DT_INT32", "tensorShape": {}}}, "dtype": {"type": "DT_INT32"}}}, {"name": "StatefulPartitionedCall/tfgpt2lm_head_model_1/transformer/h_._0/attn/strided_slice_5/stack", "op": "Const", "attr": {"dtype": {"type": "DT_INT32"}, "value": {"tensor": {"dtype": "DT_INT32", "tensorShape": {"dim": [{"size": "1"}]}}}}}, {"name": "StatefulPartitionedCall/tfgpt2lm_head_model_1/transformer/h_._0/attn/strided_slice_5/stack_1", "op": "Const", "attr": {"value": {"tensor": {"dtype": "DT_INT32", "tensorShape": {"dim": [{"size": "1"}]}}}, "dtype": {"type": "DT_INT32"}}}, {"name": "StatefulPartitionedCall/tfgpt2lm_head_model_1/transformer/h_._0/attn/strided_slice_5/stack_2", "op": "Const", "attr": {"dtype": {"type": "DT_INT32"}, "value": {"tensor": {"dtype": "DT_INT32", "tensorShape": {"dim": [{"size": "1"}]}}}}}, {"name": "StatefulPartitionedCall/tfgpt2lm_head_model_1/transformer/h_._0/attn/Reshape_2/shape/2", "op": "Const", "attr": {"value": {"tensor": {"dtype": "DT_INT32", "tensorShape": {}}}, "dtype": {"type": "DT_INT32"}}}, {"name": "StatefulPartitionedCall/tfgpt2lm_head_model_1/transformer/h_._0/attn/Reshape_2/shape/3", "op": "Const", "attr": {"value": {"tensor": {"dtype": "DT_INT32", "tensorShape": {}}}, "dtype": {"type": "DT_INT32"}}}, {"name": "StatefulPartitionedCall/tfgpt2lm_head_model_1/transformer/h_._0/attn/transpose_2/perm", "op": "Const", "attr": {"dtype": {"type": "DT_INT32"}, "value": {"tensor": {"dtype": "DT_INT32", "tensorShape": {"dim": [{"size": "4"}]}}}}}, {"name": "StatefulPartitionedCall/tfgpt2lm_head_model_1/transformer/h_._0/attn/transpose_3/perm", "op": "Const", "attr": {"value": {"tensor": {"dtype": "DT_INT32", "tensorShape": {"dim": [{"size": "4"}]}}}, "dtype": {"type": "DT_INT32"}}}, {"name": "StatefulPartitionedCall/tfgpt2lm_head_model_1/transformer/h_._0/attn/strided_slice_13/stack", "op": "Const", "attr": {"dtype": {"type": "DT_INT32"}, "value": {"tensor": {"dtype": "DT_INT32", "tensorShape": {"dim": [{"size": "1"}]}}}}}, {"name": "StatefulPartitionedCall/tfgpt2lm_head_model_1/transformer/h_._0/attn/strided_slice_13/stack_1", "op": "Const", "attr": {"dtype": {"type": "DT_INT32"}, "value": {"tensor": {"dtype": "DT_INT32", "tensorShape": {"dim": [{"size": "1"}]}}}}}, {"name": "StatefulPartitionedCall/tfgpt2lm_head_model_1/transformer/h_._0/attn/strided_slice_13/stack_2", "op": "Const", "attr": {"dtype": {"type": "DT_INT32"}, "value": {"tensor": {"dtype": "DT_INT32", "tensorShape": {"dim": [{"size": "1"}]}}}}}, {"name": "StatefulPartitionedCall/tfgpt2lm_head_model_1/transformer/h_._0/attn/Reshape_4/shape/2", "op": "Const", "attr": {"dtype": {"type": "DT_INT32"}, "value": {"tensor": {"dtype": "DT_INT32", "tensorShape": {}}}}}, {"name": "StatefulPartitionedCall/tfgpt2lm_head_model_1/transformer/h_._0/attn/c_proj/strided_slice_1/stack", "op": "Const", "attr": {"value": {"tensor": {"dtype": "DT_INT32", "tensorShape": {"dim": [{"size": "1"}]}}}, "dtype": {"type": "DT_INT32"}}}, {"name": "StatefulPartitionedCall/tfgpt2lm_head_model_1/transformer/h_._0/attn/c_proj/strided_slice_1/stack_1", "op": "Const", "attr": {"value": {"tensor": {"dtype": "DT_INT32", "tensorShape": {"dim": [{"size": "1"}]}}}, "dtype": {"type": "DT_INT32"}}}, {"name": "StatefulPartitionedCall/tfgpt2lm_head_model_1/transformer/h_._0/attn/c_proj/strided_slice_1/stack_2", "op": "Const", "attr": {"dtype": {"type": "DT_INT32"}, "value": {"tensor": {"dtype": "DT_INT32", "tensorShape": {"dim": [{"size": "1"}]}}}}}, {"name": "StatefulPartitionedCall/tfgpt2lm_head_model_1/transformer/h_._0/attn/c_proj/Reshape_1/shape/2", "op": "Const", "attr": {"value": {"tensor": {"dtype": "DT_INT32", "tensorShape": {}}}, "dtype": {"type": "DT_INT32"}}}, {"name": "StatefulPartitionedCall/tfgpt2lm_head_model_1/transformer/h_._0/ln_2/moments/mean/reduction_indices", "op": "Const", "attr": {"value": {"tensor": {"dtype": "DT_INT32", "tensorShape": {"dim": [{"size": "1"}]}}}, "dtype": {"type": "DT_INT32"}}}, {"name": "StatefulPartitionedCall/tfgpt2lm_head_model_1/transformer/h_._0/ln_2/moments/variance/reduction_indices", "op": "Const", "attr": {"value": {"tensor": {"dtype": "DT_INT32", "tensorShape": {"dim": [{"size": "1"}]}}}, "dtype": {"type": "DT_INT32"}}}, {"name": "StatefulPartitionedCall/tfgpt2lm_head_model_1/transformer/h_._0/ln_2/batchnorm/add/y", "op": "Const", "attr": {"dtype": {"type": "DT_FLOAT"}, "value": {"tensor": {"dtype": "DT_FLOAT", "tensorShape": {}}}}}, {"name": "StatefulPartitionedCall/tfgpt2lm_head_model_1/transformer/h_._0/ln_2/batchnorm/mul/ReadVariableOp", "op": "Const", "attr": {"dtype": {"type": "DT_FLOAT"}, "value": {"tensor": {"dtype": "DT_FLOAT", "tensorShape": {"dim": [{"size": "768"}]}}}}}, {"name": "StatefulPartitionedCall/tfgpt2lm_head_model_1/transformer/h_._0/mlp/c_fc/strided_slice_1/stack", "op": "Const", "attr": {"value": {"tensor": {"dtype": "DT_INT32", "tensorShape": {"dim": [{"size": "1"}]}}}, "dtype": {"type": "DT_INT32"}}}, {"name": "StatefulPartitionedCall/tfgpt2lm_head_model_1/transformer/h_._0/mlp/c_fc/strided_slice_1/stack_1", "op": "Const", "attr": {"value": {"tensor": {"dtype": "DT_INT32", "tensorShape": {"dim": [{"size": "1"}]}}}, "dtype": {"type": "DT_INT32"}}}, {"name": "StatefulPartitionedCall/tfgpt2lm_head_model_1/transformer/h_._0/mlp/c_fc/strided_slice_1/stack_2", "op": "Const", "attr": {"value": {"tensor": {"dtype": "DT_INT32", "tensorShape": {"dim": [{"size": "1"}]}}}, "dtype": {"type": "DT_INT32"}}}, {"name": "StatefulPartitionedCall/tfgpt2lm_head_model_1/transformer/h_._0/mlp/c_fc/Reshape_1/shape/2", "op": "Const", "attr": {"dtype": {"type": "DT_INT32"}, "value": {"tensor": {"dtype": "DT_INT32", "tensorShape": {}}}}}, {"name": "StatefulPartitionedCall/tfgpt2lm_head_model_1/transformer/h_._0/mlp/Gelu/Pow/y", "op": "Const", "attr": {"dtype": {"type": "DT_FLOAT"}, "value": {"tensor": {"dtype": "DT_FLOAT", "tensorShape": {}}}}}, {"name": "StatefulPartitionedCall/tfgpt2lm_head_model_1/transformer/h_._0/mlp/c_proj/strided_slice_1/stack", "op": "Const", "attr": {"dtype": {"type": "DT_INT32"}, "value": {"tensor": {"dtype": "DT_INT32", "tensorShape": {"dim": [{"size": "1"}]}}}}}, {"name": "StatefulPartitionedCall/tfgpt2lm_head_model_1/transformer/h_._0/mlp/c_proj/strided_slice_1/stack_1", "op": "Const", "attr": {"dtype": {"type": "DT_INT32"}, "value": {"tensor": {"dtype": "DT_INT32", "tensorShape": {"dim": [{"size": "1"}]}}}}}, {"name": "StatefulPartitionedCall/tfgpt2lm_head_model_1/transformer/h_._0/mlp/c_proj/strided_slice_1/stack_2", "op": "Const", "attr": {"dtype": {"type": "DT_INT32"}, "value": {"tensor": {"dtype": "DT_INT32", "tensorShape": {"dim": [{"size": "1"}]}}}}}, {"name": "StatefulPartitionedCall/tfgpt2lm_head_model_1/transformer/h_._0/mlp/c_proj/Reshape_1/shape/2", "op": "Const", "attr": {"value": {"tensor": {"dtype": "DT_INT32", "tensorShape": {}}}, "dtype": {"type": "DT_INT32"}}}, {"name": "StatefulPartitionedCall/tfgpt2lm_head_model_1/transformer/h_._1/ln_1/moments/mean/reduction_indices", "op": "Const", "attr": {"value": {"tensor": {"dtype": "DT_INT32", "tensorShape": {"dim": [{"size": "1"}]}}}, "dtype": {"type": "DT_INT32"}}}, {"name": "StatefulPartitionedCall/tfgpt2lm_head_model_1/transformer/h_._1/ln_1/moments/variance/reduction_indices", "op": "Const", "attr": {"dtype": {"type": "DT_INT32"}, "value": {"tensor": {"dtype": "DT_INT32", "tensorShape": {"dim": [{"size": "1"}]}}}}}, {"name": "StatefulPartitionedCall/tfgpt2lm_head_model_1/transformer/h_._1/ln_1/batchnorm/add/y", "op": "Const", "attr": {"value": {"tensor": {"dtype": "DT_FLOAT", "tensorShape": {}}}, "dtype": {"type": "DT_FLOAT"}}}, {"name": "StatefulPartitionedCall/tfgpt2lm_head_model_1/transformer/h_._1/ln_1/batchnorm/mul/ReadVariableOp", "op": "Const", "attr": {"dtype": {"type": "DT_FLOAT"}, "value": {"tensor": {"dtype": "DT_FLOAT", "tensorShape": {"dim": [{"size": "768"}]}}}}}, {"name": "StatefulPartitionedCall/tfgpt2lm_head_model_1/transformer/h_._1/attn/c_attn/strided_slice_1/stack", "op": "Const", "attr": {"value": {"tensor": {"dtype": "DT_INT32", "tensorShape": {"dim": [{"size": "1"}]}}}, "dtype": {"type": "DT_INT32"}}}, {"name": "StatefulPartitionedCall/tfgpt2lm_head_model_1/transformer/h_._1/attn/c_attn/strided_slice_1/stack_1", "op": "Const", "attr": {"value": {"tensor": {"dtype": "DT_INT32", "tensorShape": {"dim": [{"size": "1"}]}}}, "dtype": {"type": "DT_INT32"}}}, {"name": "StatefulPartitionedCall/tfgpt2lm_head_model_1/transformer/h_._1/attn/c_attn/strided_slice_1/stack_2", "op": "Const", "attr": {"dtype": {"type": "DT_INT32"}, "value": {"tensor": {"dtype": "DT_INT32", "tensorShape": {"dim": [{"size": "1"}]}}}}}, {"name": "StatefulPartitionedCall/tfgpt2lm_head_model_1/transformer/h_._1/attn/c_attn/Reshape_1/shape/2", "op": "Const", "attr": {"dtype": {"type": "DT_INT32"}, "value": {"tensor": {"dtype": "DT_INT32", "tensorShape": {}}}}}, {"name": "StatefulPartitionedCall/tfgpt2lm_head_model_1/transformer/h_._1/attn/strided_slice_5/stack", "op": "Const", "attr": {"dtype": {"type": "DT_INT32"}, "value": {"tensor": {"dtype": "DT_INT32", "tensorShape": {"dim": [{"size": "1"}]}}}}}, {"name": "StatefulPartitionedCall/tfgpt2lm_head_model_1/transformer/h_._1/attn/strided_slice_5/stack_1", "op": "Const", "attr": {"value": {"tensor": {"dtype": "DT_INT32", "tensorShape": {"dim": [{"size": "1"}]}}}, "dtype": {"type": "DT_INT32"}}}, {"name": "StatefulPartitionedCall/tfgpt2lm_head_model_1/transformer/h_._1/attn/strided_slice_5/stack_2", "op": "Const", "attr": {"dtype": {"type": "DT_INT32"}, "value": {"tensor": {"dtype": "DT_INT32", "tensorShape": {"dim": [{"size": "1"}]}}}}}, {"name": "StatefulPartitionedCall/tfgpt2lm_head_model_1/transformer/h_._1/attn/Reshape_2/shape/2", "op": "Const", "attr": {"dtype": {"type": "DT_INT32"}, "value": {"tensor": {"dtype": "DT_INT32", "tensorShape": {}}}}}, {"name": "StatefulPartitionedCall/tfgpt2lm_head_model_1/transformer/h_._1/attn/Reshape_2/shape/3", "op": "Const", "attr": {"dtype": {"type": "DT_INT32"}, "value": {"tensor": {"dtype": "DT_INT32", "tensorShape": {}}}}}, {"name": "StatefulPartitionedCall/tfgpt2lm_head_model_1/transformer/h_._1/attn/transpose_2/perm", "op": "Const", "attr": {"dtype": {"type": "DT_INT32"}, "value": {"tensor": {"dtype": "DT_INT32", "tensorShape": {"dim": [{"size": "4"}]}}}}}, {"name": "StatefulPartitionedCall/tfgpt2lm_head_model_1/transformer/h_._1/attn/transpose_3/perm", "op": "Const", "attr": {"value": {"tensor": {"dtype": "DT_INT32", "tensorShape": {"dim": [{"size": "4"}]}}}, "dtype": {"type": "DT_INT32"}}}, {"name": "StatefulPartitionedCall/tfgpt2lm_head_model_1/transformer/h_._1/attn/strided_slice_13/stack", "op": "Const", "attr": {"value": {"tensor": {"dtype": "DT_INT32", "tensorShape": {"dim": [{"size": "1"}]}}}, "dtype": {"type": "DT_INT32"}}}, {"name": "StatefulPartitionedCall/tfgpt2lm_head_model_1/transformer/h_._1/attn/strided_slice_13/stack_1", "op": "Const", "attr": {"value": {"tensor": {"dtype": "DT_INT32", "tensorShape": {"dim": [{"size": "1"}]}}}, "dtype": {"type": "DT_INT32"}}}, {"name": "StatefulPartitionedCall/tfgpt2lm_head_model_1/transformer/h_._1/attn/strided_slice_13/stack_2", "op": "Const", "attr": {"dtype": {"type": "DT_INT32"}, "value": {"tensor": {"dtype": "DT_INT32", "tensorShape": {"dim": [{"size": "1"}]}}}}}, {"name": "StatefulPartitionedCall/tfgpt2lm_head_model_1/transformer/h_._1/attn/Reshape_4/shape/2", "op": "Const", "attr": {"value": {"tensor": {"dtype": "DT_INT32", "tensorShape": {}}}, "dtype": {"type": "DT_INT32"}}}, {"name": "StatefulPartitionedCall/tfgpt2lm_head_model_1/transformer/h_._1/attn/c_proj/strided_slice_1/stack", "op": "Const", "attr": {"dtype": {"type": "DT_INT32"}, "value": {"tensor": {"dtype": "DT_INT32", "tensorShape": {"dim": [{"size": "1"}]}}}}}, {"name": "StatefulPartitionedCall/tfgpt2lm_head_model_1/transformer/h_._1/attn/c_proj/strided_slice_1/stack_1", "op": "Const", "attr": {"value": {"tensor": {"dtype": "DT_INT32", "tensorShape": {"dim": [{"size": "1"}]}}}, "dtype": {"type": "DT_INT32"}}}, {"name": "StatefulPartitionedCall/tfgpt2lm_head_model_1/transformer/h_._1/attn/c_proj/strided_slice_1/stack_2", "op": "Const", "attr": {"value": {"tensor": {"dtype": "DT_INT32", "tensorShape": {"dim": [{"size": "1"}]}}}, "dtype": {"type": "DT_INT32"}}}, {"name": "StatefulPartitionedCall/tfgpt2lm_head_model_1/transformer/h_._1/attn/c_proj/Reshape_1/shape/2", "op": "Const", "attr": {"dtype": {"type": "DT_INT32"}, "value": {"tensor": {"dtype": "DT_INT32", "tensorShape": {}}}}}, {"name": "StatefulPartitionedCall/tfgpt2lm_head_model_1/transformer/h_._1/ln_2/moments/mean/reduction_indices", "op": "Const", "attr": {"value": {"tensor": {"dtype": "DT_INT32", "tensorShape": {"dim": [{"size": "1"}]}}}, "dtype": {"type": "DT_INT32"}}}, {"name": "StatefulPartitionedCall/tfgpt2lm_head_model_1/transformer/h_._1/ln_2/moments/variance/reduction_indices", "op": "Const", "attr": {"value": {"tensor": {"dtype": "DT_INT32", "tensorShape": {"dim": [{"size": "1"}]}}}, "dtype": {"type": "DT_INT32"}}}, {"name": "StatefulPartitionedCall/tfgpt2lm_head_model_1/transformer/h_._1/ln_2/batchnorm/add/y", "op": "Const", "attr": {"value": {"tensor": {"dtype": "DT_FLOAT", "tensorShape": {}}}, "dtype": {"type": "DT_FLOAT"}}}, {"name": "StatefulPartitionedCall/tfgpt2lm_head_model_1/transformer/h_._1/ln_2/batchnorm/mul/ReadVariableOp", "op": "Const", "attr": {"dtype": {"type": "DT_FLOAT"}, "value": {"tensor": {"dtype": "DT_FLOAT", "tensorShape": {"dim": [{"size": "768"}]}}}}}, {"name": "StatefulPartitionedCall/tfgpt2lm_head_model_1/transformer/h_._1/mlp/c_fc/strided_slice_1/stack", "op": "Const", "attr": {"dtype": {"type": "DT_INT32"}, "value": {"tensor": {"dtype": "DT_INT32", "tensorShape": {"dim": [{"size": "1"}]}}}}}, {"name": "StatefulPartitionedCall/tfgpt2lm_head_model_1/transformer/h_._1/mlp/c_fc/strided_slice_1/stack_1", "op": "Const", "attr": {"value": {"tensor": {"dtype": "DT_INT32", "tensorShape": {"dim": [{"size": "1"}]}}}, "dtype": {"type": "DT_INT32"}}}, {"name": "StatefulPartitionedCall/tfgpt2lm_head_model_1/transformer/h_._1/mlp/c_fc/strided_slice_1/stack_2", "op": "Const", "attr": {"dtype": {"type": "DT_INT32"}, "value": {"tensor": {"dtype": "DT_INT32", "tensorShape": {"dim": [{"size": "1"}]}}}}}, {"name": "StatefulPartitionedCall/tfgpt2lm_head_model_1/transformer/h_._1/mlp/c_fc/Reshape_1/shape/2", "op": "Const", "attr": {"dtype": {"type": "DT_INT32"}, "value": {"tensor": {"dtype": "DT_INT32", "tensorShape": {}}}}}, {"name": "StatefulPartitionedCall/tfgpt2lm_head_model_1/transformer/h_._1/mlp/Gelu/Pow/y", "op": "Const", "attr": {"value": {"tensor": {"dtype": "DT_FLOAT", "tensorShape": {}}}, "dtype": {"type": "DT_FLOAT"}}}, {"name": "StatefulPartitionedCall/tfgpt2lm_head_model_1/transformer/h_._1/mlp/c_proj/strided_slice_1/stack", "op": "Const", "attr": {"dtype": {"type": "DT_INT32"}, "value": {"tensor": {"dtype": "DT_INT32", "tensorShape": {"dim": [{"size": "1"}]}}}}}, {"name": "StatefulPartitionedCall/tfgpt2lm_head_model_1/transformer/h_._1/mlp/c_proj/strided_slice_1/stack_1", "op": "Const", "attr": {"dtype": {"type": "DT_INT32"}, "value": {"tensor": {"dtype": "DT_INT32", "tensorShape": {"dim": [{"size": "1"}]}}}}}, {"name": "StatefulPartitionedCall/tfgpt2lm_head_model_1/transformer/h_._1/mlp/c_proj/strided_slice_1/stack_2", "op": "Const", "attr": {"dtype": {"type": "DT_INT32"}, "value": {"tensor": {"dtype": "DT_INT32", "tensorShape": {"dim": [{"size": "1"}]}}}}}, {"name": "StatefulPartitionedCall/tfgpt2lm_head_model_1/transformer/h_._1/mlp/c_proj/Reshape_1/shape/2", "op": "Const", "attr": {"dtype": {"type": "DT_INT32"}, "value": {"tensor": {"dtype": "DT_INT32", "tensorShape": {}}}}}, {"name": "StatefulPartitionedCall/tfgpt2lm_head_model_1/transformer/h_._2/ln_1/moments/mean/reduction_indices", "op": "Const", "attr": {"dtype": {"type": "DT_INT32"}, "value": {"tensor": {"dtype": "DT_INT32", "tensorShape": {"dim": [{"size": "1"}]}}}}}, {"name": "StatefulPartitionedCall/tfgpt2lm_head_model_1/transformer/h_._2/ln_1/moments/variance/reduction_indices", "op": "Const", "attr": {"dtype": {"type": "DT_INT32"}, "value": {"tensor": {"dtype": "DT_INT32", "tensorShape": {"dim": [{"size": "1"}]}}}}}, {"name": "StatefulPartitionedCall/tfgpt2lm_head_model_1/transformer/h_._2/ln_1/batchnorm/add/y", "op": "Const", "attr": {"value": {"tensor": {"dtype": "DT_FLOAT", "tensorShape": {}}}, "dtype": {"type": "DT_FLOAT"}}}, {"name": "StatefulPartitionedCall/tfgpt2lm_head_model_1/transformer/h_._2/ln_1/batchnorm/mul/ReadVariableOp", "op": "Const", "attr": {"dtype": {"type": "DT_FLOAT"}, "value": {"tensor": {"dtype": "DT_FLOAT", "tensorShape": {"dim": [{"size": "768"}]}}}}}, {"name": "StatefulPartitionedCall/tfgpt2lm_head_model_1/transformer/h_._2/attn/c_attn/strided_slice_1/stack", "op": "Const", "attr": {"value": {"tensor": {"dtype": "DT_INT32", "tensorShape": {"dim": [{"size": "1"}]}}}, "dtype": {"type": "DT_INT32"}}}, {"name": "StatefulPartitionedCall/tfgpt2lm_head_model_1/transformer/h_._2/attn/c_attn/strided_slice_1/stack_1", "op": "Const", "attr": {"dtype": {"type": "DT_INT32"}, "value": {"tensor": {"dtype": "DT_INT32", "tensorShape": {"dim": [{"size": "1"}]}}}}}, {"name": "StatefulPartitionedCall/tfgpt2lm_head_model_1/transformer/h_._2/attn/c_attn/strided_slice_1/stack_2", "op": "Const", "attr": {"value": {"tensor": {"dtype": "DT_INT32", "tensorShape": {"dim": [{"size": "1"}]}}}, "dtype": {"type": "DT_INT32"}}}, {"name": "StatefulPartitionedCall/tfgpt2lm_head_model_1/transformer/h_._2/attn/c_attn/Reshape_1/shape/2", "op": "Const", "attr": {"dtype": {"type": "DT_INT32"}, "value": {"tensor": {"dtype": "DT_INT32", "tensorShape": {}}}}}, {"name": "StatefulPartitionedCall/tfgpt2lm_head_model_1/transformer/h_._2/attn/strided_slice_5/stack", "op": "Const", "attr": {"dtype": {"type": "DT_INT32"}, "value": {"tensor": {"dtype": "DT_INT32", "tensorShape": {"dim": [{"size": "1"}]}}}}}, {"name": "StatefulPartitionedCall/tfgpt2lm_head_model_1/transformer/h_._2/attn/strided_slice_5/stack_1", "op": "Const", "attr": {"dtype": {"type": "DT_INT32"}, "value": {"tensor": {"dtype": "DT_INT32", "tensorShape": {"dim": [{"size": "1"}]}}}}}, {"name": "StatefulPartitionedCall/tfgpt2lm_head_model_1/transformer/h_._2/attn/strided_slice_5/stack_2", "op": "Const", "attr": {"value": {"tensor": {"dtype": "DT_INT32", "tensorShape": {"dim": [{"size": "1"}]}}}, "dtype": {"type": "DT_INT32"}}}, {"name": "StatefulPartitionedCall/tfgpt2lm_head_model_1/transformer/h_._2/attn/Reshape_2/shape/2", "op": "Const", "attr": {"value": {"tensor": {"dtype": "DT_INT32", "tensorShape": {}}}, "dtype": {"type": "DT_INT32"}}}, {"name": "StatefulPartitionedCall/tfgpt2lm_head_model_1/transformer/h_._2/attn/Reshape_2/shape/3", "op": "Const", "attr": {"dtype": {"type": "DT_INT32"}, "value": {"tensor": {"dtype": "DT_INT32", "tensorShape": {}}}}}, {"name": "StatefulPartitionedCall/tfgpt2lm_head_model_1/transformer/h_._2/attn/transpose_2/perm", "op": "Const", "attr": {"dtype": {"type": "DT_INT32"}, "value": {"tensor": {"dtype": "DT_INT32", "tensorShape": {"dim": [{"size": "4"}]}}}}}, {"name": "StatefulPartitionedCall/tfgpt2lm_head_model_1/transformer/h_._2/attn/transpose_3/perm", "op": "Const", "attr": {"dtype": {"type": "DT_INT32"}, "value": {"tensor": {"dtype": "DT_INT32", "tensorShape": {"dim": [{"size": "4"}]}}}}}, {"name": "StatefulPartitionedCall/tfgpt2lm_head_model_1/transformer/h_._2/attn/strided_slice_13/stack", "op": "Const", "attr": {"value": {"tensor": {"dtype": "DT_INT32", "tensorShape": {"dim": [{"size": "1"}]}}}, "dtype": {"type": "DT_INT32"}}}, {"name": "StatefulPartitionedCall/tfgpt2lm_head_model_1/transformer/h_._2/attn/strided_slice_13/stack_1", "op": "Const", "attr": {"dtype": {"type": "DT_INT32"}, "value": {"tensor": {"dtype": "DT_INT32", "tensorShape": {"dim": [{"size": "1"}]}}}}}, {"name": "StatefulPartitionedCall/tfgpt2lm_head_model_1/transformer/h_._2/attn/strided_slice_13/stack_2", "op": "Const", "attr": {"dtype": {"type": "DT_INT32"}, "value": {"tensor": {"dtype": "DT_INT32", "tensorShape": {"dim": [{"size": "1"}]}}}}}, {"name": "StatefulPartitionedCall/tfgpt2lm_head_model_1/transformer/h_._2/attn/Reshape_4/shape/2", "op": "Const", "attr": {"dtype": {"type": "DT_INT32"}, "value": {"tensor": {"dtype": "DT_INT32", "tensorShape": {}}}}}, {"name": "StatefulPartitionedCall/tfgpt2lm_head_model_1/transformer/h_._2/attn/c_proj/strided_slice_1/stack", "op": "Const", "attr": {"dtype": {"type": "DT_INT32"}, "value": {"tensor": {"dtype": "DT_INT32", "tensorShape": {"dim": [{"size": "1"}]}}}}}, {"name": "StatefulPartitionedCall/tfgpt2lm_head_model_1/transformer/h_._2/attn/c_proj/strided_slice_1/stack_1", "op": "Const", "attr": {"dtype": {"type": "DT_INT32"}, "value": {"tensor": {"dtype": "DT_INT32", "tensorShape": {"dim": [{"size": "1"}]}}}}}, {"name": "StatefulPartitionedCall/tfgpt2lm_head_model_1/transformer/h_._2/attn/c_proj/strided_slice_1/stack_2", "op": "Const", "attr": {"dtype": {"type": "DT_INT32"}, "value": {"tensor": {"dtype": "DT_INT32", "tensorShape": {"dim": [{"size": "1"}]}}}}}, {"name": "StatefulPartitionedCall/tfgpt2lm_head_model_1/transformer/h_._2/attn/c_proj/Reshape_1/shape/2", "op": "Const", "attr": {"dtype": {"type": "DT_INT32"}, "value": {"tensor": {"dtype": "DT_INT32", "tensorShape": {}}}}}, {"name": "StatefulPartitionedCall/tfgpt2lm_head_model_1/transformer/h_._2/ln_2/moments/mean/reduction_indices", "op": "Const", "attr": {"value": {"tensor": {"dtype": "DT_INT32", "tensorShape": {"dim": [{"size": "1"}]}}}, "dtype": {"type": "DT_INT32"}}}, {"name": "StatefulPartitionedCall/tfgpt2lm_head_model_1/transformer/h_._2/ln_2/moments/variance/reduction_indices", "op": "Const", "attr": {"value": {"tensor": {"dtype": "DT_INT32", "tensorShape": {"dim": [{"size": "1"}]}}}, "dtype": {"type": "DT_INT32"}}}, {"name": "StatefulPartitionedCall/tfgpt2lm_head_model_1/transformer/h_._2/ln_2/batchnorm/add/y", "op": "Const", "attr": {"value": {"tensor": {"dtype": "DT_FLOAT", "tensorShape": {}}}, "dtype": {"type": "DT_FLOAT"}}}, {"name": "StatefulPartitionedCall/tfgpt2lm_head_model_1/transformer/h_._2/ln_2/batchnorm/mul/ReadVariableOp", "op": "Const", "attr": {"value": {"tensor": {"dtype": "DT_FLOAT", "tensorShape": {"dim": [{"size": "768"}]}}}, "dtype": {"type": "DT_FLOAT"}}}, {"name": "StatefulPartitionedCall/tfgpt2lm_head_model_1/transformer/h_._2/mlp/c_fc/strided_slice_1/stack", "op": "Const", "attr": {"value": {"tensor": {"dtype": "DT_INT32", "tensorShape": {"dim": [{"size": "1"}]}}}, "dtype": {"type": "DT_INT32"}}}, {"name": "StatefulPartitionedCall/tfgpt2lm_head_model_1/transformer/h_._2/mlp/c_fc/strided_slice_1/stack_1", "op": "Const", "attr": {"dtype": {"type": "DT_INT32"}, "value": {"tensor": {"dtype": "DT_INT32", "tensorShape": {"dim": [{"size": "1"}]}}}}}, {"name": "StatefulPartitionedCall/tfgpt2lm_head_model_1/transformer/h_._2/mlp/c_fc/strided_slice_1/stack_2", "op": "Const", "attr": {"dtype": {"type": "DT_INT32"}, "value": {"tensor": {"dtype": "DT_INT32", "tensorShape": {"dim": [{"size": "1"}]}}}}}, {"name": "StatefulPartitionedCall/tfgpt2lm_head_model_1/transformer/h_._2/mlp/c_fc/Reshape_1/shape/2", "op": "Const", "attr": {"dtype": {"type": "DT_INT32"}, "value": {"tensor": {"dtype": "DT_INT32", "tensorShape": {}}}}}, {"name": "StatefulPartitionedCall/tfgpt2lm_head_model_1/transformer/h_._2/mlp/Gelu/Pow/y", "op": "Const", "attr": {"dtype": {"type": "DT_FLOAT"}, "value": {"tensor": {"dtype": "DT_FLOAT", "tensorShape": {}}}}}, {"name": "StatefulPartitionedCall/tfgpt2lm_head_model_1/transformer/h_._2/mlp/c_proj/strided_slice_1/stack", "op": "Const", "attr": {"value": {"tensor": {"dtype": "DT_INT32", "tensorShape": {"dim": [{"size": "1"}]}}}, "dtype": {"type": "DT_INT32"}}}, {"name": "StatefulPartitionedCall/tfgpt2lm_head_model_1/transformer/h_._2/mlp/c_proj/strided_slice_1/stack_1", "op": "Const", "attr": {"value": {"tensor": {"dtype": "DT_INT32", "tensorShape": {"dim": [{"size": "1"}]}}}, "dtype": {"type": "DT_INT32"}}}, {"name": "StatefulPartitionedCall/tfgpt2lm_head_model_1/transformer/h_._2/mlp/c_proj/strided_slice_1/stack_2", "op": "Const", "attr": {"value": {"tensor": {"dtype": "DT_INT32", "tensorShape": {"dim": [{"size": "1"}]}}}, "dtype": {"type": "DT_INT32"}}}, {"name": "StatefulPartitionedCall/tfgpt2lm_head_model_1/transformer/h_._2/mlp/c_proj/Reshape_1/shape/2", "op": "Const", "attr": {"dtype": {"type": "DT_INT32"}, "value": {"tensor": {"dtype": "DT_INT32", "tensorShape": {}}}}}, {"name": "StatefulPartitionedCall/tfgpt2lm_head_model_1/transformer/h_._3/ln_1/moments/mean/reduction_indices", "op": "Const", "attr": {"dtype": {"type": "DT_INT32"}, "value": {"tensor": {"dtype": "DT_INT32", "tensorShape": {"dim": [{"size": "1"}]}}}}}, {"name": "StatefulPartitionedCall/tfgpt2lm_head_model_1/transformer/h_._3/ln_1/moments/variance/reduction_indices", "op": "Const", "attr": {"value": {"tensor": {"dtype": "DT_INT32", "tensorShape": {"dim": [{"size": "1"}]}}}, "dtype": {"type": "DT_INT32"}}}, {"name": "StatefulPartitionedCall/tfgpt2lm_head_model_1/transformer/h_._3/ln_1/batchnorm/add/y", "op": "Const", "attr": {"dtype": {"type": "DT_FLOAT"}, "value": {"tensor": {"dtype": "DT_FLOAT", "tensorShape": {}}}}}, {"name": "StatefulPartitionedCall/tfgpt2lm_head_model_1/transformer/h_._3/ln_1/batchnorm/mul/ReadVariableOp", "op": "Const", "attr": {"dtype": {"type": "DT_FLOAT"}, "value": {"tensor": {"dtype": "DT_FLOAT", "tensorShape": {"dim": [{"size": "768"}]}}}}}, {"name": "StatefulPartitionedCall/tfgpt2lm_head_model_1/transformer/h_._3/attn/c_attn/strided_slice_1/stack", "op": "Const", "attr": {"dtype": {"type": "DT_INT32"}, "value": {"tensor": {"dtype": "DT_INT32", "tensorShape": {"dim": [{"size": "1"}]}}}}}, {"name": "StatefulPartitionedCall/tfgpt2lm_head_model_1/transformer/h_._3/attn/c_attn/strided_slice_1/stack_1", "op": "Const", "attr": {"value": {"tensor": {"dtype": "DT_INT32", "tensorShape": {"dim": [{"size": "1"}]}}}, "dtype": {"type": "DT_INT32"}}}, {"name": "StatefulPartitionedCall/tfgpt2lm_head_model_1/transformer/h_._3/attn/c_attn/strided_slice_1/stack_2", "op": "Const", "attr": {"value": {"tensor": {"dtype": "DT_INT32", "tensorShape": {"dim": [{"size": "1"}]}}}, "dtype": {"type": "DT_INT32"}}}, {"name": "StatefulPartitionedCall/tfgpt2lm_head_model_1/transformer/h_._3/attn/c_attn/Reshape_1/shape/2", "op": "Const", "attr": {"value": {"tensor": {"dtype": "DT_INT32", "tensorShape": {}}}, "dtype": {"type": "DT_INT32"}}}, {"name": "StatefulPartitionedCall/tfgpt2lm_head_model_1/transformer/h_._3/attn/strided_slice_5/stack", "op": "Const", "attr": {"value": {"tensor": {"dtype": "DT_INT32", "tensorShape": {"dim": [{"size": "1"}]}}}, "dtype": {"type": "DT_INT32"}}}, {"name": "StatefulPartitionedCall/tfgpt2lm_head_model_1/transformer/h_._3/attn/strided_slice_5/stack_1", "op": "Const", "attr": {"dtype": {"type": "DT_INT32"}, "value": {"tensor": {"dtype": "DT_INT32", "tensorShape": {"dim": [{"size": "1"}]}}}}}, {"name": "StatefulPartitionedCall/tfgpt2lm_head_model_1/transformer/h_._3/attn/strided_slice_5/stack_2", "op": "Const", "attr": {"dtype": {"type": "DT_INT32"}, "value": {"tensor": {"dtype": "DT_INT32", "tensorShape": {"dim": [{"size": "1"}]}}}}}, {"name": "StatefulPartitionedCall/tfgpt2lm_head_model_1/transformer/h_._3/attn/Reshape_2/shape/2", "op": "Const", "attr": {"dtype": {"type": "DT_INT32"}, "value": {"tensor": {"dtype": "DT_INT32", "tensorShape": {}}}}}, {"name": "StatefulPartitionedCall/tfgpt2lm_head_model_1/transformer/h_._3/attn/Reshape_2/shape/3", "op": "Const", "attr": {"value": {"tensor": {"dtype": "DT_INT32", "tensorShape": {}}}, "dtype": {"type": "DT_INT32"}}}, {"name": "StatefulPartitionedCall/tfgpt2lm_head_model_1/transformer/h_._3/attn/transpose_2/perm", "op": "Const", "attr": {"dtype": {"type": "DT_INT32"}, "value": {"tensor": {"dtype": "DT_INT32", "tensorShape": {"dim": [{"size": "4"}]}}}}}, {"name": "StatefulPartitionedCall/tfgpt2lm_head_model_1/transformer/h_._3/attn/transpose_3/perm", "op": "Const", "attr": {"dtype": {"type": "DT_INT32"}, "value": {"tensor": {"dtype": "DT_INT32", "tensorShape": {"dim": [{"size": "4"}]}}}}}, {"name": "StatefulPartitionedCall/tfgpt2lm_head_model_1/transformer/h_._3/attn/strided_slice_13/stack", "op": "Const", "attr": {"dtype": {"type": "DT_INT32"}, "value": {"tensor": {"dtype": "DT_INT32", "tensorShape": {"dim": [{"size": "1"}]}}}}}, {"name": "StatefulPartitionedCall/tfgpt2lm_head_model_1/transformer/h_._3/attn/strided_slice_13/stack_1", "op": "Const", "attr": {"value": {"tensor": {"dtype": "DT_INT32", "tensorShape": {"dim": [{"size": "1"}]}}}, "dtype": {"type": "DT_INT32"}}}, {"name": "StatefulPartitionedCall/tfgpt2lm_head_model_1/transformer/h_._3/attn/strided_slice_13/stack_2", "op": "Const", "attr": {"value": {"tensor": {"dtype": "DT_INT32", "tensorShape": {"dim": [{"size": "1"}]}}}, "dtype": {"type": "DT_INT32"}}}, {"name": "StatefulPartitionedCall/tfgpt2lm_head_model_1/transformer/h_._3/attn/Reshape_4/shape/2", "op": "Const", "attr": {"dtype": {"type": "DT_INT32"}, "value": {"tensor": {"dtype": "DT_INT32", "tensorShape": {}}}}}, {"name": "StatefulPartitionedCall/tfgpt2lm_head_model_1/transformer/h_._3/attn/c_proj/strided_slice_1/stack", "op": "Const", "attr": {"value": {"tensor": {"dtype": "DT_INT32", "tensorShape": {"dim": [{"size": "1"}]}}}, "dtype": {"type": "DT_INT32"}}}, {"name": "StatefulPartitionedCall/tfgpt2lm_head_model_1/transformer/h_._3/attn/c_proj/strided_slice_1/stack_1", "op": "Const", "attr": {"dtype": {"type": "DT_INT32"}, "value": {"tensor": {"dtype": "DT_INT32", "tensorShape": {"dim": [{"size": "1"}]}}}}}, {"name": "StatefulPartitionedCall/tfgpt2lm_head_model_1/transformer/h_._3/attn/c_proj/strided_slice_1/stack_2", "op": "Const", "attr": {"dtype": {"type": "DT_INT32"}, "value": {"tensor": {"dtype": "DT_INT32", "tensorShape": {"dim": [{"size": "1"}]}}}}}, {"name": "StatefulPartitionedCall/tfgpt2lm_head_model_1/transformer/h_._3/attn/c_proj/Reshape_1/shape/2", "op": "Const", "attr": {"dtype": {"type": "DT_INT32"}, "value": {"tensor": {"dtype": "DT_INT32", "tensorShape": {}}}}}, {"name": "StatefulPartitionedCall/tfgpt2lm_head_model_1/transformer/h_._3/ln_2/moments/mean/reduction_indices", "op": "Const", "attr": {"dtype": {"type": "DT_INT32"}, "value": {"tensor": {"dtype": "DT_INT32", "tensorShape": {"dim": [{"size": "1"}]}}}}}, {"name": "StatefulPartitionedCall/tfgpt2lm_head_model_1/transformer/h_._3/ln_2/moments/variance/reduction_indices", "op": "Const", "attr": {"value": {"tensor": {"dtype": "DT_INT32", "tensorShape": {"dim": [{"size": "1"}]}}}, "dtype": {"type": "DT_INT32"}}}, {"name": "StatefulPartitionedCall/tfgpt2lm_head_model_1/transformer/h_._3/ln_2/batchnorm/add/y", "op": "Const", "attr": {"value": {"tensor": {"dtype": "DT_FLOAT", "tensorShape": {}}}, "dtype": {"type": "DT_FLOAT"}}}, {"name": "StatefulPartitionedCall/tfgpt2lm_head_model_1/transformer/h_._3/ln_2/batchnorm/mul/ReadVariableOp", "op": "Const", "attr": {"dtype": {"type": "DT_FLOAT"}, "value": {"tensor": {"dtype": "DT_FLOAT", "tensorShape": {"dim": [{"size": "768"}]}}}}}, {"name": "StatefulPartitionedCall/tfgpt2lm_head_model_1/transformer/h_._3/mlp/c_fc/strided_slice_1/stack", "op": "Const", "attr": {"dtype": {"type": "DT_INT32"}, "value": {"tensor": {"dtype": "DT_INT32", "tensorShape": {"dim": [{"size": "1"}]}}}}}, {"name": "StatefulPartitionedCall/tfgpt2lm_head_model_1/transformer/h_._3/mlp/c_fc/strided_slice_1/stack_1", "op": "Const", "attr": {"dtype": {"type": "DT_INT32"}, "value": {"tensor": {"dtype": "DT_INT32", "tensorShape": {"dim": [{"size": "1"}]}}}}}, {"name": "StatefulPartitionedCall/tfgpt2lm_head_model_1/transformer/h_._3/mlp/c_fc/strided_slice_1/stack_2", "op": "Const", "attr": {"dtype": {"type": "DT_INT32"}, "value": {"tensor": {"dtype": "DT_INT32", "tensorShape": {"dim": [{"size": "1"}]}}}}}, {"name": "StatefulPartitionedCall/tfgpt2lm_head_model_1/transformer/h_._3/mlp/c_fc/Reshape_1/shape/2", "op": "Const", "attr": {"dtype": {"type": "DT_INT32"}, "value": {"tensor": {"dtype": "DT_INT32", "tensorShape": {}}}}}, {"name": "StatefulPartitionedCall/tfgpt2lm_head_model_1/transformer/h_._3/mlp/Gelu/Pow/y", "op": "Const", "attr": {"dtype": {"type": "DT_FLOAT"}, "value": {"tensor": {"dtype": "DT_FLOAT", "tensorShape": {}}}}}, {"name": "StatefulPartitionedCall/tfgpt2lm_head_model_1/transformer/h_._3/mlp/c_proj/strided_slice_1/stack", "op": "Const", "attr": {"dtype": {"type": "DT_INT32"}, "value": {"tensor": {"dtype": "DT_INT32", "tensorShape": {"dim": [{"size": "1"}]}}}}}, {"name": "StatefulPartitionedCall/tfgpt2lm_head_model_1/transformer/h_._3/mlp/c_proj/strided_slice_1/stack_1", "op": "Const", "attr": {"dtype": {"type": "DT_INT32"}, "value": {"tensor": {"dtype": "DT_INT32", "tensorShape": {"dim": [{"size": "1"}]}}}}}, {"name": "StatefulPartitionedCall/tfgpt2lm_head_model_1/transformer/h_._3/mlp/c_proj/strided_slice_1/stack_2", "op": "Const", "attr": {"dtype": {"type": "DT_INT32"}, "value": {"tensor": {"dtype": "DT_INT32", "tensorShape": {"dim": [{"size": "1"}]}}}}}, {"name": "StatefulPartitionedCall/tfgpt2lm_head_model_1/transformer/h_._3/mlp/c_proj/Reshape_1/shape/2", "op": "Const", "attr": {"value": {"tensor": {"dtype": "DT_INT32", "tensorShape": {}}}, "dtype": {"type": "DT_INT32"}}}, {"name": "StatefulPartitionedCall/tfgpt2lm_head_model_1/transformer/h_._4/ln_1/moments/mean/reduction_indices", "op": "Const", "attr": {"dtype": {"type": "DT_INT32"}, "value": {"tensor": {"dtype": "DT_INT32", "tensorShape": {"dim": [{"size": "1"}]}}}}}, {"name": "StatefulPartitionedCall/tfgpt2lm_head_model_1/transformer/h_._4/ln_1/moments/variance/reduction_indices", "op": "Const", "attr": {"value": {"tensor": {"dtype": "DT_INT32", "tensorShape": {"dim": [{"size": "1"}]}}}, "dtype": {"type": "DT_INT32"}}}, {"name": "StatefulPartitionedCall/tfgpt2lm_head_model_1/transformer/h_._4/ln_1/batchnorm/add/y", "op": "Const", "attr": {"dtype": {"type": "DT_FLOAT"}, "value": {"tensor": {"dtype": "DT_FLOAT", "tensorShape": {}}}}}, {"name": "StatefulPartitionedCall/tfgpt2lm_head_model_1/transformer/h_._4/ln_1/batchnorm/mul/ReadVariableOp", "op": "Const", "attr": {"dtype": {"type": "DT_FLOAT"}, "value": {"tensor": {"dtype": "DT_FLOAT", "tensorShape": {"dim": [{"size": "768"}]}}}}}, {"name": "StatefulPartitionedCall/tfgpt2lm_head_model_1/transformer/h_._4/attn/c_attn/strided_slice_1/stack", "op": "Const", "attr": {"value": {"tensor": {"dtype": "DT_INT32", "tensorShape": {"dim": [{"size": "1"}]}}}, "dtype": {"type": "DT_INT32"}}}, {"name": "StatefulPartitionedCall/tfgpt2lm_head_model_1/transformer/h_._4/attn/c_attn/strided_slice_1/stack_1", "op": "Const", "attr": {"value": {"tensor": {"dtype": "DT_INT32", "tensorShape": {"dim": [{"size": "1"}]}}}, "dtype": {"type": "DT_INT32"}}}, {"name": "StatefulPartitionedCall/tfgpt2lm_head_model_1/transformer/h_._4/attn/c_attn/strided_slice_1/stack_2…
ape": [1], "dtype": "int32"}, {"name": "StatefulPartitionedCall/tfgpt2lm_head_model_1/transformer/h_._1/attn/strided_slice_9/stack_2", "shape": [1], "dtype": "int32"}, {"name": "StatefulPartitionedCall/tfgpt2lm_head_model_1/transformer/h_._1/attn/strided_slice/stack", "shape": [1], "dtype": "int32"}, {"name": "StatefulPartitionedCall/tfgpt2lm_head_model_1/transformer/h_._1/attn/strided_slice/stack_1", "shape": [1], "dtype": "int32"}, {"name": "StatefulPartitionedCall/tfgpt2lm_head_model_1/transformer/h_._1/attn/strided_slice/stack_2", "shape": [1], "dtype": "int32"}, {"name": "StatefulPartitionedCall/tfgpt2lm_head_model_1/transformer/h_._1/attn/strided_slice_1/stack", "shape": [1], "dtype": "int32"}, {"name": "StatefulPartitionedCall/tfgpt2lm_head_model_1/transformer/h_._1/attn/strided_slice_1/stack_1", "shape": [1], "dtype": "int32"}, {"name": "StatefulPartitionedCall/tfgpt2lm_head_model_1/transformer/h_._1/attn/strided_slice_1/stack_2", "shape": [1], "dtype": "int32"}, {"name": "StatefulPartitionedCall/tfgpt2lm_head_model_1/transformer/h_._1/attn/Reshape/shape/2", "shape": [], "dtype": "int32"}, {"name": "StatefulPartitionedCall/tfgpt2lm_head_model_1/transformer/h_._1/attn/Reshape/shape/3", "shape": [], "dtype": "int32"}, {"name": "StatefulPartitionedCall/tfgpt2lm_head_model_1/transformer/h_._1/attn/transpose/perm", "shape": [4], "dtype": "int32"}, {"name": "StatefulPartitionedCall/tfgpt2lm_head_model_1/transformer/h_._1/attn/strided_slice_2/stack", "shape": [1], "dtype": "int32"}, {"name": "StatefulPartitionedCall/tfgpt2lm_head_model_1/transformer/h_._1/attn/strided_slice_2/stack_1", "shape": [1], "dtype": "int32"}, {"name": "StatefulPartitionedCall/tfgpt2lm_head_model_1/transformer/h_._1/attn/strided_slice_2/stack_2", "shape": [1], "dtype": "int32"}, {"name": "StatefulPartitionedCall/tfgpt2lm_head_model_1/transformer/h_._1/attn/strided_slice_3/stack", "shape": [1], "dtype": "int32"}, {"name": "StatefulPartitionedCall/tfgpt2lm_head_model_1/transformer/h_._1/attn/strided_slice_3/stack_1", "shape": [1], "dtype": "int32"}, {"name": "StatefulPartitionedCall/tfgpt2lm_head_model_1/transformer/h_._1/attn/strided_slice_3/stack_2", "shape": [1], "dtype": "int32"}, {"name": "StatefulPartitionedCall/tfgpt2lm_head_model_1/transformer/h_._1/attn/Reshape_1/shape/2", "shape": [], "dtype": "int32"}, {"name": "StatefulPartitionedCall/tfgpt2lm_head_model_1/transformer/h_._1/attn/Reshape_1/shape/3", "shape": [], "dtype": "int32"}, {"name": "StatefulPartitionedCall/tfgpt2lm_head_model_1/transformer/h_._1/attn/transpose_1/perm", "shape": [4], "dtype": "int32"}, {"name": "ConstantFolding/StatefulPartitionedCall/tfgpt2lm_head_model_1/transformer/h_._1/attn/truediv_recip", "shape": [], "dtype": "float32"}, {"name": "StatefulPartitionedCall/tfgpt2lm_head_model_1/transformer/h_._1/attn/strided_slice_10/stack", "shape": [1], "dtype": "int32"}, {"name": "StatefulPartitionedCall/tfgpt2lm_head_model_1/transformer/h_._1/attn/strided_slice_10/stack_1", "shape": [1], "dtype": "int32"}, {"name": "StatefulPartitionedCall/tfgpt2lm_head_model_1/transformer/h_._1/attn/strided_slice_10/stack_2", "shape": [1], "dtype": "int32"}, {"name": "StatefulPartitionedCall/tfgpt2lm_head_model_1/transformer/h_._1/attn/add_2/y", "shape": [], "dtype": "float32"}, {"name": "StatefulPartitionedCall/tfgpt2lm_head_model_1/transformer/h_._1/attn/strided_slice_4/stack", "shape": [1], "dtype": "int32"}, {"name": "StatefulPartitionedCall/tfgpt2lm_head_model_1/transformer/h_._1/attn/strided_slice_4/stack_1", "shape": [1], "dtype": "int32"}, {"name": "StatefulPartitionedCall/tfgpt2lm_head_model_1/transformer/h_._1/attn/strided_slice_4/stack_2", "shape": [1], "dtype": "int32"}, {"name": "StatefulPartitionedCall/tfgpt2lm_head_model_1/transformer/h_._1/attn/split/split_dim", "shape": [], "dtype": "int32"}, {"name": "StatefulPartitionedCall/tfgpt2lm_head_model_1/transformer/h_._1/attn/c_attn/Reshape/shape", "shape": [2], "dtype": "int32"}, {"name": "StatefulPartitionedCall/tfgpt2lm_head_model_1/transformer/h_._1/attn/c_attn/MatMul/ReadVariableOp", "shape": [768, 2304], "dtype": "float32"}, {"name": "StatefulPartitionedCall/tfgpt2lm_head_model_1/transformer/h_._1/attn/c_attn/add/ReadVariableOp", "shape": [1, 2304], "dtype": "float32"}, {"name": "StatefulPartitionedCall/tfgpt2lm_head_model_1/transformer/h_._1/attn/c_attn/strided_slice/stack", "shape": [1], "dtype": "int32"}, {"name": "StatefulPartitionedCall/tfgpt2lm_head_model_1/transformer/h_._1/attn/c_attn/strided_slice/stack_1", "shape": [1], "dtype": "int32"}, {"name": "StatefulPartitionedCall/tfgpt2lm_head_model_1/transformer/h_._1/attn/c_attn/strided_slice/stack_2", "shape": [1], "dtype": "int32"}, {"name": "StatefulPartitionedCall/tfgpt2lm_head_model_1/transformer/h_._1/ln_1/batchnorm/ReadVariableOp", "shape": [768], "dtype": "float32"}, {"name": "StatefulPartitionedCall/tfgpt2lm_head_model_1/transformer/h_._0/mlp/c_proj/Reshape/shape", "shape": [2], "dtype": "int32"}, {"name": "StatefulPartitionedCall/tfgpt2lm_head_model_1/transformer/h_._0/mlp/c_proj/MatMul/ReadVariableOp", "shape": [3072, 768], "dtype": "float32"}, {"name": "StatefulPartitionedCall/tfgpt2lm_head_model_1/transformer/h_._0/mlp/c_proj/add/ReadVariableOp", "shape": [1, 768], "dtype": "float32"}, {"name": "StatefulPartitionedCall/tfgpt2lm_head_model_1/transformer/h_._0/mlp/c_proj/strided_slice/stack", "shape": [1], "dtype": "int32"}, {"name": "StatefulPartitionedCall/tfgpt2lm_head_model_1/transformer/h_._0/mlp/c_proj/strided_slice/stack_1", "shape": [1], "dtype": "int32"}, {"name": "StatefulPartitionedCall/tfgpt2lm_head_model_1/transformer/h_._0/mlp/c_proj/strided_slice/stack_2", "shape": [1], "dtype": "int32"}, {"name": "StatefulPartitionedCall/tfgpt2lm_head_model_1/transformer/h_._0/mlp/Gelu/mul/x", "shape": [], "dtype": "float32"}, {"name": "StatefulPartitionedCall/tfgpt2lm_head_model_1/transformer/h_._0/mlp/Gelu/add_1/x", "shape": [], "dtype": "float32"}, {"name": "StatefulPartitionedCall/tfgpt2lm_head_model_1/transformer/h_._0/mlp/Gelu/mul_2/x", "shape": [], "dtype": "float32"}, {"name": "StatefulPartitionedCall/tfgpt2lm_head_model_1/transformer/h_._0/mlp/Gelu/Cast/x", "shape": [], "dtype": "float32"}, {"name": "StatefulPartitionedCall/tfgpt2lm_head_model_1/transformer/h_._0/mlp/c_fc/Reshape/shape", "shape": [2], "dtype": "int32"}, {"name": "StatefulPartitionedCall/tfgpt2lm_head_model_1/transformer/h_._0/mlp/c_fc/MatMul/ReadVariableOp", "shape": [768, 3072], "dtype": "float32"}, {"name": "StatefulPartitionedCall/tfgpt2lm_head_model_1/transformer/h_._0/mlp/c_fc/add/ReadVariableOp", "shape": [1, 3072], "dtype": "float32"}, {"name": "StatefulPartitionedCall/tfgpt2lm_head_model_1/transformer/h_._0/mlp/c_fc/strided_slice/stack", "shape": [1], "dtype": "int32"}, {"name": "StatefulPartitionedCall/tfgpt2lm_head_model_1/transformer/h_._0/mlp/c_fc/strided_slice/stack_1", "shape": [1], "dtype": "int32"}, {"name": "StatefulPartitionedCall/tfgpt2lm_head_model_1/transformer/h_._0/mlp/c_fc/strided_slice/stack_2", "shape": [1], "dtype": "int32"}, {"name": "StatefulPartitionedCall/tfgpt2lm_head_model_1/transformer/h_._0/ln_2/batchnorm/ReadVariableOp", "shape": [768], "dtype": "float32"}, {"name": "StatefulPartitionedCall/tfgpt2lm_head_model_1/transformer/h_._0/attn/c_proj/Reshape/shape", "shape": [2], "dtype": "int32"}, {"name": "StatefulPartitionedCall/tfgpt2lm_head_model_1/transformer/h_._0/attn/c_proj/MatMul/ReadVariableOp", "shape": [768, 768], "dtype": "float32"}, {"name": "StatefulPartitionedCall/tfgpt2lm_head_model_1/transformer/h_._0/attn/c_proj/add/ReadVariableOp", "shape": [1, 768], "dtype": "float32"}, {"name": "StatefulPartitionedCall/tfgpt2lm_head_model_1/transformer/h_._0/attn/c_proj/strided_slice/stack", "shape": [1], "dtype": "int32"}, {"name": "StatefulPartitionedCall/tfgpt2lm_head_model_1/transformer/h_._0/attn/c_proj/strided_slice/stack_1", "shape": [1], "dtype": "int32"}, {"name": "StatefulPartitionedCall/tfgpt2lm_head_model_1/transformer/h_._0/attn/c_proj/strided_slice/stack_2", "shape": [1], "dtype": "int32"}, {"name": "StatefulPartitionedCall/tfgpt2lm_head_model_1/transformer/h_._0/attn/strided_slice_12/stack", "shape": [1], "dtype": "int32"}, {"name": "StatefulPartitionedCall/tfgpt2lm_head_model_1/transformer/h_._0/attn/strided_slice_12/stack_1", "shape": [1], "dtype": "int32"}, {"name": "StatefulPartitionedCall/tfgpt2lm_head_model_1/transformer/h_._0/attn/strided_slice_12/stack_2", "shape": [1], "dtype": "int32"}, {"name": "StatefulPartitionedCall/tfgpt2lm_head_model_1/transformer/h_._0/attn/mul_1/x", "shape": [], "dtype": "float32"}, {"name": "StatefulPartitionedCall/tfgpt2lm_head_model_1/transformer/h_._0/attn/sub_1/x", "shape": [], "dtype": "float32"}, {"name": "StatefulPartitionedCall/tfgpt2lm_head_model_1/transformer/h_._0/attn/range/start", "shape": [], "dtype": "int32"}, {"name": "StatefulPartitionedCall/tfgpt2lm_head_model_1/transformer/h_._0/attn/range/delta", "shape": [], "dtype": "int32"}, {"name": "StatefulPartitionedCall/tfgpt2lm_head_model_1/transformer/h_._0/attn/strided_slice_11/stack", "shape": [2], "dtype": "int32"}, {"name": "StatefulPartitionedCall/tfgpt2lm_head_model_1/transformer/h_._0/attn/strided_slice_11/stack_1", "shape": [2], "dtype": "int32"}, {"name": "StatefulPartitionedCall/tfgpt2lm_head_model_1/transformer/h_._0/attn/strided_slice_11/stack_2", "shape": [2], "dtype": "int32"}, {"name": "StatefulPartitionedCall/tfgpt2lm_head_model_1/transformer/h_._0/attn/range_1/start", "shape": [], "dtype": "int32"}, {"name": "StatefulPartitionedCall/tfgpt2lm_head_model_1/transformer/h_._0/attn/range_1/delta", "shape": [], "dtype": "int32"}, {"name": "StatefulPartitionedCall/tfgpt2lm_head_model_1/transformer/h_._0/attn/Reshape_3/shape/0", "shape": [], "dtype": "int32"}, {"name": "StatefulPartitionedCall/tfgpt2lm_head_model_1/transformer/h_._0/attn/Reshape_3/shape/1", "shape": [], "dtype": "int32"}, {"name": "StatefulPartitionedCall/tfgpt2lm_head_model_1/transformer/h_._0/attn/strided_slice_9/stack", "shape": [1], "dtype": "int32"}, {"name": "StatefulPartitionedCall/tfgpt2lm_head_model_1/transformer/h_._0/attn/strided_slice_9/stack_1", "shape": [1], "dtype": "int32"}, {"name": "StatefulPartitionedCall/tfgpt2lm_head_model_1/transformer/h_._0/attn/strided_slice_9/stack_2", "shape": [1], "dtype": "int32"}, {"name": "StatefulPartitionedCall/tfgpt2lm_head_model_1/transformer/h_._0/attn/strided_slice/stack", "shape": [1], "dtype": "int32"}, {"name": "StatefulPartitionedCall/tfgpt2lm_head_model_1/transformer/h_._0/attn/strided_slice/stack_1", "shape": [1], "dtype": "int32"}, {"name": "StatefulPartitionedCall/tfgpt2lm_head_model_1/transformer/h_._0/attn/strided_slice/stack_2", "shape": [1], "dtype": "int32"}, {"name": "StatefulPartitionedCall/tfgpt2lm_head_model_1/transformer/h_._0/attn/strided_slice_1/stack", "shape": [1], "dtype": "int32"}, {"name": "StatefulPartitionedCall/tfgpt2lm_head_model_1/transformer/h_._0/attn/strided_slice_1/stack_1", "shape": [1], "dtype": "int32"}, {"name": "StatefulPartitionedCall/tfgpt2lm_head_model_1/transformer/h_._0/attn/strided_slice_1/stack_2", "shape": [1], "dtype": "int32"}, {"name": "StatefulPartitionedCall/tfgpt2lm_head_model_1/transformer/h_._0/attn/Reshape/shape/2", "shape": [], "dtype": "int32"}, {"name": "StatefulPartitionedCall/tfgpt2lm_head_model_1/transformer/h_._0/attn/Reshape/shape/3", "shape": [], "dtype": "int32"}, {"name": "StatefulPartitionedCall/tfgpt2lm_head_model_1/transformer/h_._0/attn/transpose/perm", "shape": [4], "dtype": "int32"}, {"name": "StatefulPartitionedCall/tfgpt2lm_head_model_1/transformer/h_._0/attn/strided_slice_2/stack", "shape": [1], "dtype": "int32"}, {"name": "StatefulPartitionedCall/tfgpt2lm_head_model_1/transformer/h_._0/attn/strided_slice_2/stack_1", "shape": [1], "dtype": "int32"}, {"name": "StatefulPartitionedCall/tfgpt2lm_head_model_1/transformer/h_._0/attn/strided_slice_2/stack_2", "shape": [1], "dtype": "int32"}, {"name": "StatefulPartitionedCall/tfgpt2lm_head_model_1/transformer/h_._0/attn/strided_slice_3/stack", "shape": [1], "dtype": "int32"}, {"name": "StatefulPartitionedCall/tfgpt2lm_head_model_1/transformer/h_._0/attn/strided_slice_3/stack_1", "shape": [1], "dtype": "int32"}, {"name": "StatefulPartitionedCall/tfgpt2lm_head_model_1/transformer/h_._0/attn/strided_slice_3/stack_2", "shape": [1], "dtype": "int32"}, {"name": "StatefulPartitionedCall/tfgpt2lm_head_model_1/transformer/h_._0/attn/Reshape_1/shape/2", "shape": [], "dtype": "int32"}, {"name": "StatefulPartitionedCall/tfgpt2lm_head_model_1/transformer/h_._0/attn/Reshape_1/shape/3", "shape": [], "dtype": "int32"}, {"name": "StatefulPartitionedCall/tfgpt2lm_head_model_1/transformer/h_._0/attn/transpose_1/perm", "shape": [4], "dtype": "int32"}, {"name": "ConstantFolding/StatefulPartitionedCall/tfgpt2lm_head_model_1/transformer/h_._0/attn/truediv_recip", "shape": [], "dtype": "float32"}, {"name": "StatefulPartitionedCall/tfgpt2lm_head_model_1/transformer/h_._0/attn/strided_slice_10/stack", "shape": [1], "dtype": "int32"}, {"name": "StatefulPartitionedCall/tfgpt2lm_head_model_1/transformer/h_._0/attn/strided_slice_10/stack_1", "shape": [1], "dtype": "int32"}, {"name": "StatefulPartitionedCall/tfgpt2lm_head_model_1/transformer/h_._0/attn/strided_slice_10/stack_2", "shape": [1], "dtype": "int32"}, {"name": "StatefulPartitionedCall/tfgpt2lm_head_model_1/transformer/h_._0/attn/add_2/y", "shape": [], "dtype": "float32"}, {"name": "StatefulPartitionedCall/tfgpt2lm_head_model_1/transformer/Const", "shape": [], "dtype": "float32"}, {"name": "StatefulPartitionedCall/tfgpt2lm_head_model_1/transformer/strided_slice_2/stack", "shape": [1], "dtype": "int32"}, {"name": "StatefulPartitionedCall/tfgpt2lm_head_model_1/transformer/strided_slice_2/stack_1", "shape": [1], "dtype": "int32"}, {"name": "StatefulPartitionedCall/tfgpt2lm_head_model_1/transformer/strided_slice_2/stack_2", "shape": [1], "dtype": "int32"}, {"name": "StatefulPartitionedCall/tfgpt2lm_head_model_1/transformer/Reshape_1/shape/1", "shape": [], "dtype": "int32"}, {"name": "StatefulPartitionedCall/tfgpt2lm_head_model_1/transformer/Reshape_1/shape/2", "shape": [], "dtype": "int32"}, {"name": "StatefulPartitionedCall/tfgpt2lm_head_model_1/transformer/strided_slice_3/stack", "shape": [1], "dtype": "int32"}, {"name": "StatefulPartitionedCall/tfgpt2lm_head_model_1/transformer/strided_slice_3/stack_1", "shape": [1], "dtype": "int32"}, {"name": "StatefulPartitionedCall/tfgpt2lm_head_model_1/transformer/strided_slice_3/stack_2", "shape": [1], "dtype": "int32"}, {"name": "StatefulPartitionedCall/tfgpt2lm_head_model_1/transformer/Const_1", "shape": [], "dtype": "float32"}, {"name": "StatefulPartitionedCall/tfgpt2lm_head_model_1/transformer/h_._0/attn/strided_slice_4/stack", "shape": [1], "dtype": "int32"}, {"name": "StatefulPartitionedCall/tfgpt2lm_head_model_1/transformer/h_._0/attn/strided_slice_4/stack_1", "shape": [1], "dtype": "int32"}, {"name": "StatefulPartitionedCall/tfgpt2lm_head_model_1/transformer/h_._0/attn/strided_slice_4/stack_2", "shape": [1], "dtype": "int32"}, {"name": "StatefulPartitionedCall/tfgpt2lm_head_model_1/transformer/h_._0/attn/split/split_dim", "shape": [], "dtype": "int32"}, {"name": "StatefulPartitionedCall/tfgpt2lm_head_model_1/transformer/h_._0/attn/c_attn/Reshape/shape", "shape": [2], "dtype": "int32"}, {"name": "StatefulPartitionedCall/tfgpt2lm_head_model_1/transformer/h_._0/attn/c_attn/MatMul/ReadVariableOp", "shape": [768, 2304], "dtype": "float32"}, {"name": "StatefulPartitionedCall/tfgpt2lm_head_model_1/transformer/h_._0/attn/c_attn/add/ReadVariableOp", "shape": [1, 2304], "dtype": "float32"}, {"name": "StatefulPartitionedCall/tfgpt2lm_head_model_1/transformer/h_._0/attn/c_attn/strided_slice/stack", "shape": [1], "dtype": "int32"}, {"name": "StatefulPartitionedCall/tfgpt2lm_head_model_1/transformer/h_._0/attn/c_attn/strided_slice/stack_1", "shape": [1], "dtype": "int32"}, {"name": "StatefulPartitionedCall/tfgpt2lm_head_model_1/transformer/h_._0/attn/c_attn/strided_slice/stack_2", "shape": [1], "dtype": "int32"}, {"name": "StatefulPartitionedCall/tfgpt2lm_head_model_1/transformer/h_._0/ln_1/batchnorm/ReadVariableOp", "shape": [768], "dtype": "float32"}, {"name": "unknown", "shape": [50257, 768], "dtype": "float32"}, {"name": "StatefulPartitionedCall/tfgpt2lm_head_model_1/transformer/wte/Gather/axis", "shape": [], "dtype": "int32"}, {"name": "unknown_0", "shape": [1024, 768], "dtype": "float32"}, {"name": "StatefulPartitionedCall/tfgpt2lm_head_model_1/transformer/Reshape_2/shape/0", "shape": [], "dtype": "int32"}, {"name": "StatefulPartitionedCall/tfgpt2lm_head_model_1/transformer/range/start", "shape": [], "dtype": "int32"}, {"name": "StatefulPartitionedCall/tfgpt2lm_head_model_1/transformer/range/delta", "shape": [], "dtype": "int32"}, {"name": "StatefulPartitionedCall/tfgpt2lm_head_model_1/transformer/ExpandDims/dim", "shape": [], "dtype": "int32"}, {"name": "StatefulPartitionedCall/tfgpt2lm_head_model_1/transformer/strided_slice_4/stack", "shape": [1], "dtype": "int32"}, {"name": "StatefulPartitionedCall/tfgpt2lm_head_model_1/transformer/strided_slice_4/stack_1", "shape": [1], "dtype": "int32"}, {"name": "StatefulPartitionedCall/tfgpt2lm_head_model_1/transformer/strided_slice_4/stack_2", "shape": [1], "dtype": "int32"}, {"name": "StatefulPartitionedCall/tfgpt2lm_head_model_1/transformer/Gather/axis", "shape": [], "dtype": "int32"}, {"name": "StatefulPartitionedCall/tfgpt2lm_head_model_1/transformer/h_._0/ln_1/moments/mean/reduction_indices", "shape": [1], "dtype": "int32"}, {"name": "StatefulPartitionedCall/tfgpt2lm_head_model_1/transformer/h_._0/ln_1/moments/variance/reduction_indices", "shape": [1], "dtype": "int32"}, {"name": "StatefulPartitionedCall/tfgpt2lm_head_model_1/transformer/h_._0/ln_1/batchnorm/add/y", "shape": [], "dtype": "float32"}, {"name": "StatefulPartitionedCall/tfgpt2lm_head_model_1/transformer/h_._0/ln_1/batchnorm/mul/ReadVariableOp", "shape": [768], "dtype": "float32"}, {"name": "StatefulPartitionedCall/tfgpt2lm_head_model_1/transformer/h_._0/attn/c_attn/strided_slice_1/stack", "shape": [1], "dtype": "int32"}, {"name": "StatefulPartitionedCall/tfgpt2lm_head_model_1/transformer/h_._0/attn/c_attn/strided_slice_1/stack_1", "shape": [1], "dtype": "int32"}, {"name": "StatefulPartitionedCall/tfgpt2lm_head_model_1/transformer/h_._0/attn/c_attn/strided_slice_1/stack_2", "shape": [1], "dtype": "int32"}, {"name": "StatefulPartitionedCall/tfgpt2lm_head_model_1/transformer/h_._0/attn/c_attn/Reshape_1/shape/2", "shape": [], "dtype": "int32"}, {"name": "StatefulPartitionedCall/tfgpt2lm_head_model_1/transformer/h_._0/attn/strided_slice_5/stack", "shape": [1], "dtype": "int32"}, {"name": "StatefulPartitionedCall/tfgpt2lm_head_model_1/transformer/h_._0/attn/strided_slice_5/stack_1", "shape": [1], "dtype": "int32"}, {"name": "StatefulPartitionedCall/tfgpt2lm_head_model_1/transformer/h_._0/attn/strided_slice_5/stack_2", "shape": [1], "dtype": "int32"}, {"name": "StatefulPartitionedCall/tfgpt2lm_head_model_1/transformer/h_._0/attn/Reshape_2/shape/2", "shape": [], "dtype": "int32"}, {"name": "StatefulPartitionedCall/tfgpt2lm_head_model_1/transformer/h_._0/attn/Reshape_2/shape/3", "shape": [], "dtype": "int32"}, {"name": "StatefulPartitionedCall/tfgpt2lm_head_model_1/transformer/h_._0/attn/transpose_2/perm", "shape": [4], "dtype": "int32"}, {"name": "StatefulPartitionedCall/tfgpt2lm_head_model_1/transformer/h_._0/attn/transpose_3/perm", "shape": [4], "dtype": "int32"}, {"name": "StatefulPartitionedCall/tfgpt2lm_head_model_1/transformer/h_._0/attn/strided_slice_13/stack", "shape": [1], "dtype": "int32"}, {"name": "StatefulPartitionedCall/tfgpt2lm_head_model_1/transformer/h_._0/attn/strided_slice_13/stack_1", "shape": [1], "dtype": "int32"}, {"name": "StatefulPartitionedCall/tfgpt2lm_head_model_1/transformer/h_._0/attn/strided_slice_13/stack_2", "shape": [1], "dtype": "int32"}, {"name": "StatefulPartitionedCall/tfgpt2lm_head_model_1/transformer/h_._0/attn/Reshape_4/shape/2", "shape": [], "dtype": "int32"}, {"name": "StatefulPartitionedCall/tfgpt2lm_head_model_1/transformer/h_._0/attn/c_proj/strided_slice_1/stack", "shape": [1], "dtype": "int32"}, {"name": "StatefulPartitionedCall/tfgpt2lm_head_model_1/transformer/h_._0/attn/c_proj/strided_slice_1/stack_1", "shape": [1], "dtype": "int32"}, {"name": "StatefulPartitionedCall/tfgpt2lm_head_model_1/transformer/h_._0/attn/c_proj/strided_slice_1/stack_2", "shape": [1], "dtype": "int32"}, {"name": "StatefulPartitionedCall/tfgpt2lm_head_model_1/transformer/h_._0/attn/c_proj/Reshape_1/shape/2", "shape": [], "dtype": "int32"}, {"name": "StatefulPartitionedCall/tfgpt2lm_head_model_1/transformer/h_._0/ln_2/moments/mean/reduction_indices", "shape": [1], "dtype": "int32"}, {"name": "StatefulPartitionedCall/tfgpt2lm_head_model_1/transformer/h_._0/ln_2/moments/variance/reduction_indices", "shape": [1], "dtype": "int32"}, {"name": "StatefulPartitionedCall/tfgpt2lm_head_model_1/transformer/h_._0/ln_2/batchnorm/add/y", "shape": [], "dtype": "float32"}, {"name": "StatefulPartitionedCall/tfgpt2lm_head_model_1/transformer/h_._0/ln_2/batchnorm/mul/ReadVariableOp", "shape": [768], "dtype": "float32"}, {"name": "StatefulPartitionedCall/tfgpt2lm_head_model_1/transformer/h_._0/mlp/c_fc/strided_slice_1/stack", "shape": [1], "dtype": "int32"}, {"name": "StatefulPartitionedCall/tfgpt2lm_head_model_1/transformer/h_._0/mlp/c_fc/strided_slice_1/stack_1", "shape": [1], "dtype": "int32"}, {"name": "StatefulPartitionedCall/tfgpt2lm_head_model_1/transformer/h_._0/mlp/c_fc/strided_slice_1/stack_2", "shape": [1], "dtype": "int32"}, {"name": "StatefulPartitionedCall/tfgpt2lm_head_model_1/transformer/h_._0/mlp/c_fc/Reshape_1/shape/2", "shape": [], "dtype": "int32"}, {"name": "StatefulPartitionedCall/tfgpt2lm_head_model_1/transformer/h_._0/mlp/Gelu/Pow/y", "shape": [], "dtype": "float32"}, {"name": "StatefulPartitionedCall/tfgpt2lm_head_model_1/transformer/h_._0/mlp/c_proj/strided_slice_1/stack", "shape": [1], "dtype": "int32"}, {"name": "StatefulPartitionedCall/tfgpt2lm_head_model_1/transformer/h_._0/mlp/c_proj/strided_slice_1/stack_1", "shape": [1], "dtype": "int32"}, {"name": "StatefulPartitionedCall/tfgpt2lm_head_model_1/transformer/h_._0/mlp/c_proj/strided_slice_1/stack_2", "shape": [1], "dtype": "int32"}, {"name": "StatefulPartitionedCall/tfgpt2lm_head_model_1/transformer/h_._0/mlp/c_proj/Reshape_1/shape/2", "shape": [], "dtype": "int32"}, {"name": "StatefulPartitionedCall/tfgpt2lm_head_model_1/transformer/h_._1/ln_1/moments/mean/reduction_indices", "shape": [1], "dtype": "int32"}, {"name": "StatefulPartitionedCall/tfgpt2lm_head_model_1/transformer/h_._1/ln_1/moments/variance/reduction_indices", "shape": [1], "dtype": "int32"}, {"name": "StatefulPartitionedCall/tfgpt2lm_head_model_1/transformer/h_._1/ln_1/batchnorm/add/y", "shape": [], "dtype": "float32"}, {"name": "StatefulPartitionedCall/tfgpt2lm_head_model_1/transformer/h_._1/ln_1/batchnorm/mul/ReadVariableOp", "shape": [768], "dtype": "float32"}, {"name": "StatefulPartitionedCall/tfgpt2lm_head_model_1/transformer/h_._1/attn/c_attn/strided_slice_1/stack", "shape": [1], "dtype": "int32"}, {"name": "StatefulPartitionedCall/tfgpt2lm_head_model_1/transformer/h_._1/attn/c_attn/strided_slice_1/stack_1", "shape": [1], "dtype": "int32"}, {"name": "StatefulPartitionedCall/tfgpt2lm_head_model_1/transformer/h_._1/attn/c_attn/strided_slice_1/stack_2", "shape": [1], "dtype": "int32"}, {"name": "StatefulPartitionedCall/tfgpt2lm_head_model_1/transformer/h_._1/attn/c_attn/Reshape_1/shape/2", "shape": [], "dtype": "int32"}, {"name": "StatefulPartitionedCall/tfgpt2lm_head_model_1/transformer/h_._1/attn/strided_slice_5/stack", "shape": [1], "dtype": "int32"}, {"name": "StatefulPartitionedCall/tfgpt2lm_head_model_1/transformer/h_._1/attn/strided_slice_5/stack_1", "shape": [1], "dtype": "int32"}, {"name": "StatefulPartitionedCall/tfgpt2lm_head_model_1/transformer/h_._1/attn/strided_slice_5/stack_2", "shape": [1], "dtype": "int32"}, {"name": "StatefulPartitionedCall/tfgpt2lm_head_model_1/transformer/h_._1/attn/Reshape_2/shape/2", "shape": [], "dtype": "int32"}, {"name": "StatefulPartitionedCall/tfgpt2lm_head_model_1/transformer/h_._1/attn/Reshape_2/shape/3", "shape": [], "dtype": "int32"}, {"name": "StatefulPartitionedCall/tfgpt2lm_head_model_1/transformer/h_._1/attn/transpose_2/perm", "shape": [4], "dtype": "int32"}, {"name": "StatefulPartitionedCall/tfgpt2lm_head_model_1/transformer/h_._1/attn/transpose_3/perm", "shape": [4], "dtype": "int32"}, {"name": "StatefulPartitionedCall/tfgpt2lm_head_model_1/transformer/h_._1/attn/strided_slice_13/stack", "shape": [1], "dtype": "int32"}, {"name": "StatefulPartitionedCall/tfgpt2lm_head_model_1/transformer/h_._1/attn/strided_slice_13/stack_1", "shape": [1], "dtype": "int32"}, {"name": "StatefulPartitionedCall/tfgpt2lm_head_model_1/transformer/h_._1/attn/strided_slice_13/stack_2", "shape": [1], "dtype": "int32"}, {"name": "StatefulPartitionedCall/tfgpt2lm_head_model_1/transformer/h_._1/attn/Reshape_4/shape/2", "shape": [], "dtype": "int32"}, {"name": "StatefulPartitionedCall/tfgpt2lm_head_model_1/transformer/h_._1/attn/c_proj/strided_slice_1/stack", "shape": [1], "dtype": "int32"}, {"name": "StatefulPartitionedCall/tfgpt2lm_head_model_1/transformer/h_._1/attn/c_proj/strided_slice_1/stack_1", "shape": [1], "dtype": "int32"}, {"name": "StatefulPartitionedCall/tfgpt2lm_head_model_1/transformer/h_._1/attn/c_proj/strided_slice_1/stack_2", "shape": [1], "dtype": "int32"}, {"name": "StatefulPartitionedCall/tfgpt2lm_head_model_1/transformer/h_._1/attn/c_proj/Reshape_1/shape/2", "shape": [], "dtype": "int32"}, {"name": "StatefulPartitionedCall/tfgpt2lm_head_model_1/transformer/h_._1/ln_2/moments/mean/reduction_indices", "shape": [1], "dtype": "int32"}, {"name": "StatefulPartitionedCall/tfgpt2lm_head_model_1/transformer/h_._1/ln_2/moments/variance/reduction_indices", "shape": [1], "dtype": "int32"}, {"name": "StatefulPartitionedCall/tfgpt2lm_head_model_1/transformer/h_._1/ln_2/batchnorm/add/y", "shape": [], "dtype": "float32"}, {"name": "StatefulPartitionedCall/tfgpt2lm_head_model_1/transformer/h_._1/ln_2/batchnorm/mul/ReadVariableOp", "shape": [768], "dtype": "float32"}, {"name": "StatefulPartitionedCall/tfgpt2lm_head_model_1/transformer/h_._1/mlp/c_fc/strided_slice_1/stack", "shape": [1], "dtype": "int32"}, {"name": "StatefulPartitionedCall/tfgpt2lm_head_model_1/transformer/h_._1/mlp/c_fc/strided_slice_1/stack_1", "shape": [1], "dtype": "int32"}, {"name": "StatefulPartitionedCall/tfgpt2lm_head_model_1/transformer/h_._1/mlp/c_fc/strided_slice_1/stack_2", "shape": [1], "dtype": "int32"}, {"name": "StatefulPartitionedCall/tfgpt2lm_head_model_1/transformer/h_._1/mlp/c_fc/Reshape_1/shape/2", "shape": [], "dtype": "int32"}, {"name": "StatefulPartitionedCall/tfgpt2lm_head_model_1/transformer/h_._1/mlp/Gelu/Pow/y", "shape": [], "dtype": "float32"}, {"name": "StatefulPartitionedCall/tfgpt2lm_head_model_1/transformer/h_._1/mlp/c_proj/strided_slice_1/stack", "shape": [1], "dtype": "int32"}, {"name": "StatefulPartitionedCall/tfgpt2lm_head_model_1/transformer/h_._1/mlp/c_proj/strided_slice_1/stack_1", "shape": [1], "dtype": "int32"}, {"name": "StatefulPartitionedCall/tfgpt2lm_head_model_1/transformer/h_._1/mlp/c_proj/strided_slice_1/stack_2", "shape": [1], "dtype": "int32"}, {"name": "StatefulPartitionedCall/tfgpt2lm_head_model_1/transformer/h_._1/mlp/c_proj/Reshape_1/shape/2", "shape": [], "dtype": "int32"}, {"name": "StatefulPartitionedCall/tfgpt2lm_head_model_1/transformer/h_._2/ln_1/moments/mean/reduction_indices", "shape": [1], "dtype": "int32"}, {"name": "StatefulPartitionedCall/tfgpt2lm_head_model_1/transformer/h_._2/ln_1/moments/variance/reduction_indices", "shape": [1], "dtype": "int32"}, {"name": "StatefulPartitionedCall/tfgpt2lm_head_model_1/transformer/h_._2/ln_1/batchnorm/add/y", "shape": [], "dtype": "float32"}, {"name": "StatefulPartitionedCall/tfgpt2lm_head_model_1/transformer/h_._2/ln_1/batchnorm/mul/ReadVariableOp", "shape": [768], "dtype": "float32"}, {"name": "StatefulPartitionedCall/tfgpt2lm_head_model_1/transformer/h_._2/attn/c_attn/strided_slice_1/stack", "shape": [1], "dtype": "int32"}, {"name": "StatefulPartitionedCall/tfgpt2lm_head_model_1/transformer/h_._2/attn/c_attn/strided_slice_1/stack_1", "shape": [1], "dtype": "int32"}, {"name": "StatefulPartitionedCall/tfgpt2lm_head_model_1/transformer/h_._2/attn/c_attn/strided_slice_1/stack_2", "shape": [1], "dtype": "int32"}, {"name": "StatefulPartitionedCall/tfgpt2lm_head_model_1/transformer/h_._2/attn/c_attn/Reshape_1/shape/2", "shape": [], "dtype": "int32"}, {"name": "StatefulPartitionedCall/tfgpt2lm_head_model_1/transformer/h_._2/attn/strided_slice_5/stack", "shape": [1], "dtype": "int32"}, {"name": "StatefulPartitionedCall/tfgpt2lm_head_model_1/transformer/h_._2/attn/strided_slice_5/stack_1", "shape": [1], "dtype": "int32"}, {"name": "StatefulPartitionedCall/tfgpt2lm_head_model_1/transformer/h_._2/attn/strided_slice_5/stack_2", "shape": [1], "dtype": "int32"}, {"name": "StatefulPartitionedCall/tfgpt2lm_head_model_1/transformer/h_._2/attn/Reshape_2/shape/2", "shape": [], "dtype": "int32"}, {"name": "StatefulPartitionedCall/tfgpt2lm_head_model_1/transformer/h_._2/attn/Reshape_2/shape/3", "shape": [], "dtype": "int32"}, {"name": "StatefulPartitionedCall/tfgpt2lm_head_model_1/transformer/h_._2/attn/transpose_2/perm", "shape": [4], "dtype": "int32"}, {"name": "StatefulPartitionedCall/tfgpt2lm_head_model_1/transformer/h_._2/attn/transpose_3/perm", "shape": [4], "dtype": "int32"}, {"name": "StatefulPartitionedCall/tfgpt2lm_head_model_1/transformer/h_._2/attn/strided_slice_13/stack", "shape": [1], "dtype": "int32"}, {"name": "StatefulPartitionedCall/tfgpt2lm_head_model_1/transformer/h_._2/attn/strided_slice_13/stack_1", "shape": [1], "dtype": "int32"}, {"name": "StatefulPartitionedCall/tfgpt2lm_head_model_1/transformer/h_._2/attn/strided_slice_13/stack_2", "shape": [1], "dtype": "int32"}, {"name": "StatefulPartitionedCall/tfgpt2lm_head_model_1/transformer/h_._2/attn/Reshape_4/shape/2", "shape": [], "dtype": "int32"}, {"name": "StatefulPartitionedCall/tfgpt2lm_head_model_1/transformer/h_._2/attn/c_proj/strided_slice_1/stack", "shape": [1], "dtype": "int32"}, {"name": "StatefulPartitionedCall/tfgpt2lm_head_model_1/transformer/h_._2/attn/c_proj/strided_slice_1/stack_1", "shape": [1], "dtype": "int32"}, {"name": "StatefulPartitionedCall/tfgpt2lm_head_model_1/transformer/h_._2/attn/c_proj/strided_slice_1/stack_2", "shape": [1], "dtype": "int32"}, {"name": "StatefulPartitionedCall/tfgpt2lm_head_model_1/transformer/h_._2/attn/c_proj/Reshape_1/shape/2", "shape": [], "dtype": "int32"}, {"name": "StatefulPartitionedCall/tfgpt2lm_head_model_1/transformer/h_._2/ln_2/moments/mean/reduction_indices", "shape": [1], "dtype": "int32"}, {"name": "StatefulPartitionedCall/tfgpt2lm_head_model_1/transformer/h_._2/ln_2/moments/variance/reduction_indices", "shape": [1], "dtype": "int32"}, {"name": "StatefulPartitionedCall/tfgpt2lm_head_model_1/transformer/h_._2/ln_2/batchnorm/add/y", "shape": [], "dtype": "float32"}, {"name": "StatefulPartitionedCall/tfgpt2lm_head_model_1/transformer/h_._2/ln_2/batchnorm/mul/ReadVariableOp", "shape": [768], "dtype": "float32"}, {"name": "StatefulPartitionedCall/tfgpt2lm_head_model_1/transformer/h_._2/mlp/c_fc/strided_slice_1/stack", "shape": [1], "dtype": "int32"}, {"name": "StatefulPartitionedCall/tfgpt2lm_head_model_1/transformer/h_._2/mlp/c_fc/strided_slice_1/stack_1", "shape": [1], "dtype": "int32"}, {"name": "StatefulPartitionedCall/tfgpt2lm_head_model_1/transformer/h_._2/mlp/c_fc/strided_slice_1/stack_2", "shape": [1], "dtype": "int32"}, {"name": "StatefulPartitionedCall/tfgpt2lm_head_model_1/transformer/h_._2/mlp/c_fc/Reshape_1/shape/2", "shape": [], "dtype": "int32"}, {"name": "StatefulPartitionedCall/tfgpt2lm_head_model_1/transformer/h_._2/mlp/Gelu/Pow/y", "shape": [], "dtype": "float32"}, {"name": "StatefulPartitionedCall/tfgpt2lm_head_model_1/transformer/h_._2/mlp/c_proj/strided_slice_1/stack", "shape": [1], "dtype": "int32"}, {"name": "StatefulPartitionedCall/tfgpt2lm_head_model_1/transformer/h_._2/mlp/c_proj/strided_slice_1/stack_1", "shape": [1], "dtype": "int32"}, {"name": "StatefulPartitionedCall/tfgpt2lm_head_model_1/transformer/h_._2/mlp/c_proj/strided_slice_1/stack_2", "shape": [1], "dtype": "int32"}, {"name": "StatefulPartitionedCall/tfgpt2lm_head_model_1/transformer/h_._2/mlp/c_proj/Reshape_1/shape/2", "shape": [], "dtype": "int32"}, {"name": "StatefulPartitionedCall/tfgpt2lm_head_model_1/transformer/h_._3/ln_1/moments/mean/reduction_indices", "shape": [1], "dtype": "int32"}, {"name": "StatefulPartitionedCall/tfgpt2lm_head_model_1/transformer/h_._3/ln_1/moments/variance/reduction_indices", "shape": [1], "dtype": "int32"}, {"name": "StatefulPartitionedCall/tfgpt2lm_head_model_1/transformer/h_._3/ln_1/batchnorm/add/y", "shape": [], "dtype": "float32"}, {"name": "StatefulPartitionedCall/tfgpt2lm_head_model_1/transformer/h_._3/ln_1/batchnorm/mul/ReadVariableOp", "shape": [768], "dtype": "float32"}, {"name": "StatefulPartitionedCall/tfgpt2lm_head_model_1/transformer/h_._3/attn/c_attn/strided_slice_1/stack", "shape": [1], "dtype": "int32"}, {"name": "StatefulPartitionedCall/tfgpt2lm_head_model_1/transformer/h_._3/attn/c_attn/strided_slice_1/stack_1", "shape": [1], "dtype": "int32"}, {"name": "StatefulPartitionedCall/tfgpt2lm_head_model_1/transformer/h_._3/attn/c_attn/strided_slice_1/stack_2", "shape": [1], "dtype": "int32"}, {"name": "StatefulPartitionedCall/tfgpt2lm_head_model_1/transformer/h_._3/attn/c_attn/Reshape_1/shape/2", "shape": [], "dtype": "int32"}, {"name": "StatefulPartitionedCall/tfgpt2lm_head_model_1/transformer/h_._3/attn/strided_slice_5/stack", "shape": [1], "dtype": "int32"}, {"name": "StatefulPartitionedCall/tfgpt2lm_head_model_1/transformer/h_._3/attn/strided_slice_5/stack_1", "shape": [1], "dtype": "int32"}, {"name": "StatefulPartitionedCall/tfgpt2lm_head_model_1/transformer/h_._3/attn/strided_slice_5/stack_2", "shape": [1], "dtype": "int32"}, {"name": "StatefulPartitionedCall/tfgpt2lm_head_model_1/transformer/h_._3/attn/Reshape_2/shape/2", "shape": [], "dtype": "int32"}, {"name": "StatefulPartitionedCall/tfgpt2lm_head_model_1/transformer/h_._3/attn/Reshape_2/shape/3", "shape": [], "dtype": "int32"}, {"name": "StatefulPartitionedCall/tfgpt2lm_head_model_1/transformer/h_._3/attn/transpose_2/perm", "shape": [4], "dtype": "int32"}, {"name": "StatefulPartitionedCall/tfgpt2lm_head_model_1/transformer/h_._3/attn/transpose_3/perm", "shape": [4], "dtype": "int32"}, {"name": "StatefulPartitionedCall/tfgpt2lm_head_model_1/transformer/h_._3/attn/strided_slice_13/stack", "shape": [1], "dtype": "int32"}, {"name": "StatefulPartitionedCall/tfgpt2lm_head_model_1/transformer/h_._3/attn/strided_slice_13/stack_1", "shape": [1], "dtype": "int32"}, {"name": "StatefulPartitionedCall/tfgpt2lm_head_model_1/transformer/h_._3/attn/strided_slice_13/stack_2", "shape": [1], "dtype": "int32"}, {"name": "StatefulPartitionedCall/tfgpt2lm_head_model_1/transformer/h_._3/attn/Reshape_4/shape/2", "shape": [], "dtype": "int32"}, {"name": "StatefulPartitionedCall/tfgpt2lm_head_model_1/transformer/h_._3/attn/c_proj/strided_slice_1/stack", "shape": [1], "dtype": "int32"}, {"name": "StatefulPartitionedCall/tfgpt2lm_head_model_1/transformer/h_._3/attn/c_proj/strided_slice_1/stack_1", "shape": [1], "dtype": "int32"}, {"name": "StatefulPartitionedCall/tfgpt2lm_head_model_1/transformer/h_._3/attn/c_proj/strided_slice_1/stack_2", "shape": [1], "dtype": "int32"}, {"name": "StatefulPartitionedCall/tfgpt2lm_head_model_1/transformer/h_._3/attn/c_proj/Reshape_1/shape/2", "shape": [], "dtype": "int32"}, {"name": "StatefulPartitionedCall/tfgpt2lm_head_model_1/transformer/h_._3/ln_2/moments/mean/reduction_indices", "shape": [1], "dtype": "int32"}, {"name": "StatefulPartitionedCall/tfgpt2lm_head_model_1/transformer/h_._3/ln_2/moments/variance/reduction_indices", "shape": [1], "dtype": "int32"}, {"name": "StatefulPartitionedCall/tfgpt2lm_head_model_1/transformer/h_._3/ln_2/batchnorm/add/y", "shape": [], "dtype": "float32"}, {"name": "StatefulPartitionedCall/tfgpt2lm_head_model_1/transformer/h_._3/ln_2/batchnorm/mul/ReadVariableOp", "shape": [768], "dtype": "float32"}, {"name": "StatefulPartitionedCall/tfgpt2lm_head_model_1/transformer/h_._3/mlp/c_fc/strided_slice_1/stack", "shape": [1], "dtype": "int32"}, {"name": "StatefulPartitionedCall/tfgpt2lm_head_model_1/transformer/h_._3/mlp/c_fc/strided_slice_1/stack_1", "shape": [1], "dtype": "int32"}, {"name": "StatefulPartitionedCall/tfgpt2lm_head_model_1/transformer/h_._3/mlp/c_fc/strided_slice_1/stack_2", "shape": [1], "dtype": "int32"}, {"name": "StatefulPartitionedCall/tfgpt2lm_head_model_1/transformer/h_._3/mlp/c_fc/Reshape_1/shape/2", "shape": [], "dtype": "int32"}, {"name": "StatefulPartitionedCall/tfgpt2lm_head_model_1/transformer/h_._3/mlp/Gelu/Pow/y", "shape": [], "dtype": "float32"}, {"name": "StatefulPartitionedCall/tfgpt2lm_head_model_1/transformer/h_._3/mlp/c_proj/strided_slice_1/stack", "shape": [1], "dtype": "int32"}, {"name": "StatefulPartitionedCall/tfgpt2lm_head_model_1/transformer/h_._3/mlp/c_proj/strided_slice_1/stack_1", "shape": [1], "dtype": "int32"}, {"name": "StatefulPartitionedCall/tfgpt2lm_head_model_1/transformer/h_._3/mlp/c_proj/strided_slice_1/stack_2", "shape": [1], "dtype": "int32"}, {"name": "StatefulPartitionedCall/tfgpt2lm_head_model_1/transformer/h_._3/mlp/c_proj/Reshape_1/shape/2", "shape": [], "dtype": "int32"}, {"name": "StatefulPartitionedCall/tfgpt2lm_head_model_1/transformer/h_._4/ln_1/moments/mean/reduction_indices", "shape": [1], "dtype": "int32"}, {"name": "StatefulPartitionedCall/tfgpt2lm_head_model_1/transformer/h_._4/ln_1/moments/variance/reduction_indices", "shape": [1], "dtype": "int32"}, {"name": "StatefulPartitionedCall/tfgpt2lm_head_model_1/transformer/h_._4/ln_1/batchnorm/add/y", "shape": [], "dtype": "float32"}, {"name": "StatefulPartitionedCall/tfgpt2lm_head_model_1/transformer/h_._4/ln_1/batchnorm/mul/ReadVariableOp", "shape": [768], "dtype": "float32"}, {"name": "StatefulPartitionedCall/tfgpt2lm_head_model_1/transformer/h_._4/attn/c_attn/strided_slice_1/stack", "shape": [1], "dtype": "int32"}, {"name": "StatefulPartitionedCall/tfgpt2lm_head_model_1/transformer/h_._4/attn/c_attn/strided_slice_1/stack_1", "shape": [1], "dtype": "int32"}, {"name": "StatefulPartitionedCall/tfgpt2lm_head_model_1/transformer/h_._4/attn/c_attn/strided_slice_1/stack_2", "shape": [1], "dtype": "int32"}, {"name": "StatefulPartitionedCall/tfgpt2lm_head_model_1/transformer/h_._4/attn/c_attn/Reshape_1/shape/2", "shape": [], "dtype": "int32"}, {"name": "StatefulPartitionedCall/tfgpt2lm_head_model_1/transformer/h_._4/attn/strided_slice_5/stack", "shape": [1], "dtype": "int32"}, {"name": "StatefulPartitionedCall/tfgpt2lm_head_model_1/transformer/h_._4/attn/strided_slice_5/stack_1", "shape": [1], "dtype": "int32"}, {"name": "StatefulPartitionedCall/tfgpt2lm_head_model_1/transformer/h_._4/attn/strided_slice_5/stack_2", "shape": [1], "dtype": "int32"}, {"name": "StatefulPartitionedCall/tfgpt2lm_head_model_1/transformer/h_._4/attn/Reshape_2/shape/2", "shape": [], "dtype": "int32"}, {"name": "StatefulPartitionedCall/tfgpt2lm_head_model_1/transformer/h_._4/attn/Reshape_2/shape/3", "shape": [], "dtype": "int32"}, {"name": "StatefulPartitionedCall/tfgpt2lm_head_model_1/transformer/h_._4/attn/transpose_2/perm", "shape": [4], "dtype": "int32"}, {"name": "StatefulPartitionedCall/tfgpt2lm_head_model_1/transformer/h_._4/attn/transpose_3/perm", "shape": [4], "dtype": "int32"}, {"name": "StatefulPartitionedCall/tfgpt2lm_head_model_1/transformer/h_._4/attn/strided_slice_13/stack", "shape": [1], "dtype": "int32"}, {"name": "StatefulPartitionedCall/tfgpt2lm_head_model_1/transformer/h_._4/attn/strided_slice_13/stack_1", "shape": [1], "dtype": "int32"}, {"name": "StatefulPartitionedCall/tfgpt2lm_head_model_1/transformer/h_._4/attn/strided_slice_13/stack_2", "shape": [1], "dtype": "int32"}, {"name": "StatefulPartitionedCall/tfgpt2lm_head_model_1/transformer/h_._4/attn/Reshape_4/shape/2", "shape": [], "dtype": "int32"}, {"name": "StatefulPartitionedCall/tfgpt2lm_head_model_1/transformer/h_._4/attn/c_proj/strided_slice_1/stack", "shape": [1], "dtype": "int32"}, {"name": "StatefulPartitionedCall/tfgpt2lm_head_model_1/transformer/h_._4/attn/c_proj/strided_slice_1/stack_1", "shape": [1], "dtype": "int32"}, {"name": "StatefulPartitionedCall/tfgpt2lm_head_model_1/transformer/h_._4/attn/c_proj/strided_slice_1/stack_2", "shape": [1], "dtype": "int32"}, {"name": "StatefulPartitionedCall/tfgpt2lm_head_model_1/transformer/h_._4/attn/c_proj/Reshape_1/shape/2", "shape": [], "dtype": "int32"}, {"name": "StatefulPartitionedCall/tfgpt2lm_head_model_1/transformer/h_._4/ln_2/moments/mean/reduction_indices", "shape": [1], "dtype": "int32"}, {"name": "StatefulPartitionedCall/tfgpt2lm_head_model_1/transformer/h_._4/ln_2/moments/variance/reduction_indices", "shape": [1], "dtype": "int32"}, {"name": "StatefulPartitionedCall/tfgpt2lm_head_model_1/transformer/h_._4/ln_2/batchnorm/add/y", "shape": [], "dtype": "float32"}, {"name": "StatefulPartitionedCall/tfgpt2lm_head_model_1/transformer/h_._4/ln_2/batchnorm/mul/ReadVariableOp", "shape": [768], "dtype": "float32"}, {"name": "StatefulPartitionedCall/tfgpt2lm_head_model_1/transformer/h_._4/mlp/c_fc/strided_slice_1/stack", "shape": [1], "dtype": "int32"}, {"name": "StatefulPartitionedCall/tfgpt2lm_head_model_1/transformer/h_._4/mlp/c_fc/strided_slice_1/stack_1", "shape": [1], "dtype": "int32"}, {"name": "StatefulPartitionedCall/tfgpt2lm_head_model_1/transformer/h_._4/mlp/c_fc/strided_slice_1/stack_2", "shape": [1], "dtype": "int32"}, {"name": "StatefulPartitionedCall/tfgpt2lm_head_model_1/transformer/h_._4/mlp/c_fc/Reshape_1/shape/2", "shape": [], "dtype": "int32"}, {"name": "StatefulPartitionedCall/tfgpt2lm_head_model_1/transformer/h_._4/mlp/Gelu/Pow/y", "shape": [], "dtype": "float32"}, {"name": "StatefulPartitionedCall/tfgpt2lm_head_model_1/transformer/h_._4/mlp/c_proj/strided_slice_1/stack", "shape": [1], "dtype": "int32"}, {"name": "StatefulPartitionedCall/tfgpt2lm_head_model_1/transformer/h_._4/mlp/c_proj/strided_slice_1/stack_1", "shape": [1], "dtype": "int32"}, {"name": "StatefulPartitionedCall/tfgpt2lm_head_model_1/transformer/h_._4/mlp/c_proj/strided_slice_1/stack_2", "shape": [1], "dtype": "int32"}, {"name": "StatefulPartitionedCall/tfgpt2lm_head_model_1/transformer/h_._4/mlp/c_proj/Reshape_1/shape/2", "shape": [], "dtype": "int32"}, {"name": "StatefulPartitionedCall/tfgpt2lm_head_model_1/transformer/h_._5/ln_1/moments/mean/reduction_indices", "shape": [1], "dtype": "int32"}, {"name": "StatefulPartitionedCall/tfgpt2lm_head_model_1/transformer/h_._5/ln_1/moments/variance/reduction_indices", "shape": [1], "dtype": "int32"}, {"name": "StatefulPartitionedCall/tfgpt2lm_head_model_1/transformer/h_._5/ln_1/batchnorm/add/y", "shape": [], "dtype": "float32"}, {"name": "StatefulPartitionedCall/tfgpt2lm_head_model_1/transformer/h_._5/ln_1/batchnorm/mul/ReadVariableOp", "shape": [768], "dtype": "float32"}, {"name": "StatefulPartitionedCall/tfgpt2lm_head_model_1/transformer/h_._5/attn/c_attn/strided_slice_1/stack", "shape": [1], "dtype": "int32"}, {"name": "StatefulPartitionedCall/tfgpt2lm_head_model_1/transformer/h_._5/attn/c_attn/strided_slice_1/stack_1", "shape": [1], "dtype": "int32"}, {"name": "StatefulPartitionedCall/tfgpt2lm_head_model_1/transformer/h_._5/attn/c_attn/strided_slice_1/stack_2", "shape": [1], "dtype": "int32"}, {"name": "StatefulPartitionedCall/tfgpt2lm_head_model_1/transformer/h_._5/attn/c_attn/Reshape_1/shape/2", "shape": [], "dtype": "int32"}, {"name": "StatefulPartitionedCall/tfgpt2lm_head_model_1/transformer/h_._5/attn/strided_slice_5/stack", "shape": [1], "dtype": "int32"}, {"name": "StatefulPartitionedCall/tfgpt2lm_head_model_1/transformer/h_._5/attn/strided_slice_5/stack_1", "shape": [1], "dtype": "int32"}, {"name": "StatefulPartitionedCall/tfgpt2lm_head_model_1/transformer/h_._5/attn/strided_slice_5/stack_2", "shape": [1], "dtype": "int32"}, {"name": "StatefulPartitionedCall/tfgpt2lm_head_model_1/transformer/h_._5/attn/Reshape_2/shape/2", "shape": [], "dtype": "int32"}, {"name": "StatefulPartitionedCall/tfgpt2lm_head_model_1/transformer/h_._5/attn/Reshape_2/shape/3", "shape": [], "dtype": "int32"}, {"name": "StatefulPartitionedCall/tfgpt2lm_head_model_1/transformer/h_._5/attn/transpose_2/perm", "shape": [4], "dtype": "int32"}, {"name": "StatefulPartitionedCall/tfgpt2lm_head_model_1/transformer/h_._5/attn/transpose_3/perm", "shape": [4], "dtype": "int32"}, {"name": "StatefulPartitionedCall/tfgpt2lm_head_model_1/transformer/h_._5/attn/strided_slice_13/stack", "shape": [1], "dtype": "int32"}, {"name": "StatefulPartitionedCall/tfgpt2lm_head_model_1/transformer/h_._5/attn/strided_slice_13/stack_1", "shape": [1], "dtype": "int32"}, {"name": "StatefulPartitionedCall/tfgpt2lm_head_model_1/transformer/h_._5/attn/strided_slice_13/stack_2", "shape": [1], "dtype": "int32"}, {"name": "StatefulPartitionedCall/tfgpt2lm_head_model_1/transformer/h_._5/attn/Reshape_4/shape/2", "shape": [], "dtype": "int32"}, {"name": "StatefulPartitionedCall/tfgpt2lm_head_model_1/transformer/h_._5/attn/c_proj/strided_slice_1/stack", "shape": [1], "dtype": "int32"}, {"name": "StatefulPartitionedCall/tfgpt2lm_head_model_1/transformer/h_._5/attn/c_proj/strided_slice_1/stack_1", "shape": [1], "dtype": "int32"}, {"name": "StatefulPartitionedCall/tfgpt2lm_head_model_1/transformer/h_._5/attn/c_proj/strided_slice_1/stack_2", "shape": [1], "dtype": "int32"}, {"name": "StatefulPartitionedCall/tfgpt2lm_head_model_1/transformer/h_._5/attn/c_proj/Reshape_1/shape/2", "shape": [], "dtype": "int32"}, {"name": "StatefulPartitionedCall/tfgpt2lm_head_model_1/transformer/h_._5/ln_2/moments/mean/reduction_indices", "shape": [1], "dtype": "int32"}, {"name": "StatefulPartitionedCall/tfgpt2lm_head_model_1/transformer/h_._5/ln_2/moments/variance/reduction_indices", "shape": [1], "dtype": "int32"}, {"name": "StatefulPartitionedCall/tfgpt2lm_head_model_1/transformer/h_._5/ln_2/batchnorm/add/y", "shape": [], "dtype": "float32"}, {"name": "StatefulPartitionedCall/tfgpt2lm_head_model_1/transformer/h_._5/ln_2/batchnorm/mul/ReadVariableOp", "shape": [768], "dtype": "float32"}, {"name": "StatefulPartitionedCall/tfgpt2lm_head_model_1/transformer/h_._5/mlp/c_fc/strided_slice_1/stack", "shape": [1], "dtype": "int32"}, {"name": "StatefulPartitionedCall/tfgpt2lm_head_model_1/transformer/h_._5/mlp/c_fc/strided_slice_1/stack_1", "shape": [1], "dtype": "int32"}, {"name": "StatefulPartitionedCall/tfgpt2lm_head_model_1/transformer/h_._5/mlp/c_fc/strided_slice_1/stack_2", "shape": [1], "dtype": "int32"}, {"name": "StatefulPartitionedCall/tfgpt2lm_head_model_1/transformer/h_._5/mlp/c_fc/Reshape_1/shape/2", "shape": [], "dtype": "int32"}, {"name": "StatefulPartitionedCall/tfgpt2lm_head_model_1/transformer/h_._5/mlp/Gelu/Pow/y", "shape": [], "dtype": "float32"}, {"name": "StatefulPartitionedCall/tfgpt2lm_head_model_1/transformer/h_._5/mlp/c_proj/strided_slice_1/stack", "shape": [1], "dtype": "int32"}, {"name": "StatefulPartitionedCall/tfgpt2lm_head_model_1/transformer/h_._5/mlp/c_proj/strided_slice_1/stack_1", "shape": [1], "dtype": "int32"}, {"name": "StatefulPartitionedCall/tfgpt2lm_head_model_1/transformer/h_._5/mlp/c_proj/strided_slice_1/stack_2", "shape": [1], "dtype": "int32"}, {"name": "StatefulPartitionedCall/tfgpt2lm_head_model_1/transformer/h_._5/mlp/c_proj/Reshape_1/shape/2", "shape": [], "dtype": "int32"}, {"name": "StatefulPartitionedCall/tfgpt2lm_head_model_1/transformer/ln_f/moments/mean/reduction_indices", "shape": [1], "dtype": "int32"}, {"name": "StatefulPartitionedCall/tfgpt2lm_head_model_1/transformer/ln_f/moments/variance/reduction_indices", "shape": [1], "dtype": "int32"}, {"name": "StatefulPartitionedCall/tfgpt2lm_head_model_1/transformer/ln_f/batchnorm/add/y", "shape": [], "dtype": "float32"}, {"name": "StatefulPartitionedCall/tfgpt2lm_head_model_1/transformer/ln_f/batchnorm/mul/ReadVariableOp", "shape": [768], "dtype": "float32"}, {"name": "StatefulPartitionedCall/tfgpt2lm_head_model_1/transformer/strided_slice/stack", "shape": [1], "dtype": "int32"}, {"name": "StatefulPartitionedCall/tfgpt2lm_head_model_1/transformer/strided_slice/stack_1", "shape": [1], "dtype": "int32"}, {"name": "StatefulPartitionedCall/tfgpt2lm_head_model_1/transformer/strided_slice/stack_2", "shape": [1], "dtype": "int32"}, {"name": "StatefulPartitionedCall/tfgpt2lm_head_model_1/transformer/Reshape_3/shape/2", "shape": [], "dtype": "int32"}, {"name": "StatefulPartitionedCall/tfgpt2lm_head_model_1/wte/strided_slice_1/stack", "shape": [1], "dtype": "int32"}, {"name": "StatefulPartitionedCall/tfgpt2lm_head_model_1/wte/strided_slice_1/stack_1", "shape": [1], "dtype": "int32"}, {"name": "StatefulPartitionedCall/tfgpt2lm_head_model_1/wte/strided_slice_1/stack_2", "shape": [1], "dtype": "int32"}, {"name": "StatefulPartitionedCall/tfgpt2lm_head_model_1/wte/Reshape_1/shape/2", "shape": [], "dtype": "int32"}, {"name": "StatefulPartitionedCall/tfgpt2lm_head_model_1/transformer/Reshape/shape/0", "shape": [], "dtype": "int32"}, {"name": "StatefulPartitionedCall/tfgpt2lm_head_model_1/transformer/strided_slice_1/stack", "shape": [1], "dtype": "int32"}, {"name": "StatefulPartitionedCall/tfgpt2lm_head_model_1/transformer/strided_slice_1/stack_1", "shape": [1], "dtype": "int32"}, {"name": "StatefulPartitionedCall/tfgpt2lm_head_model_1/transformer/strided_slice_1/stack_2", "shape": [1], "dtype": "int32"}, {"name": "StatefulPartitionedCall/tfgpt2lm_head_model_1/transformer/Cast_1", "shape": [], "dtype": "int32"}, {"name": "StatefulPartitionedCall/tfgpt2lm_head_model_1/transformer/assert_less/Const", "shape": [2], "dtype": "int32"}, {"name": "StatefulPartitionedCall/tfgpt2lm_head_model_1/transformer/assert_less/Assert/AssertGuard/pivot_f/_83", "shape": [], "dtype": "bool"}, {"name": "StatefulPartitionedCall/tfgpt2lm_head_model_1/transformer/assert_less/Assert/AssertGuard/pivot_t/_84", "shape": [], "dtype": "bool"}]}]}